demo/checkpoints/smadex_csv/DeepFM_smadex_testiiiiing_csv.model (torch, 19694 bytes, 11 tensors)

embedding_layer.embedding_layer.embedding_layers.release_date.weight f4 [4, 1]
000000 09 b7 01 bf 36 83 f0 3e 0a 1d 2b 3e 13 1f 0d 3f
       -0.50669914 0.46975106 0.16710296 0.5512554

embedding_layer.embedding_layer.embedding_layers.release_msrp.weight f4 [4, 1]
000000 01 00 7b 3f d5 8f 29 bf 85 fc d9 bd 53 86 ad 3f
       0.9804688 -0.66235095 -0.106438674 1.3556617

embedding_layer.embedding_layer.embedding_layers.46.weight f4 [4, 4]
000000 00 00 00 00 00 00 00 00 00 00 00 00 00 00 00 00
       0.0 0.0 0.0 0.0
000010 c1 95 5a 3e 49 90 4a be 87 48 53 be 2d 6a 38 3e
       0.21346189 -0.19781603 -0.20633136 0.18009253
000020 e3 8f f7 bd 6f e2 dc 3d 5e 11 15 3e da 66 ab bd
       -0.12087991 0.10785376 0.14557406 -0.08369227
000030 3d 6e 1a b7 1b 7a be b6 5f 9b b5 b6 82 24 96 36
       -9.204782e-06 -5.676656e-06 -5.412308e-06 4.4745984e-06

embedding_layer.embedding_layer.embedding_layers.is_smartphone.weight f4 [4, 4]
000000 00 00 00 00 00 00 00 00 00 00 00 00 00 00 00 00
       0.0 0.0 0.0 0.0
000010 a2 83 31 3b 73 05 e4 3d 52 d7 1a 3d 14 2f 0d bb
       0.0027086516 0.11133852 0.037803 -0.0021542953
000020 3a ea c2 bd 93 fd 81 3d 4b 6d a6 3d a7 8d 6d bd
       -0.095173314 0.063471936 0.08126315 -0.05799642
000030 67 36 03 b7 48 e4 96 b6 6a a1 a1 36 0c bc 2c 37
       -7.820875e-06 -4.496924e-06 4.816965e-06 1.0295782e-05

fm.lr_layer.embedding_layer.embedding_layer.embedding_layers.46.weight f4 [4, 1]
000000 00 00 00 00 3d e0 19 3e e8 bd 7c bd ce 0e 96 b7
       0.0 0.15026946 -0.061704546 -1.7888287e-05

fm.lr_layer.embedding_layer.embedding_layer.embedding_layers.is_smartphone.weight f4 [4, 1]
000000 00 00 00 00 d3 18 fd bc eb 75 55 bd 54 58 03 b6
       0.0 -0.030895626 -0.05211441 -1.9571935e-06

mlp.mlp.0.weight f4 [64, 16]
000000 36 8d 5d 3d af 1b 00 bf 5c 9c 18 3d 96 e5 4b be
       0.054089747 -0.5004224 0.03725849 -0.19911799
000010 b0 1c 0d be 6c 0f a3 be e2 16 67 3d 35 4e a0 3d
       -0.13780475 -0.31847703 0.056418307 0.07827417
000020 e3 57 56 bd f6 b6 5f 3e 4f ef dc 3e cd 0c 7d be
       -0.05232991 0.21847138 0.43151328 -0.24711914
000030 7a c0 02 bc cb cb 0b be b3 61 81 3e ca 15 00 3d
       -0.00798046 -0.1365196 0.2526985 0.03127078
000040 91 e7 71 3d bb 92 15 be b0 2f b0 3c fa f7 87 be
       0.05905873 -0.14606754 0.021507114 -0.2655638
000050 a9 0d c3 3c d6 d6 55 be fd 98 22 be 77 fd ae 3d
       0.023810225 -0.20882735 -0.15878673 0.08544438
000060 ee 08 5d 3e e4 48 a7 3e b2 e9 bb 3e 64 3f 58 3e
       0.21585438 0.326728 0.36701733 0.21117932
000070 79 cc 4b be f3 16 1f 3e 5d bb b0 3e a6 c2 41 be
       -0.19902219 0.15536098 0.34517947 -0.18921909
000080 81 66 3a bd fc 23 29 3d a8 71 34 3d 1a c2 da bd
       -0.04550791 0.041294083 0.044053704 -0.10681553
000090 cf 29 c9 3c 60 68 44 be 89 fb 58 3d 57 77 da 3c
       0.024556069 -0.19180441 0.052974258 0.026668234
0000a0 45 8d 38 be 23 35 da 3d 7d e2 f5 3d 7e 5f fc bd
       -0.1802264 0.10654666 0.1200609 -0.12322901
0000b0 8c b6 9a bd 72 b5 81 3e c3 02 7b 3e 83 d8 6c be
       -0.07554349 0.25333744 0.24512772 -0.23129468
0000c0 33 50 3b 3d 94 56 b6 bd 65 06 a9 3e 9c ff 2c 3e
       0.04573078 -0.08903232 0.3301269 0.16894382
0000d0 0a 07 14 3e 38 28 08 bf c8 db 5c 3d 42 e0 25 3e
       0.1445581 -0.5318637 0.053920537 0.16198829
0000e0 98 c7 bb 39 a6 c2 72 3e 60 cc 11 3e 97 f6 7b be
       0.00035816128 0.23707065 0.14238119 -0.24605785
0000f0 2a 21 55 be fa c5 61 be fe da 0a 3d cd 36 a9 3c
       -0.20813432 -0.22048178 0.033900253 0.020656014
000100 d5 ad 1b be 10 35 b2 3e a0 59 7a 3e fd 0f aa 3c
       -0.1520303 0.34806108 0.24448252 0.020759577
000110 40 01 6a 3d 9b d4 21 be 1f 83 69 bb dd 39 33 be
       0.0571301 -0.15803759 -0.0035631133 -0.17502542
000120 5e e3 a1 3d 0e ad 90 be 0b f9 b9 be 7c 2c 6f 3e
       0.07904695 -0.2825703 -0.36322817 0.23356813
000130 5f 91 0d 3e 25 ff 82 3e f8 77 5e 3e d0 d1 24 be
       0.13824986 0.25585285 0.21725452 -0.16095662
000140 9a 7a f8 3c 44 a1 93 bd 05 fa 93 bc 8c 31 2d bd
       0.030331898 -0.07208493 -0.018063555 -0.04228358
000150 91 67 48 bd f0 5d 71 3e f5 1d 3b be 51 89 87 3d
       -0.048926894 0.2357099 -0.18273146 0.06617988
000160 6b f2 c0 be e3 16 3b 3d e5 38 03 3e b5 cd 87 be
       -0.3768495 0.045676123 0.12814672 -0.2652413
000170 c8 ce 78 be 30 9c 22 3c 5a c5 a7 3d 5c a6 a9 be
       -0.24297631 0.009924933 0.08191939 -0.33134735
000180 9a 55 45 be 65 9a b7 3e 4c 30 97 bd 84 3c a0 3b
       -0.19270936 0.3585998 -0.07382259 0.0048900265
000190 11 0f e5 bb fc 76 c6 be 13 a5 51 be 05 ce 2d be
       -0.0069903214 -0.38762653 -0.20473127 -0.16973121
0001a0 1d cd bb 3e 2a fe 94 be 3b 26 b5 be 04 e9 16 3e
       0.36679927 -0.29100162 -0.3538073 0.14737326
0001b0 67 b5 be bd 8d a6 9a 3e 9a dd d4 bd 00 b9 c7 bc
       -0.093119435 0.30205193 -0.1039383 -0.024380207
0001c0 21 2a a2 bd be af 75 bd 71 bf 32 3e 11 54 e1 3d
       -0.07918192 -0.059982054 0.17455842 0.110023625
0001d0 11 26 64 3c 23 38 35 bc 52 d7 1e be 50 26 0e 3d
       0.013925091 -0.011060747 -0.15511826 0.034704506
0001e0 40 51 e6 3e 75 ea c9 3c 94 d3 30 bf ff cd d1 3e
       0.44983864 0.02464793 -0.6907284 0.40977475
0001f0 7d f9 6a be 4d fb d7 3d e6 45 26 3e b6 0d dc bb
       -0.22946735 0.10545979 0.16237602 -0.0067155017
000200 61 0f 1e be 9f 4b bb 3d 8d 90 b9 3d 14 9d 80 3e
       -0.15435554 0.09145283 0.09060774 0.2511984
000210 79 5e e6 3e 90 24 82 3c 18 c0 05 be 91 aa 00 bc
       0.44993952 0.015886575 -0.13061559 -0.007853166
000220 e5 7e 3e be f0 0e e1 3e 97 66 96 3e ba 86 0a be
       -0.18603094 0.4395671 0.29375145 -0.13527957
000230 84 6b 1c be b4 7f b6 3e 18 21 60 3e 73 7f 69 be
       -0.15275389 0.35644305 0.21887624 -0.22802524
000240 b1 2c cd bd 82 de bb be de 64 23 be d6 c5 7d 3d
       -0.1001829 -0.36693197 -0.15956447 0.06195625
000250 e2 c6 13 be 8d 6f 16 3e 08 ae b1 3e c5 5b 54 3e
       -0.14431337 0.14690991 0.34703088 0.20738132
000260 56 da 8d bd dc c3 b4 bd 38 14 80 be 5d 63 08 be
       -0.0692641 -0.0882642 -0.25015426 -0.13319154
000270 ef 78 77 bc 39 00 34 bc 4b 55 70 bd d1 3d 98 3d
       -0.015104516 -0.010986381 -0.05867509 0.074336655
000280 fb 8e f5 3c fe 86 27 3e a8 2c 1a 3e 30 0a 87 3e
       0.029975405 0.16360089 0.15056098 0.2637496
000290 75 fa b3 3d 3a 58 cd 3d 27 a7 24 bd 79 19 27 3e
       0.08788005 0.100265935 -0.04019847 0.16318311
0002a0 67 92 f1 bd 88 1f 34 3d 28 3a 75 3e 12 f4 ca bc
       -0.11795502 0.043975383 0.23947966 -0.024774585
0002b0 4b 54 c8 bc 52 ff 73 bd 61 fa 77 3c 1e 1c 84 be
       -0.024454257 -0.059569664 0.015135379 -0.25802702
0002c0 03 6c 73 3e f9 d6 fd 3d 3b 38 6f be 4a 76 02 be
       0.23771672 0.123945184 -0.23361294 -0.12740436
0002d0 8b 06 84 bd d9 df e8 3d a5 3e ac 3e 85 6e 1d 3d
       -0.064465605 0.113708206 0.33641544 0.038435478
0002e0 91 be 1e be ff f7 7e bd fd ca 01 3e fd d1 21 be
       -0.15502383 -0.062248226 0.1267509 -0.1580276
0002f0 43 aa 9f be 83 eb 7e bd 3c 62 00 3e 11 d7 9e bd
       -0.31184587 -0.06223632 0.12537473 -0.077558644
000300 23 67 81 be 1a 3c c7 3c 93 c9 12 be bf a4 8f 3e
       -0.25274 0.02432065 -0.14334707 0.2805538
000310 75 89 99 3d 07 72 36 be 53 b3 fb 3d a6 85 49 3d
       0.07496921 -0.17816935 0.12290063 0.049199723
000320 4e 5b 66 be 3c 36 cb 3e 2e e9 9f 3d c4 f5 10 be
       -0.22495767 0.39689815 0.07808147 -0.14156252
000330 f9 2f 4e be 56 2f b4 bb b5 e0 8b 3e e2 75 0c be
       -0.20135488 -0.005498807 0.27319875 -0.13716844
000340 57 61 ae bd d5 d5 c9 3d b0 a9 38 3d 71 69 be 3d
       -0.0851466 0.09855238 0.0450837 0.09297455
000350 20 8d 38 bd f4 ee 7d bd 5f 47 a3 3d 8b fc 82 3a
       -0.045056462 -0.06199546 0.07972597 0.0009993477
000360 ed cc 8f be 4a ba 4d 3e 83 34 b8 bd f2 cf 0e 3d
       -0.28086033 0.20090595 -0.08994391 0.03486628
000370 f6 8b 77 be cd 2a 80 3e ed 31 94 3d 50 19 5f bc
       -0.24174485 0.25032654 0.07236085 -0.013616875
000380 72 7e f1 bd c9 f3 bc bc 3c 9d 13 bd c3 06 73 3c
       -0.11791696 -0.023065465 -0.036038622 0.014833155
000390 42 3f e8 3d 4f 71 44 bc 04 13 4c be 2a 2c 15 3e
       0.113401905 -0.0119899055 -0.19929129 0.14567629
0003a0 4d da 2d be 3b 92 b7 3e 6e 4b dc 3d 1c 5e a4 be
       -0.16977806 0.35853752 0.107565746 -0.3210305
0003b0 e4 ad 36 be 1c 32 c3 3e a9 f3 84 3d 8e 49 0a be
       -0.17839772 0.38124168 0.06491787 -0.13504621
0003c0 13 a2 e8 3b 73 04 00 be 25 19 92 3d d4 02 a6 be
       0.007099399 -0.12501697 0.07133702 -0.32424033
0003d0 5d 23 bd 3d 51 7a cb be bc c9 6d 3d f2 1b c7 3d
       0.09235261 -0.39741758 0.058053717 0.09722127
0003e0 d3 af 7f be 59 ef 53 3e 5a 82 d8 3e 7c ef ba bd
       -0.24969415 0.20696773 0.4228695 -0.09127709
0003f0 60 e2 ed 3e 07 9d ec 3c ea dd bf 3e 05 2b 09 3e
       0.46461773 0.02888347 0.37473994 0.13395317

mlp.mlp.0.bias f4 [64]
000000 a6 d7 29 3d bf 28 89 3d b5 6f 84 3d e4 e2 85 3d
       0.041465424 0.06697225 0.06466619 0.065374166
000010 a7 b3 1b 3e 77 1a ff 3d f7 f6 ee 3d ce 26 ed 3c
       0.1520525 0.1245622 0.116681986 0.028949168
000020 51 7d 8d 3d 6a 96 df bc 4a a6 42 3d e4 e2 f6 bc
       0.06908668 -0.027293403 0.047521867 -0.030137487
000030 8c f1 84 3d 7f 00 93 3c 34 89 6d 3d 4c 17 2e 3d
       0.06491384 0.017944572 0.057992175 0.042502686
000040 9f 20 f2 3c da 2e 7e 3d 80 e1 87 3d 64 12 88 3d
       0.02955657 0.0620564 0.066348076 0.06644133
000050 8a 79 90 3d 0e b1 fd bc 45 4f b4 3d 26 87 91 3d
       0.07054432 -0.030968215 0.08804182 0.07105856
000060 39 75 01 3e b0 a1 7e 3c 5a 30 96 3d b0 95 80 3d
       0.12642373 0.015541479 0.07333441 0.062785506
000070 9c 9c b5 3d b7 52 ef 3d 17 b8 72 3d a2 28 ad 3d
       0.088677615 0.116856985 0.059257593 0.08455016
000080 65 58 aa bb 34 3f 9e 3d 34 a8 ab 3d fb 19 3b bc
       -0.0051985257 0.07726899 0.083816916 -0.011419768
000090 14 bd ac bc 96 a1 af 3d 4b 34 75 3d 1d 17 8e 3d
       -0.021086253 0.08575742 0.059864324 0.06938002
0000a0 1a 5b d1 bc 4e 6e b2 3d 1f 44 12 3c 3a f4 d7 3d
       -0.025556136 0.08712445 0.008927374 0.105446294
0000b0 57 bd 21 bd 68 6b 9a 3d b9 e4 ab bc 87 8e 5a 3d
       -0.03948721 0.07540017 -0.020983087 0.05335858
0000c0 43 96 09 3e a7 50 66 3d 6c 87 88 3d ce 30 8d 3d
       0.13436227 0.05622926 0.06666455 0.068940744
0000d0 ea 79 ed 3d 72 ed 70 3d 64 34 34 3e 4c 19 ea 3d
       0.11595519 0.058820195 0.1759811 0.11430606
0000e0 0f 13 96 3d e4 5e 54 bd 05 b9 98 bd 73 34 1e bd
       0.07327854 -0.051848307 -0.07457165 -0.03862424
0000f0 4b 9e d6 3d 06 ab 54 bd ae 99 eb 3d 0b ad 8c 3d
       0.10479411 -0.051920913 0.115039214 0.06868943

mlp.mlp.2.weight f4 [32, 64]
000000 f2 14 e9 3d a7 cb 64 be 0c f6 67 3c 6c db 85 3e
       0.11380948 -0.22343312 0.014157783 0.26143968
000010 c8 82 44 3e 20 72 57 bd 96 52 0d bd ee 61 00 be
       0.19190514 -0.052599072 -0.03450259 -0.12537357
000020 66 ce 38 be 04 11 96 be 9f 46 0c be e0 4f 26 3e
       -0.18047485 -0.29309857 -0.13698815 0.16241407
000030 77 d8 fc 3d 08 4d d9 bd 60 23 9f bd fa e3 a0 3c
       0.12345975 -0.10610396 -0.07770419 0.019639958
000040 0e ce 5b be 80 9d a1 bc c8 26 61 bd 07 1c be bd
       -0.21465322 -0.019728422 -0.054968625 -0.092826895
000050 46 03 13 3e 0f f5 39 3c 38 c7 8a be 06 b4 ca bd
       0.14356717 0.01134993 -0.27105117 -0.09897618
000060 34 2d 4d be c5 e9 6b be 58 8c 91 3e 61 09 9f bd
       -0.20036775 -0.23038395 0.28427386 -0.07765461
000070 82 25 c9 3d 09 a0 83 bd c6 b3 af 3d 35 ba 9e 3d
       0.09821607 -0.06427009 0.08579211 0.0775036
000080 72 23 b4 bd b2 35 9a bc bd a6 d5 bc 67 62 b2 3c
       -0.08795823 -0.018824432 -0.026080484 0.021775438
000090 57 88 07 3d 17 f9 eb 3d 92 07 42 be f3 e9 54 be
       0.03308901 0.115221195 -0.189482 -0.2079237
0000a0 41 4b 0d 3d 38 e5 2a 3e 24 44 0a bb bb 67 4f 3e
       0.034495596 0.16689003 -0.0021097744 0.20254414
0000b0 26 39 8a 3d a9 37 07 3c 59 04 75 bd 95 9e 6d be
       0.067491814 0.0082530165 -0.0598186 -0.23205025
0000c0 73 f9 a6 3e 96 05 8e 3d 10 7a 83 be 82 6f 3a be
       0.3261219 0.06934659 -0.25679064 -0.182066
0000d0 50 3e 65 3d 8d 58 5e be 07 6d 48 3d be a1 dd 3d
       0.05596763 -0.21713467 0.0489321 0.108218655
0000e0 2c a0 52 3e 03 3b a0 be 25 54 37 bc 13 60 39 3e
       0.20568913 -0.31295022 -0.011189495 0.18103056
0000f0 46 80 53 be 9a 3f 11 be 3f 6f 07 bd 58 4f 8f bd
       -0.20654401 -0.14184418 -0.033065077 -0.069975555
000100 d8 5b f2 3d ff f2 56 bd 6a b3 d7 3d 44 c2 29 3e
       0.11833924 -0.052477833 0.105322674 0.16578013
000110 1b a7 86 3e 9a fc 3d 3e c6 1f c7 be 4e 61 31 3d
       0.26299366 0.18553391 -0.3889143 0.043305688
000120 37 2f 9a 3e 10 d9 1b 3e 4b 31 3c be 16 cb 90 bc
       0.30114147 0.15219522 -0.18378179 -0.017674964
000130 0a ad 21 3e b2 b6 21 3d 4a 97 8b 3e e7 29 9d 3d
       0.15788665 0.039480872 0.27263862 0.07674008
000140 01 11 9a 3e c2 58 75 be 95 af a9 3e 61 b2 ac 3e
       0.30091098 -0.2395964 0.3314177 0.33729842
000150 f9 51 52 be cc cc 7b bd b6 d7 3c 3e 33 38 a7 3c
       -0.20539083 -0.061474606 0.18441662 0.02041254
000160 d2 cf 00 bc 5b f9 da bd 77 e3 b2 3d 9e a3 2a 3f
       -0.007862048 -0.10692092 0.08734792 0.6665591
000170 65 c9 17 3d c0 15 0d 3f b2 b3 7f bd ab 39 93 bd
       0.0370573 0.5511131 -0.06242723 -0.07188734
000180 d5 9b 24 be ac 51 13 3d 4c ec 0d be b6 94 07 be
       -0.1607507 0.03596656 -0.13859671 -0.13240322
000190 f2 ea 92 bd 07 79 a8 3e 2f f8 7c be 38 88 d5 3d
       -0.071737185 0.32904837 -0.2470405 0.10426372
0001a0 ea 00 17 bd 98 4a cd 3e 94 d3 d5 bd 13 25 e6 bd
       -0.036866106 0.40095973 -0.10440746 -0.1123754
0001b0 69 13 02 3e c9 8a 3e 3d 79 28 23 3b d4 17 6d 3c
       0.12702717 0.046519075 0.002489595 0.014471013
0001c0 c9 9d 88 3c 79 0b 16 3e 9d b3 ce 3d e5 2f 05 3e
       0.0166768 0.14652814 0.10092852 0.13006552
0001d0 90 93 61 be 76 f3 38 bd 78 9c 96 3e d1 d1 24 be
       -0.22028947 -0.045154057 0.2941625 -0.16095664
0001e0 c2 ef b9 3e f0 b6 64 3b bd cc 88 3d 08 f5 aa bd
       0.36315733 0.0034899078 0.06679676 -0.08347517
0001f0 ef 8a a9 bd 60 8e ee 3d 4c 5c 68 3d 41 11 40 3e
       -0.082784526 0.116482496 0.056728646 0.18756582
000200 98 15 ed bd 9f 1a 91 be 1b bf 07 3e ed 96 2c be
       -0.11576384 -0.28340623 0.13256495 -0.16854449
000210 38 33 7f 3e 16 a5 76 be 1a 06 1a be b2 6f ff bd
       0.24921882 -0.24086413 -0.1504139 -0.12472476
000220 b3 20 34 3e 10 df d5 bd 86 f9 0d 3e 17 be 22 3e
       0.17590599 -0.104429364 0.13864717 0.15892826
000230 ee 52 73 bc 8c 01 21 be fe 38 6b 3d 70 dd a2 3d
       -0.014851315 -0.15723246 0.0574274 0.07952392
000240 af 56 a6 be ed f1 b8 bd cb 3b 4e 3e b2 96 a7 3d
       -0.3248801 -0.09030519 0.20139997 0.0818304
000250 90 05 ab 3e 06 eb 11 be 39 bf 65 be 03 9e fe bc
       0.3340268 -0.1424981 -0.22436227 -0.031081205
000260 81 ca 18 3d bc 94 1b be 4c 0a 58 3c 14 e9 1d be
       0.037302498 -0.15193456 0.013186049 -0.15420943
000270 72 94 41 bd 1d 9b ce bd dd 14 28 bd 73 56 57 3d
       -0.04726071 -0.10088179 -0.04103552 0.05257268
000280 9f b6 8e bd 8e fb 31 be e4 01 29 be 8f a9 b2 bd
       -0.06968426 -0.17381117 -0.16504627 -0.08723747
000290 61 7d cb bd ee 62 aa bd be d0 64 be d0 1d a0 ba
       -0.099360235 -0.083196506 -0.22345254 -0.0012215916
0002a0 d7 9e a0 3d d8 41 a3 be 38 11 71 3d 3e 2d 32 3e
       0.07842796 -0.31886172 0.05885431 0.17400071
0002b0 29 4b 2e 3e 32 0c 0a bc a9 3d e4 3d 75 16 7c bd
       0.17020859 -0.008425759 0.11144573 -0.061544854
0002c0 9e 56 a6 bd f8 96 cd 3d a1 8a 0b bc 35 26 1d 3e
       -0.0812199 0.10038561 -0.008516938 0.15346606
0002d0 60 9b 15 3d bd 3a 20 be 6a 3c 18 be a2 5b 1a 3e
       0.03652513 -0.15647407 -0.14866796 0.15074018
0002e0 00 63 67 be 54 4b c9 3b 70 a6 5a 3d 60 c8 48 3e
       -0.22596359 0.006143013 0.053381383 0.19607687
0002f0 54 a0 1e 3e 59 e5 e5 bd 8c d3 12 3d 2a e7 1a 3d
       0.15490848 -0.11225385 0.035846278 0.03781811
000300 8c da 84 3e 96 a9 04 3e 53 bb 55 3e 62 1c 43 3d
       0.25947988 0.12955317 0.2087224 0.04763449
000310 21 07 9f bd 0d 41 ba 3e d3 93 f5 bd 7b 5b 5a 3e
       -0.077650316 0.36377755 -0.11991086 0.2132396
000320 94 df 0c 3e e6 89 a7 bd d8 33 77 3d eb 05 49 3e
       0.13757163 -0.08180599 0.060352176 0.19631164
000330 ac eb 84 3e 04 6f 2a 3e 70 12 e7 bd 59 ad 2e 3e
       0.25961053 0.16643912 -0.112828135 0.17058314
000340 b3 cb 28 3d 22 88 46 3e 90 90 4e 3e c0 de 36 3e
       0.041209888 0.19387868 0.20172334 0.1785841
000350 22 f3 0e 3c 26 cc 0c 3e 57 21 9c bc f0 6c 85 3e
       0.00872496 0.13749751 -0.019058866 0.26059675
000360 63 5a 89 be d6 48 29 3d 39 f7 69 bd 8e 83 a6 3e
       -0.26826772 0.041329227 -0.057120536 0.32522243
000370 78 15 89 3d 25 30 50 3f b7 41 06 be 9a 6c 41 bd
       0.06693548 0.8132346 -0.13111006 -0.04722271
000380 67 08 b1 bb 4b 0f 0e bd c6 f6 22 be b1 55 8f be
       -0.005402613 -0.034682553 -0.15914449 -0.27995065
000390 9c 44 86 3e ac 97 62 3e a1 40 6c be 42 06 2c 3d
       0.2622422 0.2212817 -0.23071529 0.041998155
0003a0 1d 7e 1a 3d 9c 1e 97 3e 3b 6e 1c 3e c6 cf 52 3e
       0.037717927 0.2951554 0.15276425 0.20587072
0003b0 2d 91 71 3d 6d c5 fa bc 7c 3a 8f bd db 64 76 3d
       0.05897634 -0.030611718 -0.06993577 0.060154777
0003c0 80 05 f4 3e 8c e4 b7 3d 25 4c 3c 3e 09 d2 3f 3e
       0.47660446 0.08979139 0.18388422 0.18732466
0003d0 27 69 10 be 10 2b a1 3e 2f 11 c2 3e 86 6a 3d be
       -0.14102612 0.31478167 0.37903735 -0.18497667
0003e0 70 07 d2 3d 33 09 31 bd 32 d8 e9 3d cf 8e b0 bd
       0.10255325 -0.043221664 0.11418189 -0.086209886
0003f0 5d 1d 03 be 6a b3 96 bd 79 e7 b1 3e 41 dd 99 be
       -0.1280417 -0.07358439 0.34746912 -0.30051616

mlp.mlp.2.bias f4 [32]
000000 bf 74 85 bc 43 88 88 3d 18 97 7f bc 23 fe 6f 3d
       -0.01629102 0.06666615 -0.015599988 0.058591973
000010 d6 ae 01 3e 3b 7c 72 bc 6d fc 4e 3c fb b3 63 3d
       0.12664351 -0.014800127 0.012633425 0.055591565
000020 72 92 64 3d ae cb 03 bc 58 ae 45 bd b8 40 5e bb
       0.055803724 -0.0080441665 -0.04826197 -0.0033913087
000030 8a 52 26 3e 78 e4 82 3d 1a 5e 88 3d 31 54 ac bc
       0.16242424 0.06391233 0.066585734 -0.02103624
000040 9c 73 c9 3d 2a 19 5f 3d da b8 c4 3d 18 39 7e bc
       0.09836504 0.054467358 0.0960557 -0.015516542
000050 b2 06 ea 3d ef 66 49 3c 3a 3d 82 3d 5e 41 63 3d
       0.11427058 0.012292608 0.06359334 0.05548226
000060 08 6e 82 3d 9a 26 88 3d 2c 61 17 3e 44 15 50 bc
       0.06368643 0.06647988 0.14783162 -0.012700383
000070 ae a2 c6 3c 6f 05 77 3d 3e d2 dc 3d ff 46 63 3d
       0.024247494 0.060307916 0.10782288 0.05548763

mlp.mlp.4.weight f4 [1, 32]
000000 33 6f c9 3e f5 e9 f2 bd bd 2b 6c be 5e d5 86 be
       0.3934265 -0.1186103 -0.2306356 -0.2633466
000010 d3 36 87 3e 83 83 4e be 1c a2 d8 3e b4 bb fe be
       0.26409015 -0.20167355 0.4231118 -0.4975258
000020 39 9d ac be 81 04 72 3b 5e 86 c9 be 4e a7 ef 3e
       -0.337137 0.0036928954 -0.39360327 0.4680733
000030 ff 35 93 3f 63 8b d4 bd ae be de bd 10 78 1a be
       1.1500853 -0.103781484 -0.10876213 -0.15084863
000040 6a 97 ca 3e 8e 04 4e bf d5 dc 00 bf a3 83 26 3c
       0.39568645 -0.804757 -0.5033696 0.010163221
000050 6f 9f a0 3e 7f 47 2f 3f d2 ed 46 be d6 47 ca be
       0.31371638 0.6846847 -0.19426659 -0.3950793
000060 1e b5 03 be de 74 12 be e9 75 9e 3e 94 0b fc 3e
       -0.1286206 -0.14302394 0.30949333 0.49227583
000070 0d e6 b3 3e 33 4b e4 be 76 5d 63 be 83 c5 c8 be
       0.35136452 -0.44588622 -0.22203621 -0.3921319
