demo/checkpoints/tiny_example3/DeepFM_test_csv.model (torch, 47268 bytes, 33 tensors)

embedding_layer.embedding_layer.embedding_layers.userid.weight f4 [26, 4]
00000000: 0000 0000 0000 0000 0000 0000 0000 0000
00000010: 7ee7 8dba 462b 883a 3d41 8eba 9aff 893a
00000020: fae3 813a 48dc 923a c13f 7cba 91dc 6fba
00000030: df3c 75ba 6d29 863a fc74 8dba 7d65 89ba
00000040: a84c 843a d84c 803a d84d 7d3a 135c 5eba
00000050: 8bfe 883a f1e7 6c3a 842e 9aba 36fe 72ba
00000060: 7151 653a bfd1 703a 17a4 88ba 5013 5fba
00000070: 881a 8aba 1db6 443a 66bb 61ba 366e 83ba
00000080: 0ee2 8a3a fd9d 8c3a 3e7f a4ba 269b 7a3a
00000090: ca31 833a 768b 703a 789b 86ba 75c6 8dba
000000a0: 8ae4 9c3a 6c9f 823a 312c 8bba 6ede 5cba
000000b0: 2fb1 8d3a 9794 803a 845f 9f3a 68fd 92ba
000000c0: 6ca7 98ba ff1e 683a 324e 89ba 6c75 83ba
000000d0: 06a5 7b3a a05e 693a 3dd0 813a d534 97ba
000000e0: 1419 913a 81f3 843a d802 95ba 9ced 79ba
000000f0: dc52 7e3a 353a 863a 4601 88ba ece9 88ba
00000100: a07e a6ba 7f4e 633a 053e 8cba e62e 6cba
00000110: 8049 a13a cada 803a 8857 5aba 6fb5 683a
00000120: 37fe 8e3a e304 663a 1fc1 8dba 40a4 74ba
00000130: d304 7dba 3c5a 81ba 3075 80ba 6cfd 993a
00000140: b4a7 823a 2ed8 6b3a 47c5 80ba 6564 6cba
00000150: 029c 643a 7d21 823a bd5d 8a3a bafb 5a3a
00000160: f994 683a 3d84 803a f010 8bba 2853 7fba
00000170: 0dbe 893a 8cf0 763a e2e1 80ba f717 813a
00000180: 8767 773a 5271 913a 80f4 8fba 17e1 96ba
00000190: ad7b 1b39 c70e 0539 5897 b8b8 3ebe b6b7
0.0 0.0 0.0 0.0 -0.0010826436 0.0010388873 -0.0010853183 0.0010528446
0.0009909861 0.0011204565 -0.0009622537 -0.00091499934 -0.0009355079 0.0010235735 -0.001079231 -0.0010482516
0.0010093646 0.0009788526 0.00096627837 -0.0008482348 0.0010451836 0.00090372475 -0.001176313 -0.0009269448
0.00087477925 0.0009186528 -0.0010424879 -0.00085096527 -0.0010536471 0.00075039436 -0.00086109934 -0.0010027352
0.0010595934 0.0010728237 -0.0012550128 0.0009559862 0.0010009345 0.0009176055 -0.0010269722 -0.0010816591
0.0011969965 0.0009965724 -0.0010618028 -0.00084254786 0.0010810251 0.0009809908 0.0012159203 -0.0011214437
-0.0011646575 0.00088547164 -0.0010475575 -0.0010029501 0.00095994805 0.0008902345 0.0009903979 -0.0011536131
0.0011070096 0.0010143371 -0.0011368645 -0.0009534003 0.0009701678 0.0010240736 -0.0010376356 -0.0010445691
-0.0012702532 0.00086710596 -0.0010699636 -0.0009009674 0.001230523 0.0009830829 -0.0008329083 0.00088771334
0.0010909502 0.0008774532 -0.0010815001 -0.00093323365 -0.0009651903 -0.0009868811 -0.000980055 0.0011748499
0.0009968192 0.0008996752 -0.0009824418 -0.00090176455 0.0008720757 0.0009928193 0.0010556501 0.000835355
0.00088722963 0.0009805035 -0.0010609906 -0.0009739869 0.001050891 0.00094199996 -0.0009832943 0.0009849061
0.0009437729 0.0011096394 -0.0010982901 -0.0011511174 0.00014828025 0.00012689373 -8.801994e-05 -2.178468e-05

embedding_layer.embedding_layer.embedding_layers.adgroup_id.weight f4 [96, 4]
00000000: 0000 0000 0000 0000 0000 0000 0000 0000
00000010: cf90 70ba 0f4e 7b3a e466 9fba f190 8bba
00000020: 8eac 93ba 0248 81ba f894 6aba 06a9 843a
00000030: 322d 60ba e68c 88ba eefc 82ba b08b 76ba
00000040: 50e9 873a 245a 633a 3920 803a 30c2 663a
00000050: 049e 72ba 6352 853a 313e 6a3a ee7a 7f3a
00000060: fe3a 71ba 892d 6cba 66e9 85ba 6d38 7dba
00000070: 58ba 883a 1a40 6fba abf6 823a 4a8f 813a
00000080: 0352 853a 40dc 953a c440 7e3a a84d 513a
00000090: 7a95 70ba 74ba 7c3a 0b3a 74ba ce03 72ba
000000a0: 0634 83ba 1eca 853a 0f24 87ba 19d7 703a
000000b0: 90b6 8cba 861c 723a cea4 65ba 4fcd 703a
000000c0: 4b87 72ba 0279 903a 8ebc 8f3a 4f40 7d3a
000000d0: dfdf 843a fa09 7e3a f888 833a 51aa 92ba
000000e0: bb1f 903a bae3 7c3a a090 7fba 8bbd 683a
000000f0: 7bb6 7c3a c80c 6b3a 3e5e 7aba 3267 91ba
00000100: feac 803a 4a0d 6b3a 18a7 8e3a 31c7 84ba
00000110: 38be 8eba db6f 94ba 8f3a 8bba 8928 8a3a
00000120: 67c0 86ba 24b0 88ba 8baa 88ba fc78 883a
00000130: 0fe1 9dba fa4f 65ba b64e a3ba e300 7e3a
00000140: f0bf 5e3a 5137 953a 64f3 9bba c904 793a
00000150: 3829 3f3a 09e6 8aba f90d 9fba 3d27 85ba
00000160: d52b 7bba f435 66ba 480f 87ba 5942 88ba
00000170: 5736 87ba 5e67 873a 7a5d 85ba 42d4 85ba
00000180: 2e34 9dba 6e93 6d3a a2cf 8fba bc1c 80ba
00000190: 8e29 923a 2caa 783a ab44 70ba 9488 6cba
000001a0: 4dbb 75ba 1d0c 863a b760 953a 8e36 7f3a
000001b0: 0354 833a fedb 8cba 59e1 753a 1725 843a
000001c0: cc73 7d3a cc64 88ba 9683 80ba a82e 5bba
000001d0: 2164 823a 197c 7e3a a4f9 823a 0b81 853a
000001e0: d60c 693a af55 723a e63c 443a 8081 893a
000001f0: ada4 8aba 0426 98ba 250e 953a e81e 603a
00000200: 9986 8c3a 50ba 7f3a 5cf9 8eba 9cee 7b3a
00000210: e81e 61ba 7ef6 3eba 9238 783a 2850 84ba
00000220: bab4 7eba 78b0 74ba f7ad 6d3a 5a01 75ba
00000230: 92c8 abba d850 7cba e59a 83ba 6bb1 80ba
00000240: a5d4 73ba de1e 80ba b510 89ba 769c 83ba
00000250: c792 6e3a 1c71 743a 59c6 92ba fab7 91ba
00000260: 28e9 8b3a 72c3 693a 810e 893a 58c7 763a
00000270: 476e 933a 90db 6bba a79d 7f3a 3b32 803a
00000280: c0f3 84ba db30 823a db5f 86ba 838b 99ba
00000290: 64a4 93ba 1eb5 89ba 8403 84ba 5a0d a53a
000002a0: 406f 6c3a 5a10 89ba b4fb 833a 7476 81ba
000002b0: af92 723a 890c 8a3a 6b84 72ba d787 9aba
000002c0: 0636 7e3a 08b4 733a ebd9 9bba 58c8 483a
000002d0: d70a 74ba 805c 86ba 8353 89ba bfaa 903a
000002e0: 9d54 923a 9c10 653a f359 81ba 2746 983a
000002f0: 2b16 60ba 6ab8 91ba 82e1 863a baa5 893a
00000300: 5974 8a3a aaa6 75ba 3320 8e3a 5a8c 803a
00000310: f4d5 7c3a 299e 87ba 32e6 903a d4e8 9e3a
00000320: b2f9 843a 8649 813a 1742 75ba 8384 7cba
00000330: ec68 853a 1be1 7d3a 0d54 8eba 267c 67ba
00000340: 80df 8aba a338 883a c5da 94ba 060b 6d3a
00000350: c27a 9d3a 17e3 7bba ae01 7eba f934 89ba
00000360: 43ac 6aba f26c 5aba 8432 8fba 745e 89ba
00000370: 7e69 8bba bee4 6dba 68f4 8a3a a8e6 64ba
00000380: 5e50 94ba 7136 7cba ce00 853a 10ac 853a
00000390: 25ce 96ba a2d0 8e3a 8858 803a b9f9 84ba
000003a0: 684a 9aba d445 83ba d8fc 9cba d159 9aba
000003b0: 3fcf 8aba 6550 64ba 4ccf 7aba 8ebb a3ba
000003c0: 17da 95ba 34c2 8d3a a6cf 933a ab69 6e3a
000003d0: 9826 88ba 2f72 86ba e184 8dba 9650 3dba
000003e0: 4943 813a 8a73 82ba ca71 81ba 707c 88ba
000003f0: 9b34 8c3a 7d8f 803a 1c91 94ba 0fc4 96ba
0.0 0.0 0.0 0.0 -0.00091768516 0.0009586522 -0.0012161401 -0.0010648054
-0.0011266635 -0.0009863379 -0.00089485897 0.0010121174 -0.00085516565 -0.0010417968 -0.0009993592 -0.00094049703
0.0010369215 0.0008672795 0.0009775228 0.000880274 -0.00092551135 0.0010171648 0.0008935659 0.0009745796
-0.0009202211 -0.0009009471 -0.0010216653 -0.0009659592 0.0010431511 -0.00091266783 0.0009991726 0.0009884622
0.0010171536 0.0011433437 0.0009698982 0.0007984289 -0.0009177547 0.0009640821 -0.00093165104 -0.00092321343
-0.0010010011 0.001020733 -0.0010310429 0.00091873255 -0.001073556 0.00092358177 -0.00087602146 0.0009185867
-0.00092517276 0.0011022391 0.0010966228 0.0009660767 0.001013752 0.00096908177 0.0010035327 -0.0011189674
0.0010995785 0.0009646971 -0.0009749029 0.0008878342 0.0009640229 0.0008966443 -0.00095507863 -0.0011093377
0.0009817181 0.0008966519 0.0010883538 -0.0010130164 -0.001089043 -0.001132484 -0.001062231 0.0010540645
-0.0010280729 -0.001042847 -0.0010426802 0.0010412033 -0.0012045222 -0.0008747574 -0.0012459371 0.0009689463
0.0008497229 0.0011384283 -0.0011898098 0.0009499309 0.0007292214 -0.001059712 -0.0012134901 -0.0010158789
-0.00095814216 -0.00087818434 -0.0010304237 -0.001039575 -0.0010315877 0.0010330488 -0.0010174953 -0.0010210352
-0.00119937 0.0009062801 -0.0010971914 -0.0009774189 0.00111513 0.0009485807 -0.0009165506 -0.0009023037
-0.00093739183 0.0010226999 0.0011396621 0.00097356073 0.0010019544 -0.0010746715 0.0009379588 0.0010081854
0.0009668439 -0.0010406016 -0.0009804841 -0.00083611393 0.0009948054 0.0009707823 0.0009992612 0.0010185553
0.00088901573 0.0009244335 0.0007485881 0.0010490865 -0.0010577642 -0.0011608009 0.0011372013 0.0008549527
0.0010721266 0.0009755241 -0.0010908055 0.00096104457 -0.0008587674 -0.0007284655 0.0009468879 -0.0010094689
-0.00097162614 -0.0009334157 0.00090667553 -0.00093462097 -0.0013106039 -0.0009625084 -0.0010040669 -0.00098185
-0.0009301401 -0.0009774824 -0.001045725 -0.0010041136 0.0009100851 0.0009324716 -0.0011198028 -0.0011117451
0.0010674344 0.0008917368 0.0010456593 0.000941386 0.0011248075 -0.0008997256 0.000975097 0.0009780595
-0.0010143444 0.0009932773 -0.0010251956 -0.0011714551 -0.0011264202 -0.0010506248 -0.0010071849 0.001259248
0.0009019263 -0.0010457144 0.001006952 -0.0009877221 0.0009253425 0.00105323 -0.0009251299 -0.0011789751
0.0009697381 0.0009296541 -0.0011890506 0.0007659248 -0.00093094766 -0.0010250956 -0.0010477159 0.0011037214
0.0011164133 0.0008738132 -0.0009868726 0.0011617587 -0.0008548225 -0.0011117582 0.0010290595 0.0010501661
0.0010563239 -0.0009370843 0.0010843336 0.0009807453 0.00096449186 -0.0010346818 0.0011054932 0.0012123832
0.0010145216 0.0009863831 -0.00093558565 -0.0009632783 0.0010178364 0.00096847274 -0.0010858789 -0.000883045
-0.0010595173 0.0010392856 -0.0011356702 0.0009042475 0.0012014734 -0.0009608729 -0.00096895813 -0.0010468058
-0.00089520606 -0.0008332274 -0.0010925089 -0.001048042 -0.0010636298 -0.0009074918 0.0010601403 -0.000873188
-0.0011315455 -0.00096211495 0.0010147335 0.0010198373 -0.0011505528 0.0010895918 0.0009792009 -0.0010145224
-0.0011771442 -0.0010015317 -0.0011977209 -0.0011776035 -0.0010590329 -0.00087094895 -0.0009567633 -0.0012491809
-0.0011432794 0.0010815323 0.0011277094 0.0009094725 -0.0010387478 -0.0010257418 -0.0010797047 -0.0007221786
0.0009861971 -0.0009952646 -0.0009875831 -0.0010413062 0.001069683 0.0009808388 -0.001133475 -0.0011502522

embedding_layer.embedding_layer.embedding_layers.pid.weight f4 [4, 4]
00000000: 0000 0000 0000 0000 0000 0000 0000 0000
00000010: cc3b 92ba 9bf8 7d3a 3095 5fba acbc 983a
00000020: 8b5d 9aba 622c 813a 86b8 7fba 9a1a 743a
00000030: 111f 88b8 8863 46b8 4e35 cab8 bf1c 3d39
0.0 0.0 0.0 0.0 -0.0011156737 0.0009688229 -0.00085290056 0.0011652908
-0.0011777146 0.0009855146 -0.0009754974 0.0009311825 -6.490772e-05 -4.7299574e-05 -9.6420394e-05 0.00018035153

embedding_layer.embedding_layer.embedding_layers.cate_id.weight f4 [49, 4]
00000000: 0000 0000 0000 0000 0000 0000 0000 0000
00000010: 51ad 853a 3d39 89ba 8f97 5cba d2ba 8c3a
00000020: 6aef 90ba 9001 6cba c77d 87ba 0ed9 88ba
00000030: 9fd2 83ba 626e 93ba 8f61 933a 6cf9 8e3a
00000040: a9fd 513a 8866 95ba 63cc 84ba 9e9a 97ba
00000050: b9bb 86ba 6498 8aba 64a4 73ba ab3b 873a
00000060: 9d95 9bba a649 98ba b994 6eba 8b78 893a
00000070: 010c 9fba 1c7d 61ba 4a09 8aba 15c4 7bba
00000080: 6391 8fba 6604 903a 57f6 8aba 5b11 89ba
00000090: 4c50 8c3a 32f7 623a 32ed 7bba 1b17 753a
000000a0: d8a4 6bba 90c6 85ba a0a8 9cba 95c0 883a
000000b0: 01d3 933a b068 88ba 9416 8aba 0dce 923a
000000c0: 89f9 933a d5eb 70ba 2926 3bba 83c6 86ba
000000d0: 625a 82ba c1d1 87ba d6cc 78ba b6a0 613a
000000e0: 4131 9aba 726b 883a d1c4 8aba 6204 60ba
000000f0: e8ab 863a 4564 8eba 2f9a 7e3a c502 8b3a
00000100: 9931 903a a13e 74ba 1a7c 81ba bef6 69ba
00000110: 1654 92ba c7a7 7fba 8444 96ba 8541 8aba
00000120: 9174 6d3a d754 a9ba 4584 74ba faca 893a
00000130: 1a11 64ba f34e 8eba 6972 96ba e855 853a
00000140: 3884 843a 205f 90ba 2826 8dba ac08 983a
00000150: 7c0c 883a 94dc 77ba 8d21 81ba 79f9 8b3a
00000160: 3d8d 773a b4b1 7eba 049b 993a 2194 7eba
00000170: fa09 913a afaa 8aba 0a59 7dba 2afc 89ba
00000180: 6119 5d3a c825 87ba 837d 65ba 9b82 883a
00000190: 7458 763a 6e52 743a 4c31 5eba 4119 8dba
000001a0: 1a56 713a 5dcc 8fba 1dc6 8cba d029 8c3a
000001b0: 332f 8d3a e177 893a bd69 81ba 7d72 7aba
000001c0: 3285 813a 52f2 70ba ce71 5eba bc42 7fba
000001d0: ef39 67ba 97d6 96ba 4332 8d3a 0995 7fba
000001e0: e808 84ba 7977 92ba 33cc 91ba c6d3 62ba
000001f0: 3e51 7f3a 08fa 8eba c368 67ba 5049 843a
00000200: 6926 9fba 483b 77ba 4c9f 983a 3779 7aba
00000210: 3cba 94ba 3b62 933a 37de 8dba 1c5a 733a
00000220: aa07 62ba d8a5 86ba ccd8 9cba 5a32 833a
00000230: ddb1 9a3a c47f 91ba b413 63ba 26a4 8a3a
00000240: b8a4 8aba 2498 82ba c21f 87ba 93c6 473a
00000250: 45ab 843a 15b5 81ba 0516 7dba b6a7 5d3a
00000260: a7f6 90ba 7200 7d3a 83b0 90ba 6440 87ba
00000270: b4ac 663a a0ee 523a 157c 913a d592 85ba
00000280: 3f90 833a b3ed 803a 946f 8bba 80b9 6b3a
00000290: c48d 8b3a 97ba 60ba 3978 84ba ee1a 8f3a
000002a0: 46d4 773a d280 94ba 76fa 87ba 267e 8d3a
000002b0: a364 883a 7541 8aba af6d 6aba 2a72 833a
000002c0: c45d 843a b461 88ba 3ebe 8cba 6130 763a
000002d0: b2e3 8aba f73f 8bba b4f3 8cba 4e50 683a
000002e0: 8fff 883a eb1a 8d3a 3290 87ba 22fb 6eba
000002f0: fe16 7e3a e7d1 7dba 1953 81ba 838e 7e3a
00000300: 0c72 34b7 3077 3c39 3ada 05b9 e20b 40b8
0.0 0.0 0.0 0.0 0.0010198747 -0.0010469329 -0.0008414918 0.0010736829
-0.0011057679 -0.00090029184 -0.0010337167 -0.0010440664 -0.0010057277 -0.0011248107 0.0011244285 0.0010908074
0.00080105156 -0.0011398355 -0.0010131713 -0.0011566465 -0.0010279334 -0.001057398 -0.00092942105 0.0010317465
-0.001187015 -0.0011618629 -0.0009101141 0.0010488195 -0.0012134315 -0.00086017116 -0.0010531333 -0.00096041086
-0.0010953363 0.0010987639 -0.001060198 -0.0010457443 0.0010705083 0.0008658051 -0.0009610235 0.0009349451
-0.0008989102 -0.0010206271 -0.001195211 0.001043337 0.0011278094 -0.0010407176 -0.0010535293 0.0011200324
0.0011289577 -0.0009190415 -0.000713917 -0.001028255 -0.0009945149 -0.0010362194 -0.0009490972 0.00086070166
-0.0011763946 0.0010407998 -0.001058722 -0.0008545575 0.0010274621 -0.0010863623 0.0009712306 0.0010605684
0.0011001109 -0.0009317194 -0.0009878904 -0.0008925012 -0.0011163976 -0.0009752479 -0.0011464511 -0.0010548091
0.0009058202 -0.0012918961 -0.0009327571 0.0010512762 -0.0008700058 -0.0010857269 -0.0011478189 0.0010172697
0.0010110205 -0.0011014678 -0.0010768818 0.0011599264 0.0010379697 -0.0009455171 -0.0009851918 0.0010679207
0.00094433484 -0.0009715811 0.0011719172 -0.0009711404 0.0011065595 -0.0010579432 -0.0009664452 -0.0010527421
0.00084342627 -0.0010310942 -0.00087543594 0.00104149 0.0009397336 0.00093201443 -0.0008475974 -0.0010764973
0.00092062505 -0.0010970939 -0.0010740195 0.0010693613 0.0010771513 0.0010487997 -0.0009873431 -0.0009553803
0.0009881614 -0.0009191382 -0.0008485586 -0.0009737422 -0.00088205835 -0.0011508045 0.0010772425 -0.0009749686
-0.0010073455 -0.0011174522 -0.0011123478 -0.00086527725 0.0009739584 -0.0010908255 -0.00088275614 0.001009265
-0.0012142184 -0.0009431136 0.0011644154 -0.00095548056 -0.0011347006 0.0011244485 -0.0010823671 0.00092831417
-0.0008622358 -0.0010272814 -0.0011966466 0.0010009513 0.0011802275 -0.0011100699 -0.0008662299 0.0010577484
-0.0010577654 -0.0009963554 -0.0010309147 0.00076208374 0.0010121843 -0.0009895886 -0.0009654465 0.0008455472
-0.0011059836 0.00096512504 -0.0011038933 -0.0010318873 0.00087995385 0.0008046422 0.0011099601 -0.0010190854
0.0010037496 0.0009836465 -0.0010638111 0.000899218 0.0010647108 -0.0008572726 -0.001010663 0.001091806
0.00094539335 -0.0011329895 -0.0010374326 0.0010795041 0.0010405969 -0.0010548072 -0.0008942736 0.001002853
0.0010098745 -0.0010405094 -0.0010737849 0.00093913643 -0.0010596423 -0.0010623921 -0.0010753782 0.0008862064
0.0010452139 0.0010765468 -0.0010342656 -0.0009116401 0.0009692757 -0.0009682462 -0.0009866684 0.0009710567
-1.075539e-05 0.00017973478 -0.00012765164 -4.5787434e-05

embedding_layer.embedding_layer.embedding_layers.campaign_id.weight f4 [99, 4]
00000000: 0000 0000 0000 0000 0000 0000 0000 0000
00000010: 918e 7fba 327c 943a 4f83 843a 152a 473a
00000020: 8b6b 883a fdcd 80ba 499b 8dba 74c8 823a
00000030: 543a 803a 6bf7 973a cde0 853a c499 86ba
00000040: 8a1f 79ba 6174 80ba 3a28 873a ef15 7f3a
00000050: 293b 553a 48a3 713a 69e5 92ba 5efe 65ba
00000060: 9a8d a63a bf7b 8aba 023c 8eba e01e 87ba
00000070: 26b5 843a 3159 5c3a e4ee 77ba 8ae7 6dba
00000080: b54a 7b3a 585d 8a3a 681d 8bba 6bb2 7cba
00000090: 9a58 8a3a 9d28 7eba 4e60 90ba 6088 5fba
000000a0: 7982 843a 34c1 713a 6685 96ba 5713 94ba
000000b0: 4f04 863a e564 7e3a 042d 92ba 22a6 83ba
000000c0: 16af 8fba de26 9cba b365 80ba 70a4 813a
000000d0: ad47 963a f5ae 7cba 7ed0 83ba 52ba 77ba
000000e0: e6a5 8f3a af30 8fba d7c0 90ba e526 973a
000000f0: eca8 643a 7124 8cba f391 82ba 323f 60ba
00000100: 1934 9d3a 2960 863a 73e0 813a 1ef5 88ba
00000110: ecf1 833a e47b 883a 9218 61ba 626c 8fba
00000120: c866 5b3a f112 82ba 4145 9dba d120 88ba
00000130: 8881 733a f188 93ba eef9 92ba 6243 82ba
00000140: f500 893a 07da 7eba 99be 783a 327d 80ba
00000150: 1b9e 803a a4a3 5c3a 8429 9cba 2e88 5cba
00000160: efd8 663a be30 853a c01a 74ba e284 70ba
00000170: 1c07 843a 58ed 5f3a aa13 98ba a9c3 84ba
00000180: 962c 7a3a d54e 42ba 6147 88ba b2c6 7eba
00000190: 76ca 713a a64b 6b3a add9 873a 36d2 81ba
000001a0: 1a86 5a3a 51e6 553a f0c3 94ba 8c5b 903a
000001b0: 709c 8dba 1593 88ba 88bf 7b3a 73ac 853a
000001c0: e720 91ba 9ff9 92ba 551b 78ba d3d3 61ba
000001d0: f704 563a 4c31 973a 4b7b 89ba 44ad 8bba
000001e0: 3010 493a 2aa3 6dba 81a4 82ba 6ecd 5dba
000001f0: 3191 743a cce3 8b3a e001 2cba fab1 8cba
00000200: 9340 763a a6bd 3d3a 5887 883a 44c6 723a
00000210: d7d5 8b3a e50a 903a cd11 55ba e04d 92ba
00000220: 11ab 783a ba03 623a 4fbd 90ba 4558 54ba
00000230: 5833 863a 17b7 a8ba b33f 89ba 2cf4 8fba
00000240: b605 913a 1ef4 87ba 25c6 833a 26e6 8aba
00000250: 2f43 4c3a f6b2 92ba eb5a 82ba 74e2 87ba
00000260: 571d 683a c27f 8b3a 685e 813a 620f 88ba
00000270: 9a57 873a 07c7 8d3a 9885 84ba fecd 8bba
00000280: e0d6 5c3a 46c1 66ba dadb 8b3a 2319 92ba
00000290: 4528 6b3a d689 9f3a f582 94ba 282d 90ba
000002a0: 6f1d 883a 6873 803a ec1f 813a 9e83 8dba
000002b0: 648b 523a 3d6c 75ba 9d9d 743a 7415 7dba
000002c0: 456d 853a 86f2 803a ab1b 8dba 2e10 57ba
000002d0: ad43 633a e758 5eba ec61 66ba 7f68 89ba
000002e0: 20a1 923a e68e 6e3a e4b0 9dba 0933 97ba
000002f0: 2912 943a b250 543a 7571 a23a 1ebf 8aba
00000300: e92a 853a a859 983a dbbe 7f3a af23 93ba
00000310: 0a05 8d3a 3afb 603a aa18 a4ba 2cd2 87ba
00000320: 9fe3 803a 57ef 8e3a f7cb 8bba 25e7 863a
00000330: c5cc 883a d622 913a 7980 9dba 1e53 83ba
00000340: 781e 74ba cc83 653a 8e23 ab3a d7f3 8a3a
00000350: bb4e 9bba 26a9 82ba ddda 80ba dc7e 92ba
00000360: a66c 643a f660 96ba fe19 a2ba cfef 7cba
00000370: c206 653a 2157 86ba 73f0 933a 24a8 813a
00000380: f611 9a3a 6918 a4ba 73f5 723a 7ba4 85ba
00000390: 5e95 6c3a 660e 6b3a ca12 73ba 084f 83ba
000003a0: 9318 583a f275 84ba e466 7dba a04a 66ba
000003b0: 4bd0 723a bb6f 81ba 714f 6aba f050 78ba
000003c0: fa4c 8b3a 5aee 64ba c55b 883a e673 7fba
000003d0: aba2 6d3a 61de 9bba c4db 8c3a f307 80ba
000003e0: aea6 62ba bd69 84ba ad92 92ba 5624 853a
000003f0: a624 863a 6f8c 6cba 1291 7eba fbbc 7bba
0.0 0.0 0.0 0.0 -0.0009748722 0.0011328517 0.0010109934 0.0007597518
0.0010408027 -0.0009827014 -0.0010803725 0.0009977953 0.0009783008 0.0011594122 0.001021409 -0.0010269214
-0.0009503296 -0.0009800309 0.0010311671 0.00097307464 0.0008134121 0.0009217751 -0.0011207286 -0.00087735604
0.0012706995 -0.0010565444 -0.0010851624 -0.0010308884 0.0010124787 0.00084056245 -0.00094579 -0.00090753345
0.00095860224 0.0010556383 -0.0010613622 -0.00096396235 0.001055497 -0.0009695383 -0.0011015029 -0.00085270964
0.0010109685 0.000922221 -0.0011483848 -0.0011297268 0.0010224673 0.00097043655 -0.0011152332 -0.0010044018
-0.0010962214 -0.0011913439 -0.0009795934 0.0009890925 0.0011465453 -0.0009639108 -0.0010056642 -0.0009450066
0.0010959476 -0.0010924543 -0.0011043799 0.0011531977 0.0008722681 -0.0010692013 -0.0009961709 -0.0008554339
0.0011993676 0.0010252047 0.000990881 -0.0010449027 0.0010066605 0.0010412899 -0.000858673 -0.0010942335
0.00083695026 -0.0009923858 -0.0011998789 -0.0010385757 0.0009289016 -0.0011256022 -0.0011213401 -0.0009938295
0.0010452556 -0.00097218197 0.00094888505 -0.0009802936 0.0009812744 0.00084167183 -0.0011914228 -0.00084126263
0.00088061293 0.0010161621 -0.00093118474 -0.00091750745 0.001007292 0.0008542142 -0.001160254 -0.0010129112
0.0009543387 -0.00074122596 -0.0010397249 -0.0009718939 0.00092235894 0.0008975811 0.0010364555 -0.0009904567
0.0008336023 0.0008159625 -0.0011349898 0.0011013611 -0.0010804068 -0.001041981 0.00096034305 0.0010198489
-0.0011072428 -0.0011213309 -0.0009464522 -0.0008614633 0.0008164192 0.0011535077 -0.0010489015 -0.0010656496
0.00076699536 -0.0009065146 -0.0009967239 -0.00084610924 0.00093294965 0.0010672747 -0.00065615587 -0.0010734193
0.00093937776 0.00072380377 0.0010416312 0.0009261111 0.0010668588 0.0010989575 -0.00081279577 -0.0011162125
0.000948594 0.0008621771 -0.0011042746 -0.00081003114 0.001023869 -0.0012871948 -0.0010471254 -0.0010982803
0.0011064324 -0.0010372435 0.0010053559 -0.0010597154 0.00077919936 -0.001119225 -0.0009945309 -0.0010367171
0.00088544696 0.0010642933 0.0009870054 -0.0010380561 0.001032579 0.0010816761 -0.0010110615 -0.0010666249
0.0008424353 -0.00088026037 0.0010670379 -0.0011146407 0.0008970539 0.0012171816 -0.0011330532 -0.0010999786
0.0010384748 0.0009800019 0.0009851432 -0.0010796671 0.0008031635 -0.0009362137 0.00093313475 -0.0009654381
0.001017966 0.0009837903 -0.0010765692 -0.000820401 0.0008669447 -0.00084818754 -0.0008788395 -0.0010483413
0.0011186935 0.0009100273 -0.0012030867 -0.0011535595 0.0011296916 0.0008099183 0.0012393432 -0.0010585522
0.0010159883 0.0011623399 0.00097559177 -0.0011225845 0.0010758948 0.00085823576 -0.0012519557 -0.0010362319
0.0009833461 0.0010905069 -0.0010665645 0.0010292275 0.0010437003 0.0011073004 -0.0012016437 -0.0010019278
-0.00093124015 0.0008755296 0.0013056861 0.0010601234 -0.0011849025 -0.0009968623 -0.0009830851 -0.0011176723
0.00087136996 -0.0011472988 -0.0012367365 -0.00096487714 0.0008736664 -0.0010249355 0.0011286869 0.0009892029
0.001175462 -0.0012519482 0.0009268142 -0.0010196114 0.0009024943 0.0008966684 -0.0009272514 -0.001001806
0.0008243408 -0.0010105951 -0.0009666516 -0.00087849237 0.00092626055 -0.0009875217 -0.00089382293 -0.000947251
0.0010627799 -0.0008733027 0.0010403326 -0.0009744748 0.0009065072 -0.0011891836 0.0010746648 -0.0009767994
-0.0008646053 -0.0010102313 -0.0011182629 0.0010157924 0.0010234311 -0.0009023612 -0.0009710948 -0.00096030504

embedding_layer.embedding_layer.embedding_layers.customer.weight f4 [98, 4]
00000000: 0000 0000 0000 0000 0000 0000 0000 0000
00000010: a419 8eba 3821 85ba bb36 8dba 8501 96ba
00000020: 78d8 89ba 75c7 89ba dd50 873a f6e3 93ba
00000030: 5316 85ba b264 96ba 345f 8eba d188 91ba
00000040: 7ce2 8d3a 6b19 92ba b98b 7fba d474 7c3a
00000050: 0e17 803a 3ccd 8aba 706e a6ba 4e7a 813a
00000060: 4ab3 86ba 653b 8eba 66b9 683a a3fa 703a
00000070: 68ac 72ba 8ee3 7eba c298 9cba 93ff 80ba
00000080: 8955 62ba 3b66 833a 151c 83ba 29f4 593a
00000090: 367c 72ba 91db 84ba 3e6d 823a d14e 6cba
000000a0: 3d8e 863a 8744 8bba b1a7 87ba b211 86ba
000000b0: a2d9 723a 2a95 2eba d8fd 8e3a 5537 653a
000000c0: 07b2 893a d2fd 72ba fa0b 883a ece6 74ba
000000d0: 6b34 8eba 369d 8dba e338 803a 696c 7a3a
000000e0: 4e9c 493a 27ad 46ba 8357 8aba b496 683a
000000f0: 2e56 86ba c5ff 96ba d963 653a 8022 723a
00000100: 2766 8e3a c496 74ba 4dc1 863a 8914 9eba
00000110: 19a0 8a3a 6211 89ba f2b0 783a dda6 87ba
00000120: e6d1 8d3a fb9a 85ba 4b11 843a 03c4 87ba
00000130: 676b 823a b497 4eba 8b58 943a 7ae4 7eba
00000140: 8ab0 84ba b328 78ba 34f7 7c3a 562e 80ba
00000150: 2f14 823a 99f1 80ba 54ca 6c3a ca2d 78ba
00000160: 3570 733a ca6a 53ba 7fb1 8e3a d2e0 60ba
00000170: 7266 8cba 2e3d 88ba 1ab3 6a3a 2d67 75ba
00000180: a8b3 8d3a 5e52 8bba 11b5 40ba c9d5 8c3a
00000190: a483 8c3a a19d 71ba 1e7a 883a d13e 82ba
000001a0: ce80 943a d28f 90ba 076c 9a3a 6665 8dba
000001b0: 751b 87ba a4de 7fba 48b4 8c3a e91a 70ba
000001c0: eb84 623a 387b 8cba 0a4c 853a 4828 85ba
000001d0: 5432 72ba ba5e 6aba 9fae 8aba 1413 593a
000001e0: 4e80 6fba 4b1e 89ba 71e0 95ba b553 843a
000001f0: 21d0 83ba 0052 a6ba a74c 803a 9989 87ba
00000200: f428 803a 566a 67ba f855 71ba 878a 893a
00000210: 82bf 7fba 9b17 8aba 84dc 943a 38fa 813a
00000220: 54a1 633a 4e59 80ba 81f8 82ba 46f8 8b3a
00000230: d578 91ba 37b2 88ba 1981 813a 1b26 6cba
00000240: 9d83 7bba a8fd 89ba b16e 8b3a f6d5 9f3a
00000250: f189 8f3a 0a56 72ba cab1 753a 7eb9 973a
00000260: f70c 733a edc3 8dba 84a6 96ba b4ca 823a
00000270: e5c3 80ba 91c5 7fba 6309 73ba 0f25 853a
00000280: 814f 8dba a0d3 86ba ec98 6cba 2b57 803a
00000290: 7eb0 98ba 1952 873a 2076 91ba 46bf 693a
000002a0: e480 6dba be50 81ba af6a 6e3a d86e 8b3a
000002b0: 827e 84ba 489a 98ba f40a 7eba c2e1 79ba
000002c0: 84f3 823a 4adc 76ba b770 943a 7fec 72ba
000002d0: f84b 6d3a 702f 84ba de76 593a 4573 7dba
000002e0: f67f 84ba c051 83ba e68b 82ba b1e0 80ba
000002f0: 48dd 86ba fac0 83ba 47ba 903a f804 9cba
00000300: 5c47 63ba 986a a23a bf57 89ba 6d3d 753a
00000310: 94ee 6b3a 6a87 59ba d822 8aba 016a 733a
00000320: 3a52 8c3a c63b 83ba ba8e 693a 08f1 873a
00000330: 0203 9d3a a6f7 8a3a 07be 8f3a b609 7dba
00000340: 6292 8aba 32bc 79ba 1fbb 89ba 5272 96ba
00000350: 1c3f 93ba 0574 74ba 32ae 5f3a 24a8 7fba
00000360: d36a 9c3a d40d 8bba 92b0 8a3a 012c 84ba
00000370: 5a8a 8bba 4e0a 91ba 64ee 853a fd71 62ba
00000380: 3a92 613a 1ee6 91ba 4748 97ba 18cc 913a
00000390: 11e3 50ba ad56 93ba 6dbc 83ba 54d6 91ba
000003a0: 30a4 8cba 47ac 923a 478a 8eba 89ca 823a
000003b0: 9f43 8fba 3fe0 89ba 6b62 933a 585a 803a
000003c0: 3166 73ba a05b 6dba 19a9 8b3a de4d 8d3a
000003d0: 053c 79ba 086a 8cba cb6f 763a 182e 943a
000003e0: 5e13 833a 85a6 8bba 16b6 8cba 0802 8cba
000003f0: 8a67 8cba ae7d 58ba 40b6 86ba 3edb 7d3a
0.0 0.0 0.0 0.0 -0.0010841382 -0.0010156995 -0.0010773757 -0.0011444545
-0.0010516783 -0.0010511713 0.0010323782 -0.0011283148 -0.0010153748 -0.0011474101 -0.0010862113 -0.0011103397
0.0010824944 -0.0011146491 -0.00097482983 0.0009630446 0.0009772496 -0.0010589729 -0.0012697708 0.0009878369
-0.0010276821 -0.0010851441 0.0008877724 0.0009192621 -0.0009257258 -0.00097232393 -0.0011947381 -0.0009841792
-0.00086339616 0.0010024974 -0.0010002876 0.0008314276 -0.0009250076 -0.0010136237 0.000995077 -0.000901443
0.0010265779 -0.0010625281 -0.0010349659 -0.0010228662 0.0009263997 -0.00066598004 0.0010909392 0.0008743902
0.0010505327 -0.00092693896 0.0010379546 -0.00093422714 -0.0010849362 -0.0010804299 0.0009782579 0.00095528975
0.0007690833 -0.00075789023 -0.0010554645 0.0008872554 -0.0010249072 -0.0011520317 0.0008750535 0.0009236708
0.0010864184 -0.0009330327 0.0010280997 -0.0012060563 0.0010576277 -0.0010457451 0.0009486816 -0.0010349412
0.0010820001 -0.0010193283 0.0010075954 -0.0010358099 0.0009950221 -0.0007880882 0.0011317892 -0.0009723377
-0.0010123414 -0.0009466514 0.0009649873 -0.0009779434 0.0009924228 -0.0009837627 0.0009032835 -0.00094672723
0.00092864345 -0.0008064924 0.0010886638 -0.0008578423 -0.0010711683 -0.001039421 0.000895308 -0.00093613827
0.0010810988 -0.0010629406 -0.00073512 0.0010744865 0.0010720384 -0.0009216909 0.001041237 -0.0009936934
0.0011329891 -0.001102919 0.0011781462 -0.0010787665 -0.0010307865 -0.0009760654 0.001073488 -0.00091592834
0.0008641022 -0.0010717874 0.0010169756 -0.00101591 -0.0009239067 -0.0008940507 -0.0010580606 0.0008280736
-0.00091362454 -0.0010461299 -0.0011434687 0.0010095747 -0.0010056534 -0.0012689233 0.0009788469 -0.001034069
0.000977783 -0.0008827796 -0.0009206231 0.0010493555 -0.0009756015 -0.00105356 0.0011357223 0.000991649
0.00086834026 -0.000979224 -0.0009992273 0.001067885 -0.0011098633 -0.0010429089 0.0009880393 -0.00090083637
-0.0009594502 -0.0010527866 0.0010637847 0.0012194503 0.0010951144 -0.0009244388 0.0009372501 0.0011575667
0.0009271646 -0.0010815837 -0.0011493717 0.0009978623 -0.0009824006 -0.0009756918 -0.0009271113 0.0010158139
-0.001078114 -0.0010286458 -0.00090254727 0.0009791603 -0.0011649278 0.001032415 -0.0011097826 0.00089167466
-0.0009060039 -0.0009865982 0.00090948766 0.0010637892 -0.0010108503 -0.0011642659 -0.0009690963 -0.0009532237
0.0009990786 -0.0009416981 0.0011325096 -0.0009266808 0.0009052153 -0.0010084938 0.00082956057 -0.00096683606
-0.0010108936 -0.001001887 -0.0009959906 -0.0009832588 -0.0010289336 -0.0010052018 0.0011041843 -0.0011903336
-0.0008669996 0.0012391387 -0.0010478421 0.00093551615 0.00090000895 -0.00082980713 -0.0010538949 0.000928551
0.0010705658 -0.0010012321 0.00089095125 0.0010371516 0.0011979046 0.001060237 0.0010966667 -0.0009652631
-0.001057219 -0.00095266395 -0.0010508037 -0.0011478162 -0.0011234018 -0.00093251496 0.0008532732 -0.0009752533
0.0011933692 -0.001060898 0.0010581187 -0.0010083915 -0.001064609 -0.0011065693 0.0010218141 -0.00086382014
0.00086048583 -0.0011131202 -0.0011541926 0.0011123447 -0.0007968406 -0.0011241041 -0.0010050662 -0.0011126497
-0.0010730084 0.0011190259 -0.001087495 0.0009978573 -0.0010930187 -0.0010519101 0.0011244541 0.000979255
-0.0009284942 -0.00090544857 0.0010655253 0.0010780653 -0.000950754 -0.0010712752 0.0009400814 0.0011305241
0.0010000279 -0.0010654485 -0.0010735418 -0.0010681758 -0.0010712009 -0.0008258474 -0.0010277703 0.0009683854

embedding_layer.embedding_layer.embedding_layers.brand.weight f4 [67, 4]
00000000: 0000 0000 0000 0000 0000 0000 0000 0000
00000010: c4f5 833a f71d 743a 17b0 7e3a 8c5c 8dba
00000020: 1aa8 5e3a 3601 923a 8c80 91ba 4f5f 903a
00000030: 2177 813a 752e 813a 0fb8 6dba 0c2a 7bba
00000040: 6364 703a 24b4 6d3a 1095 5f3a 8626 5dba
00000050: ab4e 913a eda0 623a f070 8aba 8b79 7e3a
00000060: e09e 863a f5b0 753a c149 8c3a f869 8fba
00000070: 4ea6 803a 57f3 7b3a bbd7 853a 00ec 563a
00000080: 36ed 893a b4d7 623a 2311 84ba 358e 823a
00000090: 2992 6b3a 8ce4 7e3a 14d5 853a df49 6a3a
000000a0: 10e8 923a 85e1 813a 77b2 823a e581 82ba
000000b0: e95c 813a 9e1d 913a e5bc 833a 7404 7f3a
000000c0: 1b6f 863a 8b35 9e3a 5030 793a ca22 88ba
000000d0: 44b9 8d3a ccb6 8f3a 11f9 8e3a 52b9 873a
000000e0: 5d47 4e3a b234 793a 2e2c 7f3a 59d3 74ba
000000f0: a28c a23a d914 793a 4e14 603a 3301 823a
00000100: 845c 6d3a de16 8eba a9c1 71ba 7a3f 73ba
00000110: 5110 7b3a c1b6 8c3a 1074 86ba a426 8d3a
00000120: 70c9 923a c457 813a e8f0 8e3a ccdd 8cba
00000130: bf06 833a 52e6 88ba 4e0c 813a e5fa 5dba
00000140: 61e9 8f3a 6aed 8bba 205c 80ba d6e1 823a
00000150: fd3f 66ba 0f1f 763a c362 953a 519d 80ba
00000160: cc0d 793a 4b65 793a 79b8 893a f548 8cba
00000170: 41c1 933a 62cc 8a3a 4101 6e3a 9780 82ba
00000180: 283c 803a 9e13 883a e017 83ba 46fd 793a
00000190: 1b1b 853a 5a28 7c3a 73e2 84ba 8997 8c3a
000001a0: af32 873a 3c7a 873a 7929 7bba e149 823a
000001b0: 9799 823a 4469 8c3a eba8 893a bc04 4bba
000001c0: aaab 8b3a 5698 92ba cc5b 9c3a 89a3 933a
000001d0: c473 863a 5e09 303a ab5e 7c3a 77af 7eba
000001e0: e7d5 893a ff56 7fba f870 a33a 0aaa 93ba
000001f0: 27f1 803a 4816 983a 3084 7a3a 4cca 7d3a
00000200: d2dc 633a 5fb6 613a e824 8f3a d875 8d3a
00000210: 00f6 993a c7c3 743a 7588 863a 516b 8d3a
00000220: 256c 593a c332 7b3a b2e7 74ba 6a7d 8e3a
00000230: 9132 913a d2b5 843a 129a 843a cfa9 92ba
00000240: b9d9 823a 3a6b 853a a521 853a 4937 783a
00000250: cddc 5d3a 2d0f 923a 097c 833a 1b28 6d3a
00000260: eca5 753a 3a49 933a ba80 893a ba04 563a
00000270: 81d1 8c3a fab6 673a c363 7fba 4294 94ba
00000280: a27a 983a 7ad6 7d3a c2ce 74ba 21ca 84ba
00000290: 11c7 833a 3b15 9d3a 2e08 85ba a78c 8aba
000002a0: ccdd 613a 98e0 7b3a eb34 883a 896b 89ba
000002b0: 2ea1 873a 6212 803a 1d32 7c3a f416 833a
000002c0: 7db9 7e3a 8514 673a 1932 78ba 39d7 793a
000002d0: ec35 873a a0aa 82ba 067e 85ba ed96 6dba
000002e0: 9da1 923a f163 9c3a 3e04 7c3a 5e27 753a
000002f0: c670 883a baea a83a d0a2 8b3a 4f0e 4f3a
00000300: 4491 86ba a009 86ba 297c 82ba 232c 92ba
00000310: 1062 713a 8e96 753a c00a 6dba 9f6c 94ba
00000320: ac35 963a 8227 733a 557f 8aba 9d07 68ba
00000330: 438a 7f3a eda4 773a c8f5 853a 3989 87ba
00000340: f4f4 743a afd3 8bba cfe4 94ba 5fc6 813a
00000350: d42e 703a 5b93 873a 7ebf 893a 36ca a1ba
00000360: 5059 83ba 88ff 603a 2582 92ba 8e28 6dba
00000370: 39d1 983a 2a28 763a ece5 5e3a a473 743a
00000380: 089e 7b3a 446f 783a b119 823a 11d8 88ba
00000390: b435 803a 48c0 6aba 944f 90ba 8217 8e3a
000003a0: 1c0a 803a f929 6a3a 78a2 993a aece 8aba
000003b0: 5fc0 85ba 63e3 723a ec37 8c3a 3901 8aba
000003c0: 9080 903a e454 753a 2ff9 9c3a 6ef7 7bba
000003d0: 386b 6c3a ac84 9f3a 0fd6 7b3a ac6c 863a
000003e0: 4811 853a b286 723a 2100 883a 374b 8b3a
000003f0: 7c22 993a c41f 8e3a e485 7e3a 6da3 5d3a
0.0 0.0 0.0 0.0 0.0010067751 0.00093123264 0.00097155705 -0.0010785027
0.0008493677 0.0011139277 -0.0011100932 0.0011014732 0.0009877422 0.0009855764 -0.00090682594 -0.00095811556
0.0009170232 0.00090676756 0.0008528987 -0.00084362214 0.0011086067 0.00086451956 -0.0010562222 0.00097074424
0.0010270737 0.0009372377 0.0010703133 -0.0010941615 0.0009815188 0.00096111506 0.0010211387 0.0008198619
0.0010522965 0.0008653358 -0.0010075908 0.0009960594 0.0008986318 0.0009723387 0.0010210597 0.0008937399
0.0011208076 0.0009909129 0.00099714 -0.0009956924 0.0009869608 0.0011071449 0.0010050802 0.00097281416
0.0010256501 0.00120704 0.00095057953 -0.0010386345 0.001081266 0.0010964512 0.0010907968 0.0010354912
0.00078689103 0.00095064484 0.00097340613 -0.00093393546 0.0012401531 0.0009501703 0.00085479475 0.000991857
0.00090546184 -0.0010840555 -0.0009222278 -0.0009279173 0.00095773215 0.0010735617 -0.0010257978 0.0010768962
0.0011198949 0.0009868075 0.0010905536 -0.0010747253 0.0009996517 -0.0010444617 0.0009845586 -0.0008467867
0.0010979587 -0.0010675613 -0.000979308 0.0009985517 -0.00087833387 0.00093887834 0.0011397231 -0.0009812509
0.0009500652 0.000951369 0.0010507248 -0.0010702895 0.0011272804 0.0010589475 0.00090791663 -0.0009956536
0.0009783553 0.0010381823 -0.0010001622 0.0009536337 0.0010155173 0.000961905 -0.0010138288 0.0010726313
0.0010314788 0.0010336111 -0.000958107 0.000994023 0.0009963986 0.0010712524 0.0010502612 -0.0007744541
0.0010656018 -0.0011184316 0.0011929213 0.0011263947 0.001025789 0.0006715263 0.0009627144 -0.00097154774
0.0010516018 -0.00097404415 0.001246958 -0.0011265886 0.0009837494 0.001160332 0.00095564406 0.00096813287
0.00086922676 0.0008610244 0.0010921033 0.0010792566 0.0011746287 0.00093370344 0.0010264056 0.0010789429
0.0008294008 0.0009582454 -0.00093423866 0.0010871117 0.0011077692 0.0010124987 0.0010116717 -0.0011189523
0.0009983099 0.0010179051 0.0010157122 0.00094686873 0.0008463383 0.0011143439 0.0010031472 0.00090468087
0.00093707326 0.0011237033 0.0010490634 0.00081641565 0.0010743589 0.00088392163 -0.00097423437 -0.0011335688
0.0011633227 0.00096831436 -0.00093386706 -0.001013104 0.0010053833 0.0011984477 -0.0010149532 -0.0010570482
0.0008616119 0.0009608357 0.0010391747 -0.0010484318 0.0010347718 0.0009771104 0.00096205046 0.0010001347
0.0009716971 0.00088150083 -0.00094679144 0.0009530667 0.0010315753 -0.0009969063 -0.0010184653 -0.0009063322
0.001118708 0.001193164 0.0009613669 0.00093518745 0.0010409586 0.0012887337 0.001065338 0.00078985555
-0.0010266681 -0.0010226257 -0.0009955216 -0.001115207 0.0009208033 0.00093684427 -0.00090424344 -0.0011323876
0.0011460087 0.00092756015 -0.0010566512 -0.0008851232 0.00097480806 0.0009446878 0.0010220343 -0.0010340578
0.0009344362 -0.0010667945 -0.0011359694 0.0009901038 0.00091622514 0.0010343598 0.001050934 -0.0012343589
-0.0010021124 0.0008582999 -0.0011177702 -0.00090468756 0.0011659033 0.000939014 0.0008502889 0.0009325093
0.00095984386 0.0009477029 0.000992587 -0.0010440369 0.000978163 -0.0008955044 -0.0011010044 0.0010840746
0.0009768638 0.0008932646 0.0011721393 -0.001059016 -0.0010204426 0.00092654506 0.0010697818 -0.0010528929
0.0011024643 0.0009358658 0.0011976118 -0.000961176 0.00090186624 0.0012170277 0.00096067874 0.0010255775
0.0010152245 0.00092516385 0.0010376015 0.0010627274 0.0011683251 0.0010843207 0.00097092823 0.00084548333

embedding_layer.embedding_layer.embedding_layers.cms_segid.weight f4 [11, 4]
00000000: 0000 0000 0000 0000 0000 0000 0000 0000
00000010: 378e 91ba 84ac 973a 272b 90ba 6154 683a
00000020: 5a2c 903a 8569 a13a cec8 9d3a 54f0 743a
00000030: 8041 8aba 2d95 793a 636e 75ba a5b1 76ba
00000040: 7705 85ba 09b0 84ba 1562 6fba 7271 9a3a
00000050: a848 903a a6ea 813a 6dde 7c3a e4af 4e3a
00000060: 035a 8aba 74cb 983a 5a2d 95ba ca54 aa3a
00000070: fefd 91ba 6a1c 82ba cb77 8c3a ce45 83ba
00000080: d4d2 85ba 8f9c 77ba 100b 46ba 4e66 63ba
00000090: ac1d 943a 756f 95ba 5915 8b3a d547 8b3a
000000a0: 94f6 883a 0b4f 4f3a ac77 a6ba 3de2 803a
0.0 0.0 0.0 0.0 -0.0011105005 0.0011571799 -0.0010999189 0.0008862671
0.0010999546 0.0012314772 0.0012037994 0.0009343673 -0.0010548085 0.0009520825 -0.0009362457 -0.00094106264
-0.0010148723 -0.0010123263 -0.0009131742 0.0011783077 0.0011007981 0.000991185 0.0009646181 0.0007884486
-0.001055539 0.0011657313 -0.0011381314 0.001299524 -0.0011138318 -0.0009926681 0.0010716853 -0.001001531
-0.0010209926 -0.00094456313 -0.0007554749 -0.00086746074 0.0011300347 -0.0011401015 0.001061122 0.0010626266
0.0010449463 0.00079082017 -0.001270046 0.0009833049

embedding_layer.embedding_layer.embedding_layers.cms_group_id.weight f4 [11, 4]
00000000: 0000 0000 0000 0000 0000 0000 0000 0000
00000010: 98c7 923a 5ae4 873a 63b7 7dba c4bc 843a
00000020: ec55 8e3a fef8 78ba 67c6 92ba 0732 873a
00000030: 9774 693a 2c4e 883a c897 a83a da2e 913a
00000040: 848e 793a 885e 833a 2d8e 91ba 5050 7c3a
00000050: 7d6c 843a f9f9 a03a 9f68 84ba 3054 93ba
00000060: ebd1 8d3a 6519 833a 2f8d 7eba 859d 8e3a
00000070: 6ada 423a f579 7b3a 6e3f 8dba 3e77 843a
00000080: 1c5c 853a ed5c 82ba 15b2 85ba fc34 723a
00000090: ce56 773a 34c6 753a bfa6 8cba faa2 78ba
000000a0: fe57 653a 7ef7 693a 0298 81ba e084 6b3a
0.0 0.0 0.0 0.0 0.00111984 0.0010367737 -0.0009678511 0.0010127057
0.0010859347 -0.0009497552 -0.0011198045 0.0010314592 0.0008905618 0.0010399274 0.0012862617 0.0011076585
0.00095198327 0.0010022679 -0.0011104994 0.00096250046 0.0010103133 0.0012281529 -0.001010198 -0.00112403
0.0010820007 0.0010002075 -0.0009710369 0.0010880685 0.0007433059 0.0009593063 -0.001077635 0.0010106338
0.0010174545 -0.0009945907 -0.0010200167 0.00092394627 0.0009435237 0.0009375543 -0.0010730847 -0.00094847346
0.00087487686 0.0008925124 -0.0009887221 0.00089843385

embedding_layer.embedding_layer.embedding_layers.final_gender_code.weight f4 [4, 4]
00000000: 0000 0000 0000 0000 0000 0000 0000 0000
00000010: 7a55 883a 976f 963a b623 68ba bb67 873a
00000020: 5e3b 9e3a 0477 573a 5bbd 82ba 5b09 6d3a
00000030: ecd5 883a 818a 8a3a 5623 85ba 90c4 893a
0.0 0.0 0.0 0.0 0.001040145 0.0011477348 -0.0008855419 0.0010330597
0.0012072136 0.0008219334 -0.0009974645 0.00090422266 0.001043973 0.0010569842 -0.0010157626 0.0010510851

embedding_layer.embedding_layer.embedding_layers.age_level.weight f4 [7, 4]
00000000: 0000 0000 0000 0000 0000 0000 0000 0000
00000010: c944 74ba a3ac 893a c1e8 783a 485e 9aba
00000020: 9772 7dba 15db 7d3a 7400 8e3a c2a8 6eba
00000030: 3c86 9aba 5d57 673a a25b 7f3a c242 8eba
00000040: ef53 8dba 99d1 823a 1df7 6e3a fea4 79ba
00000050: 3f63 54ba 222b 833a 640e 7c3a 0ad3 68ba
00000060: 3215 6bba 14f8 8a3a ff78 74ba 29a1 af3a
0.0 0.0 0.0 0.0 -0.0009318111 0.001050372 0.0009495132 -0.0011777366
-0.00096682593 0.000968383 0.0010833875 -0.00091041264 -0.0011789273 0.0008824969 0.00097411324 -0.0010853636
-0.001078246 0.0009980678 0.0009115802 -0.0009523182 -0.0008101947 0.0010007361 0.00096151815 -0.0008881545
-0.0008967697 0.0010602497 -0.0009325891 0.001339947

embedding_layer.embedding_layer.embedding_layers.pvalue_level.weight f4 [4, 4]
00000000: 0000 0000 0000 0000 0000 0000 0000 0000
00000010: de7e 82ba 611d 83ba 99b5 50ba 3f07 86ba
00000020: dae2 74ba 853b 87ba 99d8 6aba 5e4c 7aba
00000030: 7458 973a 0ed8 85ba 8c35 a7ba 1e41 8aba
0.0 0.0 0.0 0.0 -0.0009956022 -0.0010003262 -0.00079616305 -0.0010225548
-0.0009341665 -0.0010317421 -0.0008958667 -0.0009548123 0.0011546747 -0.0010211484 -0.0012757047 -0.0010547971

embedding_layer.embedding_layer.embedding_layers.shopping_level.weight f4 [5, 4]
00000000: 0000 0000 0000 0000 0000 0000 0000 0000
00000010: dac9 84ba 11cd 79ba b8c3 813a 8c51 733a
00000020: 3e3a a6ba ef8c 4bba 75b2 943a 6d88 813a
00000030: 77cc 82ba 2173 7eba c043 803a 4d0f 693a
00000040: b443 79ba 1d76 81ba 2336 6b3a fdd2 743a
0.0 0.0 0.0 0.0 -0.0010130957 -0.00095291535 0.0009900248 0.0009281866
-0.0012682152 -0.0007764836 0.0011344688 0.0009882577 -0.0009979148 -0.00097064866 0.0009785816 0.00088905246
-0.0009508685 -0.000987712 0.00089726056 0.0009339301

embedding_layer.embedding_layer.embedding_layers.occupation.weight f4 [4, 4]
00000000: 0000 0000 0000 0000 0000 0000 0000 0000
00000010: a9ae 593a a909 80ba 3c66 8b3a ddbc 723a
00000020: 675f 8d3a cd92 8c3a 6ddf 7cba ed3a 943a
00000030: a249 9cba 5f87 7c3a 0bb5 6dba 8cca 743a
0.0 0.0 0.0 0.0 0.00083039195 -0.0009768504 0.0010635327 0.000925971
0.0010785878 0.0010724902 -0.000964633 0.0011309065 -0.00119238 0.0009633209 -0.000906781 0.0009338043

fm.lr_layer.embedding_layer.embedding_layer.embedding_layers.userid.weight f4 [26, 1]
00000000: 0000 0000 546c 86ba 4b40 9aba de71 7eba
00000010: 186b 82ba d443 90ba 073a 9cba 1b2c 85ba
00000020: 4cef 73ba 22ee 99ba 114f 7cba 96aa 8bba
00000030: ef7b 7dba bebc 8cba 2e84 7eba 249b 52ba
00000040: 4c0d 85ba 8323 3eba fd08 7aba ffea 78ba
00000050: d23d 93ba 6dc9 78ba 2b62 7bba 2c65 90ba
00000060: 9ff3 87ba c0b4 50b7
0.0 -0.0010255673 -0.0011768428 -0.00097062986 -0.0009950129 -0.0011006542 -0.0011919149 -0.0010160239
-0.00093053724 -0.0011743943 -0.0009624819 -0.0010655697 -0.00096696516 -0.0010737402 -0.00097090274 -0.0008033982
-0.0010151058 -0.00072532165 -0.00095380825 -0.00094954664 -0.0011233634 -0.0009490464 -0.00095895183 -0.001101648
-0.0010372287 -1.243985e-05

fm.lr_layer.embedding_layer.embedding_layer.embedding_layers.adgroup_id.weight f4 [96, 1]
00000000: 0000 0000 c51f 87ba cc43 6bba dc61 8fba
00000010: 0eb3 63ba 9f1d 8fba 4f09 9eba 107d 56ba
00000020: 6a0c 86ba 26d1 8aba 85b4 85ba 958b 60ba
00000030: 8017 8eba dd08 7cba e87e 4bba 3cd8 7dba
00000040: 7257 80ba 0ed9 93ba 87d3 92ba 2e5a 82ba
00000050: cc50 99ba 6987 84ba 9e23 88ba aa2b 82ba
00000060: 7663 84ba 0b67 85ba 410d 75ba ca25 79ba
00000070: fd1a 80ba 81b3 55ba fb49 82ba 425b 73ba
00000080: ef6d 8cba 34b9 8eba da24 47ba 2f40 6aba
00000090: 909f 93ba 6528 62ba d043 6bba acfd 7cba
000000a0: 3c4f 7cba ac39 71ba 64dc 87ba 6b17 8fba
000000b0: 36f7 88ba 5aeb 81ba 7d57 9eba 9a04 58ba
000000c0: f45a 84ba 8f9e 92ba 9c05 84ba d2e6 7aba
000000d0: ae18 4eba 5396 83ba aed0 9b3a f2b3 87ba
000000e0: 64bb 5eba 9312 9aba 00d1 8eba 1ac8 5cba
000000f0: eee8 82ba 3ebe 73ba b94f 84ba 5b72 70ba
00000100: c59c 4aba 8675 3bba 3f7a 7bba 6e2d 91ba
00000110: 7907 64ba 4668 5fba 796c 84ba 564a 83ba
00000120: 5be9 6dba 4e12 8bba 7d29 82ba efb5 9aba
00000130: d56b 8fba fd62 85ba f08d 7f3a 7d6c 94ba
00000140: c102 7fba a71a 76ba 5c93 55ba 0a15 68ba
00000150: 0c83 9cba f8cf 88ba 11c2 81ba 4745 93ba
00000160: 95d8 82ba d4f2 9aba 443b 82ba e3c0 90ba
00000170: d233 4dba 0451 71ba 8506 8dba 8925 2039
0.0 -0.0010309151 -0.0008974641 -0.0010939199 -0.0008686044 -0.0010918862 -0.0012057218 -0.0008182088
-0.0010227088 -0.0010590896 -0.0010200894 -0.0008565721 -0.0010840744 -0.0009614358 -0.0007762746 -0.00096834055
-0.0009791686 -0.0011279897 -0.0011201956 -0.0009945089 -0.0011697053 -0.0010111156 -0.0010386591 -0.0009931226
-0.0010100442 -0.0010177804 -0.0009347983 -0.0009504227 -0.0009773668 -0.00081520533 -0.0009940261 -0.0009283313
-0.0010713915 -0.0010888935 -0.0007596739 -0.00089359557 -0.0011262763 -0.0008627235 -0.00089746434 -0.0009650837
-0.0009624844 -0.0009202014 -0.0010365364 -0.0010917013 -0.0010449651 -0.0009912059 -0.0012080517 -0.0008240432
-0.0010097907 -0.001118617 -0.0010072473 -0.0009571138 -0.0007861954 -0.0010039307 0.0011887753 -0.001035331
-0.00084965513 -0.0011754803 -0.0010896027 -0.00084221514 -0.0009987631 -0.00092980627 -0.001009456 -0.0009172314
-0.0007729049 -0.0007150996 -0.0009593106 -0.0011076161 -0.0008698623 -0.0008522313 -0.0010103128 -0.0010016661
-0.0009075605 -0.0010610314 -0.0009930577 -0.0011803488 -0.0010942171 -0.0010176596 0.00097486284 -0.0011323836
-0.00097278884 -0.0009388127 -0.00081472634 -0.0008853233 -0.001194091 -0.0010437956 -0.0009899755 -0.0011235856
-0.0009982759 -0.0011821636 -0.0009935875 -0.0011043813 -0.0007827851 -0.00092054927 -0.0010759389 0.00015272772

fm.lr_layer.embedding_layer.embedding_layer.embedding_layers.pid.weight f4 [4, 1]
00000000: 0000 0000 0a42 7fba fa35 8cba 8f79 d5b8
0.0 -0.00097373186 -0.0010697239 -0.000101792735

fm.lr_layer.embedding_layer.embedding_layer.embedding_layers.cate_id.weight f4 [49, 1]
00000000: 0000 0000 b35c 8eba 5a45 83ba 7977 78ba
00000010: 5c3d 8cba f9cc 81ba 1e96 61ba 0868 9fba
00000020: 5ab6 8bba 4352 76ba c30b 83ba 89ae 5eba
00000030: 9d7a 89ba 02b6 84ba bb8a 80ba f4af 8bba
00000040: c173 80ba b5f0 7dba e728 72ba 7c09 8aba
00000050: fa8b 74ba 2f42 87ba 0f70 84ba 70fc 84ba
00000060: 04a1 78ba 2f1d 8dba a48d 87ba 6c0b 8aba
00000070: c37b 6fba f446 7aba 0722 893a 7040 8aba
00000080: 4474 73ba 2872 90ba df31 90ba cfbf 8cba
00000090: 3fd8 91ba 78ba 7aba 6161 8fba 8ace 75ba
000000a0: 25d1 76ba 0dde 75ba c6ce 8bba 2263 62ba
000000b0: fe36 91ba 2337 79ba 74ab adba 8c63 85ba
000000c0: 464c 3838
0.0 -0.0010861367 -0.0010015175 -0.0009478252 -0.0010699439 -0.0009903006 -0.0008605438 -0.0012161741
-0.0010659203 -0.0009396413 -0.0009998012 -0.00084946357 -0.0010488812 -0.0010125043 -0.000980697 -0.0010657297
-0.0009800122 -0.0009687052 -0.00092376623 -0.0010531391 -0.00093287195 -0.0010319407 -0.0010104197 -0.0010146033
-0.00094844424 -0.0010766144 -0.0010341895 -0.0010531968 -0.00091355684 -0.0009547316 0.0010462411 -0.0010547768
-0.0009287039 -0.0011020349 -0.0011001191 -0.0010738316 -0.0011127068 -0.0009564529 -0.0010939055 -0.0009376785
-0.000941532 -0.00093790964 -0.0010666482 -0.0008635988 -0.0011079011 -0.0009506812 -0.001324995 -0.0010176762
4.3940054e-05

fm.lr_layer.embedding_layer.embedding_layer.embedding_layers.campaign_id.weight f4 [99, 1]
00000000: 0000 0000 db86 853a 1421 8dba 1df7 76ba
00000010: a744 5e3a b1c4 90ba e523 92ba 37ab 89ba
00000020: fb88 44ba 96e9 83ba 3cb3 64ba 83db 58ba
00000030: ffd4 81ba 020e 94ba d757 8bba db15 8fba
00000040: 1228 5cba e303 92ba 2c46 72ba f9ec 83ba
00000050: 0d48 8cba 0c0b 80ba 2564 88ba f2d5 7bba
00000060: db98 7bba 35a0 82ba 6e68 52ba 223d 95ba
00000070: 7889 9fba 203a 8cba efdd 87ba b83b 86ba
00000080: 536f 97ba c484 69ba baf7 5eba d1fe 7fba
00000090: 8ae1 8eba fc5f 95ba 9648 7d3a e687 a0ba
000000a0: 0ada 88ba 9cd1 84ba 5f88 88ba 58ab 7cba
000000b0: 990a 78ba 0aea 74ba 7f64 95ba 549a 9bba
000000c0: 9be2 86ba 96f0 88ba f820 93ba 26d7 85ba
000000d0: 79a2 8c3a cf17 84ba 6ca0 91ba b585 79ba
000000e0: e26b 89ba 6ed6 4eba 8dc1 9aba 790d 9bba
000000f0: 8367 80ba b1e5 79ba 23da 82ba 49fa 87ba
00000100: 0fed 95ba 1aee 80ba 6b3a 71ba bdc3 96ba
00000110: f5da 8eba 15fa 7aba 8165 88ba 227b 5eba
00000120: 685e 97ba 3b0e 8aba ca73 84ba de8e 7dba
00000130: e6b3 5eba fb64 81ba 5c9e 82ba 6274 9fba
00000140: c860 84ba ab38 8fba ba14 89ba e7b1 63ba
00000150: e111 85ba 3d7b 83ba b57a 80ba e641 88ba
00000160: af07 83ba c6a4 68ba d8d0 73ba 56fe 8bba
00000170: e92e 82ba a1fc 57ba 101e 7aba dcf3 70ba
00000180: 4ca8 8dba 2379 7eba dc2b 01b8
0.0 0.0010187285 -0.0010767304 -0.0009420978 0.0008478858 -0.0011044947 -0.0011149613 -0.0010503297
-0.00074972183 -0.0010064121 -0.0008724218 -0.0008272456 -0.0009905397 -0.0011295679 -0.0010631037 -0.0010916548
-0.0008398305 -0.0011140074 -0.0009242024 -0.001006513 -0.0010702625 -0.0009768917 -0.0010405822 -0.00096067705
-0.00095976674 -0.0009965958 -0.00080264255 -0.0011386017 -0.0012171706 -0.0010698475 -0.0010365824 -0.0010241186
-0.0011553563 -0.0008908028 -0.0008505542 -0.00097654486 -0.0010900956 -0.0011396403 0.0009662 -0.0012247532
-0.0010440957 -0.0010133269 -0.0010416618 -0.00096385693 -0.00094620284 -0.0009342736 -0.0011397748 -0.0011871555
-0.0010290922 -0.0010447677 -0.0011225035 -0.0010211214 0.0010729573 -0.0010077896 -0.0011110432 -0.000951852
-0.0010484422 -0.0007890229 -0.001180695 -0.0011829577 -0.0009796474 -0.0009532823 -0.0009983223 -0.0010374273
-0.0011438447 -0.0009836585 -0.00092021254 -0.0011502426 -0.0010898995 -0.0009574008 -0.0010406227 -0.0008486976
-0.0011548521 -0.0010532805 -0.0010105309 -0.0009672473 -0.0008495435 -0.0009872013 -0.0009965408 -0.0012165422
-0.0010099644 -0.0010926923 -0.0010458448 -0.00086858723 -0.0010152423 -0.0010031235 -0.0009802195 -0.0010395616
-0.0009996797 -0.0008874651 -0.00093008345 -0.0010680656 -0.0009932193 -0.0008239244 -0.0009541223 -0.00091916113
-0.0010807603 -0.0009707382 -3.0796844e-05

fm.lr_layer.embedding_layer.embedding_layer.embedding_layers.customer.weight f4 [98, 1]
00000000: 0000 0000 38c3 66ba 6d14 64ba 9870 8bba
00000010: 2696 8cba 1b3a 85ba fdfc 78ba 0a4c 88ba
00000020: 151f 803a bb2e 33ba 86ce 8bba e47c 82ba
00000030: 6cfd 66ba 53de 83ba f156 82ba 192a 75ba
00000040: fc7e 85ba 5c5c 62ba 71eb 8bba fac2 99ba
00000050: 6980 72ba 393d 98ba f64f 74ba 6548 92ba
00000060: 477c 82ba 8529 6cba 9681 86ba 6b0e 6cba
00000070: 7c81 81ba b22d 64ba 9668 8aba 6af1 8bba
00000080: 0e6a 85ba 18e7 81ba fa3e 5cba 6062 82ba
00000090: 5d88 85ba 7831 5aba 309a 9eba 921a 77ba
000000a0: b745 91ba 1678 79ba 1500 943a 8644 82ba
000000b0: 43d0 80ba 0679 90ba 7ead 75ba 1300 7aba
000000c0: 8c7a 723a 8cf5 8bba 97e6 4aba c82c 78ba
000000d0: 2656 6bba 1ebc 99ba 4aaa 86ba d5f6 87ba
000000e0: ca69 7dba fbab 85ba b924 87ba d1d3 71ba
000000f0: 1674 70ba dd3d 9aba 1ec1 8bba 2417 8cba
00000100: 0a13 9fba cb94 76ba 5904 8aba 00fa 8aba
00000110: 6643 6bba c0ce 7bba 886f 82ba 73d4 8eba
00000120: 85a8 76ba b636 9eba 80a6 a0ba 0848 873a
00000130: 5b53 8dba 6907 87ba ac17 7dba 5d24 76ba
00000140: 1ebd 82ba 96d5 9cba cc8e 84ba f491 83ba
00000150: 28e5 7fba 0256 85ba dd5b 93ba abf3 8bba
00000160: 7d2b 77ba 92d7 92ba dc50 69ba 41e7 82ba
00000170: 3a7c 8bba 922a 85ba fb5b 83ba 5136 88ba
00000180: 967c 87ba 1da2 e9b8
0.0 -0.00088028936 -0.00087005534 -0.0010638414 -0.00107259 -0.0010164412 -0.00094981474 -0.0010398638
0.0009774888 -0.00068352715 -0.0010666407 -0.0009955433 -0.00088115665 -0.0010060765 -0.0009944123 -0.00093522813
-0.0010184939 -0.00086349784 -0.0010675025 -0.0011731081 -0.0009250702 -0.0011614925 -0.00093197764 -0.0011160491
-0.000995525 -0.00090088724 -0.0010262008 -0.0009004834 -0.0009880508 -0.0008704319 -0.0010559733 -0.0010676805
-0.0010178701 -0.000991079 -0.0008401718 -0.0009947531 -0.0010187734 -0.00083234115 -0.0012100395 -0.00094262615
-0.0011083399 -0.00095164904 0.0011291528 -0.0009938634 -0.0009827692 -0.0011022396 -0.00093718607 -0.0009536754
0.0009249828 -0.0010678037 -0.0007740049 -0.0009467122 -0.00089773757 -0.0011729037 -0.0010274139 -0.0010373244
-0.0009666948 -0.0010198349 -0.0010310627 -0.00092249835 -0.00091725716 -0.0011767704 -0.0010662412 -0.0010688049
-0.0012136411 -0.0009406327 -0.001052986 -0.001060307 -0.0008974582 -0.0009605698 -0.0009951452 -0.0010897055
-0.00094092666 -0.0012070748 -0.0012256652 0.001032115 -0.0010782288 -0.0010301891 -0.00096547115 -0.0009389574
-0.0009974574 -0.0011965509 -0.0010113358 -0.0010038004 -0.0009761625 -0.0010172727 -0.0011242587 -0.0010677477
-0.00094287825 -0.0011203161 -0.00089002936 -0.0009987132 -0.0010641881 -0.0010159782 -0.0010021919 -0.0010392164
-0.0010336812 -0.00011140502
