demo/checkpoints/tiny_h5/DeepFM_test_h5.model (torch, 47231 bytes, 33 tensors)

embedding_layer.embedding_layer.embedding_layers.userid.weight f4 [26, 4]
00000000: 0000 0000 0000 0000 0000 0000 0000 0000
00000010: 22b7 8b3a bbef 95ba 9453 72ba f291 623a
00000020: d5a7 863a 7830 99ba ecfe 7cba 9cb8 6e3a
00000030: 68e2 88ba de83 7fba 3b59 84ba 19a9 94ba
00000040: 0274 8d3a 13ca 61ba 902c 8aba f302 98ba
00000050: 9a6d 87ba 8b0b 893a abbb 853a 48e6 58ba
00000060: 3044 84ba 3124 7dba 2a88 a1ba 0b6b 8c3a
00000070: f03c 72ba cca0 8aba ff5c 8aba 9782 7e3a
00000080: 92f1 81ba b3c7 8dba 694b 7cba 921b 953a
00000090: 77a1 823a bbdb 903a d602 673a e509 893a
000000a0: 3865 7dba c6f2 85ba c08b 70ba c7fb 86ba
000000b0: 1bc9 803a d8fe 88ba 381e 6eba 2644 833a
000000c0: 04db 6eba 0bec 93ba 66d5 87ba 085d 933a
000000d0: 7812 7b3a 9685 7cba a0fb 8eba 67b2 7e3a
000000e0: 7023 83ba 2b8f 8cba 4452 6eba a92b 7c3a
000000f0: 9c57 5c3a 88c4 9dba 6838 8cba 553e 93ba
00000100: e590 85ba e6cc 80ba d182 67ba 81a6 893a
00000110: 9db7 8c3a 30db 83ba 02a4 8a3a 5899 753a
00000120: 6748 7cba 5a6f 8e3a 03b3 5fba 4c9c 983a
00000130: 58e6 933a 09ce 88ba 96e9 6aba 4a26 9cba
00000140: b15f 8d3a 4da5 76ba b0c1 79ba 3a30 7bba
00000150: 052a 833a 01bd 82ba 5670 7dba 0987 873a
00000160: 3a43 953a a113 7fba d345 59ba f49e 98ba
00000170: 47d8 803a 1daa 8fba d554 8cba 533a 8b3a
00000180: 6651 79ba 48e2 87ba 6701 81ba eee8 823a
00000190: 77c9 56b8 fcac c5b8 fd48 0cb9 f3f3 b3b8
0.0 0.0 0.0 0.0 0.0010659436 -0.0011439243 -0.00092440215 0.00086429634
0.0010273407 -0.0011687418 -0.00096510234 0.00091064884 -0.0010443451 -0.0009747128 -0.0010097394 -0.0011341899
0.0010792019 -0.000861318 -0.0010541845 -0.0011597559 -0.0010332346 0.001045571 0.0010203024 -0.00082740607
-0.0010091122 -0.0009656577 -0.0012323905 0.0010713054 -0.0009240648 -0.0010576486 -0.001055628 0.00097087905
-0.0009913913 -0.0010816961 -0.0009624274 0.0011376014 0.0009966333 0.0011051813 0.0008812373 0.0010455219
-0.0009666267 -0.0010219447 -0.0009176098 -0.0010298424 0.0009825559 -0.0010451926 -0.00090834824 0.0010014817
-0.00091116154 -0.0011285556 -0.001036328 0.0011242935 0.0009577642 -0.0009632943 -0.001090873 0.0009715915
-0.0010005068 -0.001072382 -0.0009091238 0.0009619543 0.0008405389 -0.001203672 -0.0010697963 -0.0011233786
-0.0010190277 -0.000982669 -0.0008831444 0.0010501893 0.0010735873 -0.001005983 0.0010577443 0.00093688583
-0.0009623826 0.0010866926 -0.000853345 0.001164326 0.0011283858 -0.001043738 -0.00089611986 -0.0011913266
0.0010785965 -0.0009408787 -0.0009527458 -0.00095820765 0.001000703 -0.000997454 -0.00096679234 0.0010339926
0.0011387833 -0.0009730403 -0.00082882977 -0.0011644051 0.0009830081 -0.0010960732 -0.0010706434 0.001062224
-0.00095107255 -0.001036712 -0.0009842337 0.0009987631 -5.1209205e-05 -9.425913e-05 -0.0001337863 -8.580824e-05

embedding_layer.embedding_layer.embedding_layers.adgroup_id.weight f4 [96, 4]
00000000: 0000 0000 0000 0000 0000 0000 0000 0000
00000010: 9242 763a 0aa5 7aba 8e2c 93ba 27b5 9a3a
00000020: 322b 913a 9596 843a e284 80ba e123 89ba
00000030: 574f 803a 35ba 643a c916 91ba 2fc5 7dba
00000040: e400 8dba 2121 8aba b7ec 8eba bf2b 7f3a
00000050: b1e8 83ba c25c 91ba bfa3 65ba 85ab 653a
00000060: 4ac0 893a 70aa 6fba 1bb1 54ba b6b5 93ba
00000070: d2bf 563a c09a 8bba ba9c 70ba 4af9 813a
00000080: c2a3 7d3a 85e1 823a 7723 5f3a 26ba 7b3a
00000090: beac 8d3a f35d 85ba fb73 62ba 2c07 7eba
000000a0: 3348 83ba 084f 8cba bb71 81ba 9df9 673a
000000b0: 96b8 6cba 6671 703a b70c 55ba eeae 8f3a
000000c0: de01 85ba dcc9 683a 781b 86ba 7fde 733a
000000d0: 8b2a 8b3a 2928 86ba 66d4 51ba 685e 543a
000000e0: b2b0 923a ffda 8f3a 9433 94ba 294a 803a
000000f0: ec16 91ba 6ca0 66ba c6ce 9aba 59cd 843a
00000100: 0255 5a3a 9ccd 8eba f350 65ba 5f86 743a
00000110: 5aa0 5dba 4d58 73ba 3146 76ba 7002 81ba
00000120: da08 88ba 5725 8d3a 1bdf 83ba 743e 883a
00000130: da79 8b3a 89cd 5aba 5cc8 91ba 45b3 893a
00000140: 7d7a 97ba 143b 8b3a 2da6 85ba 282d 643a
00000150: 4657 64ba 32ba 88ba 160d 56ba fee7 753a
00000160: 4c9c 8b3a 0dc4 913a 01d0 8bba ce49 85ba
00000170: 155d 8c3a a967 7b3a ea73 98ba db9f 83ba
00000180: 57da 73ba 9613 90ba efdd 99ba b064 87ba
00000190: e50c 6f3a dd41 873a bc7f 94ba 972e 94ba
000001a0: c0ec 89ba 22b9 75ba 5293 843a 9688 883a
000001b0: b88c 8f3a 2bf9 8eba 63f4 87ba eef3 903a
000001c0: 454c a9ba 103f 713a b794 993a b869 5f3a
000001d0: bd6d 7cba 1fda 593a 41df 91ba c3e7 8c3a
000001e0: 5457 7cba 3247 873a 2482 91ba cd52 653a
000001f0: 0c12 90ba bb57 863a 4491 79ba c4e0 9b3a
00000200: 39bf 81ba bb8b 883a 7740 8dba a604 743a
00000210: 69ce 8dba 5d7e 5f3a b057 83ba 08c7 853a
00000220: b9eb 8dba 70dc 683a 20ab 87ba 8617 9aba
00000230: 78dc 8f3a 0508 56ba f7a5 4cba 9081 4b3a
00000240: 8a5b 84ba edb5 7c3a c249 7cba 2a9f 953a
00000250: ff74 773a 2b47 85ba 645c 6aba 83c2 7f3a
00000260: e65e 7b3a 2fc3 873a b5ff 67ba 9957 7a3a
00000270: ac71 7f3a 3eb9 94ba 38d5 86ba ef65 7e3a
00000280: f3e7 8eba f2d3 6f3a 215f 84ba d164 893a
00000290: fe7b 843a 7ebf 99ba 1cd4 83ba fe41 4d3a
000002a0: 94dc 8e3a 9782 51ba edec 8cba fd48 83ba
000002b0: a3d3 923a ed7b 5dba e633 6aba 9a42 7d3a
000002c0: 5b3e 75ba 5184 8f3a 00c3 62ba e865 8a3a
000002d0: 355c 80ba 78d7 8b3a 27de 95ba c486 6a3a
000002e0: 3a92 353a 1414 7c3a 450c 78ba bbed 8eba
000002f0: af4e 773a 1817 6eba 4043 83ba 96d3 8c3a
00000300: 9a0b 92ba f1d7 563a d321 5dba a012 953a
00000310: c5c1 59ba c2f5 7cba 1e08 89ba a9ae 833a
00000320: 13a7 893a af3d 843a 86f5 89ba 4854 7cba
00000330: dcaa 6e3a 7c92 833a 30e9 5eba 9658 683a
00000340: f102 75ba 1af8 5dba 1734 89ba 1f80 863a
00000350: dfae 823a 69f3 5a3a 439c 76ba 3d4d 993a
00000360: 5680 7fba eb0e 8bba e087 8f3a dd3a 90ba
00000370: c7b3 84ba f36f 853a 07f3 8cba 9b7d 873a
00000380: a5bf 4e3a ff09 7f3a 6298 65ba 3f80 8b3a
00000390: 70ea 9eba c63f 9a3a aa66 83ba 6e5a 74ba
000003a0: f7a4 9cba 342a 87ba ed19 6fba dce2 8aba
000003b0: 0542 5dba bc73 9cba 5c02 77ba e67c 7cba
000003c0: 902a 75ba 2008 873a 922f 6cba 9a6f 9b3a
000003d0: b64d 8aba 9017 733a cf54 7dba 5243 8b3a
000003e0: 496a 8eba a3ac 833a 1792 73ba 8c30 7d3a
000003f0: 2e94 673a 9cc4 883a 1f98 96ba 8b4e 573a
0.0 0.0 0.0 0.0 0.0009394075 -0.0009561336 -0.0011228488 0.0011803255
0.0011075495 0.0010115678 -0.0009805227 -0.0010462963 0.000978927 0.0008725257 -0.0011069413 -0.0009680567
-0.0010757712 -0.0010538438 -0.0010904287 0.00097339967 -0.0010063854 -0.0011090266 -0.0008760057 0.0008761215
0.0010509577 -0.00091425236 -0.0008113549 -0.0011269364 0.00081920356 -0.0010650977 -0.00091786275 0.0009916213
0.0009675586 0.0009985423 0.00085120596 0.00096026284 0.0010808927 -0.0010175094 -0.0008638498 -0.00096904
-0.0010016024 -0.0010704705 -0.0009875813 0.0008849146 -0.0009030191 0.0009172171 -0.00081272 0.0010962167
-0.0010147651 0.0008880177 -0.0010231575 0.0009302869 0.0010617537 -0.0010235357 -0.0008004367 0.0008101226
0.0011191575 0.00109753 -0.0011306875 0.0009787726 -0.0011069453 -0.00087977084 -0.0011810891 0.0010131999
0.0008328707 -0.0010895017 -0.0008747719 0.0009327884 -0.0008454375 -0.0009282872 -0.00093946146 -0.0009842645
-0.0010378615 0.0010768574 -0.0010060997 0.0010394589 0.0010641173 -0.0008346667 -0.0011122334 0.0010505697
-0.001155689 0.0010622465 -0.0010196619 0.00087042386 -0.00087105145 -0.0010431467 -0.0008165402 0.0009380578
0.0010651438 0.001112105 -0.0010666848 -0.001016909 0.0010708893 0.00095903367 -0.0011631225 -0.0010042147
-0.00093022495 -0.0010992165 -0.0011739115 -0.001032969 0.0009119048 0.0010319311 -0.0011329572 -0.0011305389
-0.0010522828 -0.0009373595 0.0010114706 0.0010416682 0.0010951972 -0.0010907998 -0.0010372516 0.0011059025
-0.0012916407 0.00092028175 0.0011717294 0.0008522528 -0.00096293894 0.00083103956 -0.0011129157 0.0010750223
-0.000962605 0.00103209 -0.0011101407 0.0008747995 -0.0010991707 0.0010249534 -0.00095202425 0.0011892547
-0.0009898908 0.001041762 -0.0010776658 0.0009308554 -0.0010818961 0.00085256045 -0.001002064 0.0010206411
-0.0010827697 0.00088829454 -0.0010350682 -0.0011756278 0.0010975739 -0.0008164647 -0.0007806713 0.0007763142
-0.0010098082 0.0009640146 -0.0009624028 0.0011415232 0.0009439736 -0.0010168304 -0.0008940159 0.00097564625
0.0009589031 0.0010357852 -0.0008850054 0.0009549796 0.00097444165 -0.001134671 -0.0010286933 0.00097045203
-0.0010902866 0.0009148709 -0.0010099151 0.0010482316 0.0010107753 -0.0011730043 -0.001005772 0.0007829963
0.0010899478 -0.00079921767 -0.0010751762 -0.0010016259 0.0011201989 -0.00084489473 -0.0008934125 0.00096611085
-0.00093553 0.0010949468 -0.0008650273 0.0010558935 -0.0009793105 0.0010669073 -0.0011434004 0.0008946473
0.00069263915 0.0009616029 -0.00094622775 -0.001090459 0.0009434027 -0.0009082421 -0.0010014549 0.001074421
-0.0011142374 0.000819563 -0.0008435521 0.0011373349 -0.0008306767 -0.0009649658 -0.001045469 0.001004656
0.0010502063 0.0010089184 -0.0010525442 -0.0009625596 0.00091044395 0.0010038163 -0.00085033756 0.0008863298
-0.00093464466 -0.0008467451 -0.0010467794 0.0010261572 0.0009970329 0.0008352311 -0.000940744 0.0011695992
-0.00097466016 -0.0010609304 0.0010950528 -0.0011003871 -0.0010124379 0.0010180458 -0.001075358 0.0010337116
0.00078868336 0.00097289676 -0.00087583635 0.0010643079 -0.0012124311 0.0011768274 -0.0010025103 -0.00093213364
-0.0011951019 -0.001031226 -0.00091209897 -0.0010596174 -0.00084403186 -0.0011936347 -0.0009422654 -0.00096316484
-0.00093523506 0.0010302104 -0.0009009774 0.0011858821 -0.0010551724 0.00092732254 -0.00096638215 0.0010624921
-0.0010865416 0.0010045957 -0.00092914834 0.0009658418 0.0008834031 0.0010434571 -0.0011489427 0.0008213303

embedding_layer.embedding_layer.embedding_layers.pid.weight f4 [4, 4]
00000000: 0000 0000 0000 0000 0000 0000 0000 0000
00000010: 824e 933a d3b0 9c3a 1a24 79ba 432e 75ba
00000020: cec7 83ba 0413 973a f5c0 7dba 69e8 65ba
00000030: 42af 09b9 8848 26b8 53f8 a5b8 439c b138
0.0 0.0 0.0 0.0 0.0011238607 0.0011954553 -0.0009503976 -0.0009352902
-0.0010054053 0.0011526053 -0.0009679937 -0.00087702886 -0.00013130627 -3.9645034e-05 -7.914067e-05 8.469124e-05

embedding_layer.embedding_layer.embedding_layers.cate_id.weight f4 [49, 4]
00000000: 0000 0000 0000 0000 0000 0000 0000 0000
00000010: 6819 903a a09c 893a 04f1 613a 5004 8bba
00000020: 1fdf 8cba 4c4a 89ba e8c7 8aba 9c24 97ba
00000030: 7f50 8e3a e3d8 913a 6163 8a3a aef5 65ba
00000040: dcf0 75ba f85c 8d3a 4290 893a 3bb1 8cba
00000050: 3710 88ba 1090 8b3a 0f93 653a 3c91 7d3a
00000060: 54a0 9aba 0836 903a f2d4 923a ef8b 793a
00000070: 644c 6d3a e23b 8eba 16c6 883a 9f0c 67ba
00000080: 4a7a 763a 1407 8a3a 81f6 8a3a 7892 843a
00000090: 30c3 96ba d5b5 763a 9785 653a 487d 6eba
000000a0: 5420 7bba bbb2 6c3a f4a2 943a 96b2 7eba
000000b0: 07e8 7d3a 4463 98ba d888 51ba 2ef7 823a
000000c0: 66c9 80ba 5a87 643a df02 983a 9179 46ba
000000d0: 68e9 783a 0adb a8ba 799e 643a da20 80ba
000000e0: f09d 843a 7fbf 8aba 6186 89ba 6fe2 78ba
000000f0: eafc 90ba c2d6 843a 46d8 673a 30dc a5ba
00000100: ca5f 8dba 67a7 71ba df3e 843a ac26 9aba
00000110: 1b42 47ba 1b65 753a c007 843a b839 78ba
00000120: 9d16 843a e992 803a 58c2 883a 10db 5dba
00000130: 0b9a 7eba 0ef2 573a 2e89 70ba 639f 8eba
00000140: 99d4 7f3a 5d74 8f3a d347 5f3a 0371 5fba
00000150: 0586 80ba a8e7 79ba 4695 9a3a bfa9 7cba
00000160: 05af 9e3a 6e90 603a 1f48 8d3a 34e8 8eba
00000170: f561 9fba 6d95 8f3a 87e6 7b3a cc84 8bba
00000180: fc1a 623a 24de 963a 5a03 893a cbbb 8c3a
00000190: c24a 863a 9319 973a 8853 803a 426c 98ba
000001a0: 21a8 86ba e08a 703a 9a82 813a 2fd9 743a
000001b0: 83be 4fba 07c8 693a c5ca 7d3a e155 84ba
000001c0: aa60 94ba 02d3 7b3a cffa 623a 74b2 843a
000001d0: 5a97 89ba b497 8e3a 635e 863a 8f20 82ba
000001e0: 1aa1 893a c21b 8b3a 2d30 563a ddeb 683a
000001f0: 4424 8bba 3077 8b3a 8132 4c3a c8ea 953a
00000200: ee2d 6a3a 3cff 5b3a e6a3 973a e2c0 7e3a
00000210: 1dbe 8bba 62ea 863a 655b 84ba 2a23 963a
00000220: 2282 80ba 22cf 8bba bbd0 913a c63d 943a
00000230: 0db3 613a a074 8d3a 7206 6eba 78b3 903a
00000240: ea47 7c3a 72a4 943a dad0 983a 0a3d 79ba
00000250: 24bf 84ba 1c1b 793a 6eb0 7a3a 5a8e 68ba
00000260: 1a67 80ba 822f 7b3a ff41 8a3a 3c32 863a
00000270: e2e9 9b3a 7926 883a 8048 8d3a bff1 9e3a
00000280: 1396 993a 43e1 8d3a 5347 893a 8ace 753a
00000290: f954 8a3a 68e8 763a a06f 893a cfbd 6c3a
000002a0: 448b 8fba 6e53 9dba 7c49 893a 6f1e 8dba
000002b0: 3188 79ba 8ed5 9f3a 64cd 7f3a c4c6 803a
000002c0: edf9 893a 13cc 853a a3e8 8a3a fc6d 8c3a
000002d0: cbf0 83ba f860 653a 17ca 753a 28f6 94ba
000002e0: 81e4 77ba 13a3 693a 9a26 7c3a e259 9cba
000002f0: c88d 8f3a cd19 763a 3c31 893a b57d 6aba
00000300: 9e4c 08b7 3ceb e8b7 d437 ca37 6377 c137
0.0 0.0 0.0 0.0 0.00109939 0.0010498948 0.0008618983 -0.0010606144
-0.0010747648 -0.0010474413 -0.0010588141 -0.0011531296 0.001085773 0.0011127259 0.0010558182 -0.0008772266
-0.0009381899 0.0010785153 0.0010495263 -0.0010733971 -0.0010380809 0.0010647792 0.000875757 0.00096728257
-0.0011797049 0.0011002431 0.0011202379 0.0009519448 0.00090522156 -0.0010851587 0.0010435011 -0.00088138314
0.0009402378 0.0010530674 0.0010602028 0.0010114452 -0.0011502262 0.00094112504 0.0008755563 -0.0009097648
-0.00095797074 0.00090293185 0.0011340068 -0.00097159424 0.0009685759 -0.0011626263 -0.00079931086 0.0009991878
-0.0009825646 0.0008717679 0.0011597535 -0.00075712154 0.00094952295 -0.0012882662 0.0008721124 -0.0009775416
0.001011787 -0.0010585635 -0.0010492319 -0.00094941905 -0.0011061702 0.0010134804 0.0008844178 -0.0012654122
-0.0010785994 -0.00092183653 0.0010089538 -0.0011760793 -0.0007601098 0.0009361074 0.001007311 -0.000946905
0.001007754 0.0009809408 0.0010433896 -0.0008463124 -0.0009712285 0.0008237668 -0.0009175715 -0.0010881241
0.00097591575 0.0010944713 0.00085174775 -0.0008523615 -0.0009805566 -0.00095331157 0.0011793755 -0.0009638331
0.0012106603 0.00085664436 0.001077894 -0.0010902942 -0.0012159931 0.0010954567 0.00096092414 -0.0010644435
0.0008625237 0.0011510295 0.0010453269 0.0010737119 0.0010245668 0.0011528007 0.0009790519 -0.0011628943
-0.0010273495 0.00091759674 0.0009880841 0.0009340224 -0.0007924812 0.0008918051 0.0009681399 -0.0010096395
-0.0011320312 0.0009606333 0.0008658589 0.0010123984 -0.0010497377 0.0010878951 0.0010251518 -0.0009927916
0.0010500283 0.0010613131 0.0008170631 0.0008885244 -0.0010615666 0.0010640379 0.0007789508 0.0011437768
0.00089332357 0.000839222 0.0011569231 0.0009718073 -0.0010661517 0.001029324 -0.0010098038 0.0011454572
-0.0009804408 -0.0010666589 0.0011124829 0.0011309914 0.00086097495 0.0010792203 -0.000907994 0.0011039814
0.0009623753 0.0011340512 0.0011658922 -0.0009507692 -0.0010127765 0.0009502636 0.0009563033 -0.00088713097
-0.0009796352 0.00095819694 0.0010548233 0.001023836 0.0011895264 0.0010387442 0.0010779053 0.0012126489
0.0011717699 0.001082458 0.0010473527 0.0009376785 0.0010553888 0.00094187865 0.0010485537 0.0009030969
-0.0010951539 -0.0012003013 0.001047417 -0.0010766516 -0.00095188903 0.0012194382 0.00097580836 0.0009824862
0.0010526754 0.0010207914 0.0010597896 0.001071393 -0.0010066269 0.0008750106 0.0009376122 -0.0011364864
-0.0009456352 0.00089125446 0.0009618789 -0.0011928643 0.0010952288 0.0009388 0.0010466943 -0.00089451234
-8.1240705e-06 -2.7766095e-05 2.4106273e-05 2.3062987e-05

embedding_layer.embedding_layer.embedding_layers.campaign_id.weight f4 [99, 4]
00000000: 0000 0000 0000 0000 0000 0000 0000 0000
00000010: 311e 6a3a 640d 863a f8b3 87ba b65f 7eba
00000020: fdef 6b3a a46f 643a dcf0 803a 9cd4 70ba
00000030: c361 76ba 012b 873a cc59 a8ba 019f 823a
00000040: 016b 8aba 45a9 7f3a 0d48 5e3a 3e8c 8a3a
00000050: bf81 5fba 3c17 823a c633 963a ad15 8dba
00000060: c9a4 85ba b51b 7aba 05a7 8e3a 7cce 84ba
00000070: 2322 623a e479 78ba 7cac 8eba 9e99 93ba
00000080: b827 7f3a 4a72 923a 2577 803a bfa3 94ba
00000090: daa5 87ba 0716 8f3a 0279 7e3a 23a0 6fba
000000a0: 7098 6cba 7c17 8f3a 88ce 5e3a 04d4 89ba
000000b0: 47ed 8bba 334b 90ba 8bb6 9bba 8812 86ba
000000c0: d414 9dba 4093 883a 0ac4 603a e425 86ba
000000d0: ae6f 8dba 84f2 84ba 8eba 873a c80a 85ba
000000e0: 21fe a03a 05a8 90ba 75c9 843a e835 64ba
000000f0: 4ddf 75ba 9674 55ba addc 89ba 948b 6cba
00000100: 4e9b 61ba c415 84ba 2cc5 743a e166 87ba
00000110: 7095 77ba eb5c 86ba 760c 93ba 58ac 8fba
00000120: b69b 69ba c668 8e3a 7412 883a ee7d 77ba
00000130: f821 8bba 48dd 903a 38b2 933a 9611 8fba
00000140: 6773 813a beb8 78ba b6a9 6f3a 0628 8eba
00000150: e8dc 8dba 4bea 993a a9fa 683a cf10 803a
00000160: f95f 8dba 255a 6eba a62d 78ba 4cfe 93ba
00000170: fad4 49ba e217 4dba bbd5 803a 5b82 893a
00000180: c1ba a7ba 1afe 843a 3288 703a a764 82ba
00000190: e033 733a 1e71 6d3a 419d 943a cf10 86ba
000001a0: f370 86ba 6676 83ba 6e23 7dba 40ee 82ba
000001b0: 0d25 84ba 034d 9aba b65d 963a 285b 97ba
000001c0: 14a7 83ba 6fa4 913a 897e 913a a3d2 50ba
000001d0: 6c49 8fba c715 85ba fe53 713a 4593 85ba
000001e0: 54b8 673a 5a01 86ba 4d45 823a 51b9 693a
000001f0: fd8d 84ba 3d94 75ba 9cfa 99ba ab86 6fba
00000200: 3a8d 94ba a6f8 6f3a e3f3 813a d2f9 66ba
00000210: e469 8cba 37bb 823a 11cb 9d3a 249b 8bba
00000220: 9778 9bba ca6f 8aba 9941 8cba 42d9 96ba
00000230: e43e 8dba 42af a0ba a9d2 893a 060c 72ba
00000240: b982 8cba 2d20 813a 65f0 8e3a 9221 78ba
00000250: dc19 8cba 48a7 8d3a d0bf 673a de78 8aba
00000260: 1bf5 533a d8c8 89ba f5a6 863a 00eb 833a
00000270: 6123 913a 8930 8d3a ca80 833a c679 7bba
00000280: 56f2 693a 5cd6 8b3a 11f2 6e3a 7432 85ba
00000290: 93e3 96ba 39a5 95ba 3c4f 9dba 483b 97ba
000002a0: 0930 863a 058d 90ba 4765 87ba 5a48 87ba
000002b0: 9d64 7b3a c94c 6e3a 8a63 8cba d3e1 93ba
000002c0: cfa7 6cba 5800 9dba ead3 85ba aab7 8cba
000002d0: d900 52ba 00be 883a 8eaa 823a 132f 7cba
000002e0: ee3e 90ba 680c 893a c6c5 843a 0803 803a
000002f0: 8063 70ba 411d 91ba d895 903a 1e7d 8eba
00000300: 8a2e 8eba 7df1 52ba f6b3 993a 59aa 81ba
00000310: 095c 943a b2dd 64ba 931b 853a 85bc 7dba
00000320: a41a 81ba 88d3 84ba 31a6 80ba b173 87ba
00000330: 7e0c 73ba 9fdf 953a 47c8 763a 215b 6fba
00000340: 7d54 7f3a 7231 62ba cff9 83ba 608a 653a
00000350: f9f9 97ba fc99 893a b70e 883a 18f0 8bba
00000360: 2d41 7cba 974c 673a 0ab3 8b3a 398c 74ba
00000370: 318b 71ba 9d9e 8b3a 9366 963a c41d 94ba
00000380: c2be 7dba 0726 8aba e2d3 6cba 929b 97ba
00000390: b571 95ba 1289 903a 7924 803a 3945 8d3a
000003a0: 8b9d 6cba 4c1a 863a 0eba 893a b5bb 7cba
000003b0: d987 9c3a b036 853a bdec 84ba 8e77 6fba
000003c0: 6f45 90ba c52e 903a f421 603a bce7 8fba
000003d0: 8cee 943a b4cd 83ba d7c0 8aba 9bdd 91ba
000003e0: 22a2 8dba d891 84ba 9b4b 743a 9219 75ba
000003f0: cb64 863a a085 89ba 84ee 883a 273e 8eba
0.0 0.0 0.0 0.0 0.00089308905 0.0010227379 -0.0010353317 -0.0009703593
0.00090002996 0.00087141455 0.0009837407 -0.00091869547 -0.0009398723 0.0010312499 -0.0012844144 0.00099656
-0.0010560454 0.0009752701 0.00084793643 0.001057036 -0.00085261086 0.0009925137 0.0011459521 -0.0010763906
-0.0010196205 -0.0009540872 0.0010883516 -0.0010132338 0.00086263026 -0.00094786123 -0.0010885145 -0.0011260991
0.00097333966 0.0011172977 0.0009801133 -0.0011340304 -0.001034911 0.0010916599 0.00097073626 -0.00091409887
-0.00090254005 0.0010917033 0.00084994035 -0.0010515456 -0.0010675573 -0.0011008739 -0.0011879964 -0.0010228911
-0.0011984357 0.001041986 0.0008574134 -0.0010234681 -0.001079073 -0.0010143076 0.001035528 -0.0010150308
0.0012282768 -0.0011036402 0.001013084 -0.00087055424 -0.0009379283 -0.0008142678 -0.0010518037 -0.00090234843
-0.0008606211 -0.0010077287 0.0009337242 -0.0010330343 -0.000944457 -0.001025108 -0.0011218924 -0.0010961397
-0.00089114474 0.0010864965 0.0010381476 -0.0009441067 -0.0010614982 0.0011052275 0.0011268323 -0.0010915275
0.0009876312 -0.0009487978 0.00091424154 -0.0010845668 -0.0010823281 0.0011742798 0.0008887449 0.0009770634
-0.0010786048 -0.0009092412 -0.00094672514 -0.0011290996 -0.00076992775 -0.0007823688 0.0009829322 0.001049112
-0.0012796746 0.0010146529 0.0009175568 -0.000994821 0.00092774443 0.00090576883 0.0011338369 -0.0010228398
-0.001025705 -0.0010029792 -0.00096564635 -0.0009989217 -0.0010081843 -0.0011772219 0.001147202 -0.0011547552
-0.00100443 0.0011111627 0.0011100332 -0.00079659576 -0.0010931916 -0.0010153585 0.0009205936 -0.0010190984
0.0008839418 -0.0010223791 0.0009938866 0.0008915859 -0.0010113117 -0.00093680975 -0.0011747661 -0.00091371936
-0.0011333593 0.0009154178 0.0009914603 -0.000881103 -0.001071271 0.0009974007 0.0012038668 -0.0010651094
-0.00118615 -0.001056188 -0.0010700702 -0.001150884 -0.0010776189 -0.0012259262 0.0010515052 -0.0009233359
-0.0010720111 0.0009851508 0.0010905383 -0.00094654516 -0.0010688859 0.00108073 0.0008840533 -0.0010564586
0.0008085535 -0.0010512127 0.0010273146 0.0010064542 0.0011073166 0.0010771911 0.0010032889 -0.0009593036
0.00089243555 0.0010668742 0.000911505 -0.0010162131 -0.0011511914 -0.0011417038 -0.0012001763 -0.0011538053
0.0010237704 -0.0011028355 -0.0010329866 -0.0010321245 0.00095898827 0.00090904214 -0.0010710817 -0.0011282511
-0.0009027691 -0.0011978252 -0.001021025 -0.0010735888 -0.00080109906 0.0010432601 0.0009969042 -0.0009620052
-0.0011005083 0.0010455968 0.0010129742 0.0009766528 -0.00091701 -0.001107134 0.0011030985 -0.0010871028
-0.001084761 -0.0008046849 0.0011726606 -0.0009892687 0.0011318933 -0.0008730545 0.0010155312 -0.00096792757
-0.0009849858 -0.0010133842 -0.0009815154 -0.0010334161 -0.0009271576 0.0011434442 0.0009413999 -0.0009130706
0.0009740068 -0.0008628584 -0.0010068956 0.0008756276 -0.0011594883 0.0010498161 0.0010380362 -0.0010676412
-0.0009622749 0.00088233635 0.0010658216 -0.0009328756 -0.00092141615 0.0010652129 0.0011474661 -0.0011300375
-0.0009679609 -0.0010539897 -0.00090342585 -0.0011566749 -0.0011401685 0.0011027178 0.0009776495 0.0010778076
-0.0009026161 0.0010231226 0.0010507719 -0.00096410076 0.0011942341 0.0010163393 -0.0010141354 -0.00091349415
-0.0011007021 0.0011000267 0.0008549981 -0.0010979096 0.0011362596 -0.0010055811 -0.0010586035 -0.0011128666
-0.0010805766 -0.0010114266 0.00093191274 -0.00093498186 0.0010253427 -0.0010492094 0.001044706 -0.0010852263

embedding_layer.embedding_layer.embedding_layers.customer.weight f4 [98, 4]
00000000: 0000 0000 0000 0000 0000 0000 0000 0000
00000010: 693e 893a bfe8 77ba 5138 8eba d039 963a
00000020: bd8e 8d3a b278 8aba 597b 81ba 7908 7eba
00000030: f866 8a3a 2177 833a 2dea 8dba 37ec 893a
00000040: 2800 923a 31e5 8eba 7a33 5fba a017 8eba
00000050: 264a 683a a4db 86ba b5eb 81ba 9eb4 883a
00000060: f6cf 933a 3217 85ba 48e8 9e3a a469 8f3a
00000070: 6580 7a3a 931a 85ba b627 86ba 6f9a 8bba
00000080: 92fd 8fba 1856 7b3a 0d86 6b3a 243a 863a
00000090: e0e7 893a be38 87ba 27ec 6b3a 4016 73ba
000000a0: de95 873a d05b 92ba 1f29 7e3a 0fc0 8dba
000000b0: 9df6 7b3a c644 6aba 31ec 923a 66fd 9cba
000000c0: 3220 5aba d4d3 81ba 5324 34ba 62f7 a03a
000000d0: 183e 593a 86c9 87ba ea8b 6e3a 5c5f 7c3a
000000e0: c7b6 833a 1b1a a5ba c997 913a 2ee3 823a
000000f0: 0f0b 6c3a 157f 81ba 22ab 733a a195 8b3a
00000100: da4f 593a 9920 79ba fd94 6a3a 61e0 6bba
00000110: 1161 8a3a cd46 91ba 21b9 6cba 6a5c 7aba
00000120: 26c5 a1ba a88a 7cba ea4b 92ba a75d 873a
00000130: a974 753a 3fa1 83ba 8bc2 9b3a 1364 8d3a
00000140: 179b 863a 6de0 69ba d581 703a fb3e 81ba
00000150: 845c 6a3a f920 a9ba e40b 95ba 6fc5 8f3a
00000160: c5c4 8f3a 2a48 77ba efd5 753a c14c 82ba
00000170: 047f 923a 57fb 61ba 7ef4 6aba 8081 893a
00000180: 91bb 823a 775d 6aba 880f 72ba afd9 7f3a
00000190: b94c 753a db2e 78ba 223d 8d3a 08db 86ba
000001a0: 0aba 8bba 510d 9bba 7cd8 8b3a 38ef 91ba
000001b0: fb5b 753a afd3 87ba a0d2 9dba ec01 85ba
000001c0: 5fc4 833a e232 73ba 09b1 65ba 557c 7e3a
000001d0: 0131 843a 9a6b 84ba 8714 86ba aa6a 6b3a
000001e0: cef0 5bba fcfe 4eba f416 593a 8704 77ba
000001f0: 5840 62ba b1ed 75ba ed1f 7aba db5b 87ba
00000200: 78a8 863a 19dc 923a 6ec4 9b3a 5ff9 75ba
00000210: 7a9b 843a c22d 80ba a14e 813a ac91 a5ba
00000220: 4963 5a3a 3d3f 60ba 6027 923a c33f 843a
00000230: b778 743a 781d 6eba a52b 8a3a 865e 8dba
00000240: 4e0d 863a a29a 98ba 28e9 6eba 764a 803a
00000250: 7b30 893a 41a3 62ba 26c8 94ba 1faf 92ba
00000260: 1ab5 7fba ac16 6eba 28e8 6fba e4cc 97ba
00000270: 07d3 903a 8af4 7aba 9b2c 673a 004f 9b3a
00000280: 23e2 6f3a e602 54ba 4f36 7cba 4a38 9fba
00000290: 8427 773a f2db 79ba 0654 61ba 1cec 70ba
000002a0: c00a 7d3a 70a0 763a 8ec8 6fba 158c 8b3a
000002b0: 44b4 7aba 8d84 95ba fe8c 84ba 407c 8fba
000002c0: 248f 81ba bdcd a3ba 84dd 7b3a 7226 743a
000002d0: 296a 913a 71b3 82ba 5f84 8d3a ffb3 8bba
000002e0: 0d5a 693a 5f08 79ba 1e4e 803a 8dd0 8cba
000002f0: d2e0 713a 2b08 80ba 15e4 863a 5f81 9bba
00000300: 14bb 90ba b819 8b3a 21a7 86ba 30cd 833a
00000310: e4ec 823a e63b 81ba 3438 85ba 1121 81ba
00000320: 4087 663a d41a 9dba ca2a 933a 02cd 6cba
00000330: aa94 8c3a bb3c 89ba dd78 83ba 96a0 8c3a
00000340: b58e 6a3a 889c 993a 844e 823a 4b31 80ba
00000350: c61f 653a d0f8 91ba 54e6 8fba e5d5 80ba
00000360: d936 613a ea76 8eba 66ae 95ba 7903 7aba
00000370: 01f8 903a d75b 8dba baeb 84ba 2828 81ba
00000380: 9681 983a 55ff 87ba 0ffa 7dba 8c89 893a
00000390: 10e8 9d3a 5a9b 91ba 3e67 88ba 7178 833a
000003a0: e869 7f3a c22e 49ba 0947 7bba 3f7a 853a
000003b0: ddaf 6f3a 7421 72ba 3145 85ba 0ab4 893a
000003c0: 7ef3 833a 3fee 81ba 712b 91ba 4797 5c3a
000003d0: 07a4 7c3a 2c1b 6aba df73 903a 89c9 893a
000003e0: 7bbb 9a3a 35a1 8cba 54d7 90ba c08d 8f3a
000003f0: 96cb 723a 8bda 79ba 840d 9dba 9c06 70ba
0.0 0.0 0.0 0.0 0.001047087 -0.0009456984 -0.0010850524 0.0011461321
0.0010799986 -0.0010564534 -0.0009878679 -0.00096905936 0.0010559252 0.001003001 -0.0010827236 0.0010522668
0.0011138963 -0.0010902045 -0.00085144455 -0.0010840781 0.00088611466 -0.0010288847 -0.0009912165 0.0010429805
0.0011277187 -0.0010154007 0.0012123669 0.0010941518 0.00095558754 -0.0010155014 -0.0010235223 -0.0010650883
-0.0010985604 0.0009587719 0.00089845137 0.0010240716 0.0010521375 -0.0010316593 0.0008999728 -0.000927303
0.0010344347 -0.0011166278 0.00096954586 -0.0010814684 0.00096116384 -0.00089366396 0.0011209307 -0.0011977374
-0.00083208375 -0.0009905049 -0.0006871868 0.0012280757 0.0008287146 -0.0010359741 0.00090998283 0.0009627247
0.0010048979 -0.0012596281 0.0011107858 0.0009985918 0.00090043334 -0.0009879792 0.0009295215 0.0010649451
0.0008289792 -0.00095034536 0.00089485926 -0.00089979736 0.0010557492 -0.0011083722 -0.0009030272 -0.0009550514
-0.001234208 -0.00096336985 -0.001116154 0.0010327593 0.0009363392 -0.0010042562 0.001188354 0.0010787271
0.0010269609 -0.00089216867 0.000917462 -0.0009860689 0.00089401775 -0.0012903503 -0.0011371342 0.0010968874
0.0010968676 -0.00094330555 0.0009377887 -0.0009941087 0.001117677 -0.00086205214 -0.0008962824 0.0010490865
0.0009974112 -0.0008940319 -0.0009233882 0.00097599154 0.0009357441 -0.0009467431 0.0010775665 -0.0010288665
-0.0010660302 -0.001182953 0.0010669376 -0.0011133915 0.00093597145 -0.0010362769 -0.001204092 -0.0010147667
0.001005303 -0.00092772965 -0.0008762037 0.0009707858 0.0010085405 -0.0010102869 -0.0010229506 0.0008980433
-0.00083900697 -0.0007896272 0.00082813133 -0.0009422977 -0.0008630804 -0.0009381427 -0.00095415005 -0.0010327058
0.0010273596 0.001120451 0.0011884102 -0.00093831675 0.0010117136 -0.0009779262 0.0009865352 -0.0012631915
0.00083308347 -0.0008554345 0.0011150651 0.0010089803 0.0009325849 -0.00090833707 0.0010541572 -0.0010785616
0.0010227354 -0.0011642764 -0.00091137225 0.0009787816 0.0010466719 -0.00086455425 -0.0011351153 -0.0011191106
-0.0009754464 -0.0009082358 -0.00091517204 -0.0011581448 0.0011049219 -0.00095731823 0.00088185974 0.0011849105
0.00091508235 -0.000808759 -0.000962113 -0.0012147513 0.00094281905 -0.00095313706 -0.00085955893 -0.00091904565
0.0009652786 0.00094080623 -0.00091470114 0.0010646606 -0.0009563605 -0.0011407301 -0.001011282 -0.0010947064
-0.0009884578 -0.0012497228 0.00096078985 0.000931359 0.001109426 -0.0009971691 0.0010796896 -0.0010658501
0.0008901663 -0.00094998436 0.0009788906 -0.0010743305 0.0009226921 -0.0009768059 0.0010291362 -0.0011864117
-0.0011042082 0.0010612523 -0.0010273197 0.0010055657 0.0009988812 -0.000985977 -0.0010163845 -0.0009851774
0.00087939575 -0.0011986145 0.0011227962 -0.0009033234 0.0010725458 -0.001047037 -0.0010030527 0.0010729011
0.00089476566 0.0011719624 0.0009941612 -0.0009780315 0.00087403913 -0.0011136774 -0.0010978677 -0.000982937
0.0008591242 -0.0010869179 -0.0011419773 -0.00095372606 0.0011060239 -0.0010784817 -0.0010141053 -0.0009853886
0.0011635299 -0.0010375777 -0.0009688446 0.0010493263 0.001204731 -0.001110892 -0.0010406745 0.0010030401
0.0009743259 -0.0007674509 -0.0009585475 0.0010183527 0.0009143332 -0.0009236552 -0.0010167715 0.0010505926
0.0010067073 -0.0009912922 -0.0011075569 0.0008414876 0.0009637479 -0.00089304405 0.001102086 0.0010512333
0.0011805141 -0.0010729196 -0.0011050501 0.0010952279 0.0009261904 -0.00095311616 -0.0011982177 -0.00091562583

embedding_layer.embedding_layer.embedding_layers.brand.weight f4 [67, 4]
00000000: 0000 0000 0000 0000 0000 0000 0000 0000
00000010: 8ce4 85ba e64a 9bba 98eb 5aba ed1e 613a
00000020: 7e81 74ba 0f1b 83ba 582a 94ba 9e2e 85ba
00000030: 1e30 8aba 624d 84ba 14b8 6fba fb57 913a
00000040: c8f1 8bba 5347 9cba 8256 813a 7fb3 79ba
00000050: c717 8d3a 094d 87ba ea8c 70ba aa09 8e3a
00000060: a761 5fba 8bf4 8eba 0a26 8cba fc99 853a
00000070: 5e60 9eba 7ba4 98ba 4954 7cba f85c 803a
00000080: 82c5 60ba d39f 8a3a 9c79 76ba 07f6 793a
00000090: 9603 91ba 3a64 9b3a 4f7c 93ba c3e0 88ba
000000a0: fded 8dba 3279 40ba 5b96 72ba 413f 96ba
000000b0: 80eb 9fba df4c a13a b2f3 95ba d204 853a
000000c0: 6069 7f3a 00e6 65ba 636d 773a 4e31 68ba
000000d0: 90af 84ba 0ea2 87ba 7a21 60ba 2d18 8e3a
000000e0: 532d 8bba ac7d 91ba c5a5 71ba eb38 8a3a
000000f0: 1735 8cba c401 8aba 0f4c 80ba d7ea 8dba
00000100: 4cab 7dba 8225 81ba 1a8d 83ba ef74 8cba
00000110: 2d21 91ba 205b 6bba 3b2b 84ba bb65 963a
00000120: 86da 80ba 84be 84ba eee4 85ba afb6 89ba
00000130: db09 94ba 57e4 69ba dc3f 73ba 67fc 873a
00000140: b7f5 82ba d312 6f3a b4fc 61ba 1884 6d3a
00000150: ee2e 91ba c3a1 76ba a123 88ba faec 8b3a
00000160: c045 5fba 1c91 9d3a b5ad 6cba 986b 873a
00000170: b753 92ba 032b 86ba c9bf 73ba d409 74ba
00000180: f28b 95ba 1021 8d3a 5a5c 85ba ce93 993a
00000190: 8d33 93ba 90f7 89ba ea7f 87ba 0043 8c3a
000001a0: 9501 6bba 2c58 9c3a 9e14 8e3a dd48 8c3a
000001b0: 470a 60ba e43d 69ba 239b 73ba 8092 913a
000001c0: 5cf1 86ba c55f 76ba b4e9 6eba c156 8a3a
000001d0: 4dfc 82ba 6e96 8fba 7682 75ba d4da 8cba
000001e0: f677 8bba 82b9 8cba 2d87 88ba 4920 7f3a
000001f0: e7e3 69ba 41fa 5aba 4bcc 863a a4a3 953a
00000200: 0264 8e3a 8f06 84ba c2e6 9bba e227 96ba
00000210: 6c4e 5fba 65e1 82ba 55b9 94ba fe19 93ba
00000220: 4a80 883a da92 83ba f25b 7fba f6ab 843a
00000230: a070 87ba c552 8bba b6e7 85ba 96ab 6aba
00000240: 7980 8dba 0f75 903a 02b8 8aba 99ce 723a
00000250: cd56 90ba 064d 64ba 68f2 85ba c08e 52ba
00000260: 5e25 89ba 92cb 833a c39c 5bba ea31 8e3a
00000270: 0f1c 69ba e80c 913a 1db3 7dba 9a55 923a
00000280: 16e8 79ba 56ee 94ba 437e 50ba 2549 813a
00000290: 7a7a 91ba 6f31 7dba 4d4e 813a 7afa 813a
000002a0: d99c 81ba 8d90 80ba de08 8dba e359 80ba
000002b0: fc8c 79ba b766 81ba 4b1a 87ba 6769 813a
000002c0: 2987 84ba 372e 8cba bd38 8aba 4f1a 9bba
000002d0: 7dca 963a 095d 82ba e6ae 8eba 452c 833a
000002e0: 20cc 783a cb88 8cba 15f8 87ba 3a83 83ba
000002f0: e348 823a e8c3 8fba 80a7 8bba a199 8b3a
00000300: afa1 883a a421 553a 766c 803a 1f30 923a
00000310: d23b 8aba 14cf 83ba 0ace 5aba 45a1 703a
00000320: d33e 943a d1b9 85ba 0c42 73ba 191b 903a
00000330: ae25 9fba 1e08 6dba ac9d 67ba 834b 8aba
00000340: 58ed 5dba 9a7b 8fba aab4 85ba b3b2 81ba
00000350: 6a26 6cba 1e67 863a b197 6cba 5d08 8dba
00000360: e599 91ba 6fa2 85ba 35c3 89ba 5994 80ba
00000370: 3416 7e3a 0632 89ba fbc1 88ba b490 9bba
00000380: c696 6cba 2216 8dba 3a7d 78ba c0ee 7c3a
00000390: 182d 7f3a e6c8 7e3a d1d1 433a dc83 61ba
000003a0: 89d8 58ba 68ca 90ba b73f 81ba 4cf5 843a
000003b0: 44f6 96ba 7e40 943a 8949 90ba f1d8 8eba
000003c0: 035a 78ba 7344 79ba 9581 63ba dd85 86ba
000003d0: b06f 763a 5104 83ba 22d8 8fba b958 7e3a
000003e0: 6050 7a3a 46aa 77ba 74f6 8fba 544d 7cba
000003f0: 23cb 83ba cd29 8f3a 5e7e 89ba bdfa 96ba
0.0 0.0 0.0 0.0 -0.0010215207 -0.0011847883 -0.0008351146 0.0008587677
-0.0009327157 -0.0010002571 -0.0011304123 -0.0010160988 -0.0010542904 -0.0010093863 -0.0009144556 0.0011088842
-0.0010676915 -0.0011923112 0.00098677 -0.0009525343 0.0010764532 -0.0010322641 -0.0009176271 0.001083662
-0.0008521326 -0.001090662 -0.0010692489 0.0010192986 -0.0012083163 -0.0011645699 -0.00096255966 0.0009793332
-0.0008574353 0.0010576196 -0.00094022765 0.0009535257 -0.0011063691 0.0011855431 -0.0011252257 -0.0010442961
-0.0010828372 -0.0007342278 -0.0009253972 -0.0011462943 -0.0012200922 0.0012306235 -0.0011440425 0.0010148531
0.000974318 -0.00087699294 0.0009438602 -0.00088574446 -0.0010123122 -0.0010347979 -0.000854991 0.0010840945
-0.0010618366 -0.0011100075 -0.0009218122 0.0010545527 -0.0010696974 -0.0010529091 -0.0009788292 -0.0010827434
-0.00096767093 -0.0009853097 -0.0010036558 -0.0010716001 -0.0011072509 -0.0008978117 -0.0010083684 0.001147441
-0.000983075 -0.0010127579 -0.0010215321 -0.0010506714 -0.0011294441 -0.000892227 -0.000927923 0.0010374904
-0.0009991442 0.00091199315 -0.00086207245 0.0009060516 -0.0011076608 -0.00094082596 -0.0010386595 0.0010675483
-0.00085171685 0.0012021395 -0.000902857 0.0010331748 -0.0011163865 -0.0010236207 -0.00092982926 -0.0009309326
-0.0011409505 0.00107673 -0.0010174618 0.0011717023 -0.0011230573 -0.001052605 -0.0010337804 0.001070112
-0.00089647743 0.0011928133 0.0010839885 0.0010702867 -0.00085464533 -0.0008897467 -0.00092928315 0.0011106282
-0.0010295319 -0.0009398426 -0.0009113804 0.0010554419 -0.0009993404 -0.0010954866 -0.00093654485 -0.0010746368
-0.001064061 -0.0010736438 -0.0010416262 0.0009732289 -0.0008922205 -0.0008353331 0.0010284273 0.0011416567
0.0010863545 -0.0010072755 -0.0011894333 -0.0011455978 -0.00085184607 -0.0009985386 -0.0011346737 -0.0011222956
0.001041421 -0.0010038272 -0.0009741179 0.0010122049 -0.0010333247 -0.0010629526 -0.001021615 -0.000895196
-0.0010795734 0.0011021214 -0.0010583403 0.0009262353 -0.0011012197 -0.0008708987 -0.0010219337 -0.00080321357
-0.0010463407 0.0010055176 -0.00083775463 0.0010848616 -0.00088924257 0.0011066468 -0.0009677874 0.0011164427
-0.00095331797 -0.0011362534 -0.0007953385 0.0009863718 -0.0011099123 -0.000965855 0.0009865254 0.0009916567
-0.0009888663 -0.0009808704 -0.0010760089 -0.0009792413 -0.00095196045 -0.000987253 -0.0010307519 0.0009873331
-0.0010111082 -0.0010694925 -0.0010545474 -0.0011833402 0.0011504438 -0.000994594 -0.0010885864 0.00100077
0.0009490866 -0.001072192 -0.0010373617 -0.0010033615 0.0009939935 -0.0010968419 -0.0010654777 0.0010650643
0.0010424162 0.0008130318 0.0009797949 0.0011153257 -0.0010546392 -0.0010056221 -0.0008346742 0.00091793045
0.0011310227 -0.0010202472 -0.0009279556 0.0010994404 -0.0012141967 -0.0009042042 -0.00088354456 -0.0010551069
-0.0008465848 -0.001094687 -0.0010200937 -0.0009895175 -0.00090084097 0.001025412 -0.00090252893 -0.0010759939
-0.0011108486 -0.0010195504 -0.0010510447 -0.0009809836 0.00096926396 -0.0010467179 -0.0010433787 -0.0011868686
-0.00090251525 -0.0010764042 -0.00094791094 0.00096486136 0.00097341975 0.0009719267 0.0007469925 -0.00086027174
-0.00082720123 -0.001104665 -0.0009860907 0.0010143905 -0.0011517485 0.0011310724 -0.0011008243 -0.0010898394
-0.0009473862 -0.0009508796 -0.0008678672 -0.0010263283 0.0009400798 -0.0009995793 -0.0010974447 0.0009702552
0.000954872 -0.0009447675 -0.0010983483 -0.000962456 -0.0010055046 0.0010922492 -0.0010489931 -0.0011518818

embedding_layer.embedding_layer.embedding_layers.cms_segid.weight f4 [11, 4]
00000000: 0000 0000 0000 0000 0000 0000 0000 0000
00000010: e3cf 8aba a93d 77ba 7b38 87ba d486 893a
00000020: b12e 6aba cc4b 88ba 89a9 7c3a acec 7d3a
00000030: ee12 8fba a5f2 53ba b84a 883a 20c7 6f3a
00000040: 2295 80ba 1ec2 85ba a236 8eba 07e2 86ba
00000050: 0600 6cba 05a0 94ba 6f7b 91ba f1e9 87ba
00000060: 7689 88ba a35c 84ba c42c 8a3a d4e1 8bba
00000070: 8bb0 8fba 6817 89ba 1c6c 9bba 0d20 813a
00000080: 728c 96ba 50e4 79ba dea6 76ba 592a 8aba
00000090: 9d8c 84ba 1942 93ba 962c 94ba 340e 7bba
000000a0: 2fd2 99ba 482e 8fba 8b2d 85ba 0c9c 653a
0.0 0.0 0.0 0.0 -0.001059052 -0.00094314903 -0.0010316515 0.0010492452
-0.0008933349 -0.0010398566 0.00096383 0.0009686451 -0.0010915676 -0.0008085168 0.0010398244 0.00091467984
-0.000981007 -0.0010204946 -0.0010850022 -0.001029075 -0.0009002689 -0.0011339193 -0.0011099408 -0.0010369403
-0.0010416943 -0.0010098409 0.0010541906 -0.001067216 -0.0010962648 -0.0010459246 -0.0011857781 0.0009851471
-0.0011485948 -0.00095326174 -0.00094090204 -0.0010541185 -0.0010112707 -0.0011234909 -0.0011304792 -0.00095770066
-0.0011735613 -0.0010923827 -0.0010160668 0.00087589095

embedding_layer.embedding_layer.embedding_layers.cms_group_id.weight f4 [11, 4]
00000000: 0000 0000 0000 0000 0000 0000 0000 0000
00000010: 3d55 6a3a 62c9 7eba 7da2 94ba 4bf7 82ba
00000020: 2754 8eba 22a7 77ba a1eb 8fba cf57 903a
00000030: 4711 913a 6a97 78ba a4ec 8cba 6b97 69ba
00000040: 1db5 90ba acd3 6eba 8489 993a f244 8cba
00000050: c272 853a d57d 663a 03a6 99ba fee3 683a
00000060: 0ac1 903a 8d8b 6dba f489 7fba fd3e 7aba
00000070: 007c 60ba c5d7 90ba a611 8bba 70b9 84ba
00000080: 3764 76ba 96dd 69ba 1a14 76ba 4d2e 8eba
00000090: ed4a 6cba bcda 7aba 7e8c 84ba fe97 69ba
000000a0: 5c66 89ba ca07 82ba 4440 80ba 5866 82ba
0.0 0.0 0.0 0.0 0.0008939093 -0.00097193394 -0.0011339929 -0.0009991912
-0.001085882 -0.0009447207 -0.0010980257 0.0011012497 0.0011067771 -0.00094830117 -0.0010751677 -0.00089108077
-0.0011040304 -0.0009110521 0.0011713956 -0.00107017 0.0010181295 0.0008792554 -0.0011722449 0.0008884071
0.0011043858 -0.0009061627 -0.00097480346 -0.0009546129 -0.00085633993 -0.0011050632 -0.0010610118 -0.0010126065
-0.00093990884 -0.00089212635 -0.00093871506 -0.0010847539 -0.00090138504 -0.0009569337 -0.0010112671 -0.0008910893
-0.0010482776 -0.0009920534 -0.0009784778 -0.0009948714

embedding_layer.embedding_layer.embedding_layers.final_gender_code.weight f4 [4, 4]
00000000: 0000 0000 0000 0000 0000 0000 0000 0000
00000010: 58f9 8b3a 8c80 823a 18a5 9fba 0d6a 82ba
00000020: e972 92ba 9d44 7c3a 1aba 77ba 2f5f 84ba
00000030: c116 783a e6cf 7a3a 4b0c 723a 33e6 7dba
0.0 0.0 0.0 0.0 0.0010679169 0.0009956523 -0.0012179939 -0.0009949818
-0.0011173162 0.0009623261 -0.00094500335 -0.0010099168 0.000946384 0.00095677224 0.0009233399 -0.00096854864

embedding_layer.embedding_layer.embedding_layers.age_level.weight f4 [7, 4]
00000000: 0000 0000 0000 0000 0000 0000 0000 0000
00000010: b91b 833a 502e 82ba 40ad 76ba b334 64ba
00000020: 5b31 9cba 1108 81ba 3f72 6eba e364 93ba
00000030: 271e 883a 53ef 7bba b79e 8f3a 52b0 92ba
00000040: c069 70ba ab6b 92ba 8d1f a4ba c4d5 7d3a
00000050: 9b86 89ba 93a6 82ba e527 8eba 33af 873a
00000060: 964a 84ba 2cb0 8aba b35d a6ba d89f 85ba
0.0 0.0 0.0 0.0 0.0010002769 -0.0009932015 -0.00094099715 -0.00087053626
-0.0011916565 -0.0009844323 -0.00090960035 -0.0011245277 0.0010384963 -0.0009610552 0.0010957335 -0.0011191464
-0.00091710314 -0.0011171004 -0.001252161 0.00096830376 -0.0010492386 -0.0009967856 -0.001084563 0.0010351896
-0.0010093029 -0.0010581068 -0.001269272 -0.0010194732

embedding_layer.embedding_layer.embedding_layers.pvalue_level.weight f4 [4, 4]
00000000: 0000 0000 0000 0000 0000 0000 0000 0000
00000010: 8c8d 903a 8e58 8eba b83d 5aba 3032 8a3a
00000020: 5d98 813a eba0 a1ba 4882 883a 8940 90ba
00000030: 3a91 623a 3b94 89ba ced1 893a 8c09 7eba
0.0 0.0 0.0 0.0 0.0011028512 -0.0010860132 -0.0008325237 0.0010543521
0.0009887327 -0.0012331282 0.0010414803 -0.0011005561 0.0008642856 -0.0010496447 0.0010514797 -0.00096907536

embedding_layer.embedding_layer.embedding_layers.shopping_level.weight f4 [5, 4]
00000000: 0000 0000 0000 0000 0000 0000 0000 0000
00000010: 0e13 74ba 007c 823a 423c 62ba 1ca9 8e3a
00000020: a102 90ba 26ac 783a eb36 80ba ee81 873a
00000030: fd56 88ba 22b9 6c3a 24d9 7bba 161e 733a
00000040: 9213 76ba 3c66 803a 64ef 91ba c232 923a
0.0 0.0 0.0 0.0 -0.00093107007 0.0009955168 -0.0008630195 0.0010884139
-0.0010987112 0.00094861013 -0.0009781992 0.0010338405 -0.0010401901 0.00090302725 -0.00096072466 0.00092741975
-0.00093870715 0.0009796093 -0.0011133966 0.0011154043

embedding_layer.embedding_layer.embedding_layers.occupation.weight f4 [4, 4]
00000000: 0000 0000 0000 0000 0000 0000 0000 0000
00000010: d965 8c3a e239 88ba ed80 8a3a 6556 873a
00000020: 6afe 863a e495 6eba ddf4 893a 3a8d 71ba
00000030: fe72 7bba b97c 7fba 8262 76ba 2822 693a
0.0 0.0 0.0 0.0 0.0010711505 -0.0010393227 0.0010566987 0.001032543
0.001029921 -0.0009101315 0.0010525245 -0.0009214465 -0.00095920253 -0.0009746063 -0.0009398834 0.00088933343

fm.lr_layer.embedding_layer.embedding_layer.embedding_layers.userid.weight f4 [26, 1]
00000000: 0000 0000 49d3 7aba 3c5b a5ba c81d 88ba
00000010: d789 8aba 7b4d 89ba 6a09 9dba 2d49 8bba
00000020: fcbf 4aba 58f0 7fba db9b 8dba 1825 84ba
00000030: 2025 8cba dc7e 80ba 3b4d 8eba 9ea9 7aba
00000040: e832 5aba 7477 97ba 9ae5 71ba 15b5 87ba
00000050: 18fa 82ba cea9 97ba 15e0 5dba d59c 5dba
00000060: 5d95 7fba 8366 9938
0.0 -0.0009568227 -0.0012615691 -0.0010384852 -0.0010569644 -0.0010475361 -0.0011980955 -0.0010626666
-0.00077342964 -0.0009763292 -0.0010803895 -0.0010081856 -0.0010692216 -0.0009803432 -0.0010856757 -0.0009562018
-0.00083236257 -0.0011555986 -0.0009227634 -0.0010353649 -0.0009992747 -0.0011570991 -0.0008463872 -0.0008453851
-0.0009749735 7.314703e-05

fm.lr_layer.embedding_layer.embedding_layer.embedding_layers.adgroup_id.weight f4 [96, 1]
00000000: 0000 0000 9b4a 76ba 32a5 5bba 2a6d 6eba
00000010: 0077 8dba a19e 83ba a6b9 88ba 7a0e 6fba
00000020: 2e03 64ba da82 88ba 0493 8eba d8bd 8eba
00000030: 65c1 9aba e02f 85ba 6aa8 5bba 2d09 87ba
00000040: d5e7 a2ba 764e 72ba 2e33 87ba a324 85ba
00000050: 23b1 6fba 1557 99ba c151 81ba 4410 88ba
00000060: f907 83ba 4442 7eba b193 92ba c28c 76ba
00000070: f57a 91ba 24f6 85ba ca4d 95ba 35c2 7cba
00000080: 5dc6 4eba beaa 6aba aca9 73ba 0467 93ba
00000090: 2cdc 85ba 319b 93ba d120 6eba 565c 88ba
000000a0: 72f3 82ba b451 84ba 3dd3 8fba 1bde 80ba
000000b0: d14d 8bba cdcd 8aba 59da 86ba f847 8aba
000000c0: 0e3f 73ba 9cfd 86ba 3292 80ba cefa 44ba
000000d0: bbb2 71ba 73cf 65ba 2756 843a 2a27 45ba
000000e0: b83a 8cba b3fb 85ba c96d 90ba 18a1 a2ba
000000f0: 40b6 92ba e2e1 63ba 5a80 70ba 075b 88ba
00000100: 9ada 8bba e343 83ba e2cb 45ba eef4 7fba
00000110: b082 83ba c435 84ba d1d6 6bba bff2 86ba
00000120: a90b 96ba 73e9 6eba e198 88ba d16c 98ba
00000130: de19 6aba f661 6cba 908c 8d3a b310 8bba
00000140: 20c9 8cba 58bf 74ba 878c 82ba d1ea 6eba
00000150: 8c2a 79ba 6ae4 97ba 9299 96ba c512 6cba
00000160: 0fc1 85ba e4a0 7cba 674a 84ba 6c78 84ba
00000170: 2fd1 83ba df3f 86ba be00 77ba 9619 fe38
0.0 -0.00093952724 -0.0008378803 -0.0009095246 -0.0010792911 -0.0010041782 -0.0010431304 -0.00091192836
-0.00086979836 -0.0010414973 -0.0010877554 -0.0010890318 -0.0011806904 -0.0010161363 -0.00083792827 -0.0010302417
-0.001242871 -0.0009243259 -0.0010314935 -0.0010158013 -0.0009143522 -0.0011698926 -0.0009866284 -0.0010380824
-0.0009996883 -0.00096992054 -0.0011182931 -0.000940513 -0.0011099266 -0.001022045 -0.0011390981 -0.0009641976
-0.0007887835 -0.0008951834 -0.00092949974 -0.0011245911 -0.0010212711 -0.0011261461 -0.00090838695 -0.0010403495
-0.0009990765 -0.001009515 -0.0010972988 -0.0009831818 -0.001062805 -0.0010589898 -0.0010288461 -0.0010550013
-0.000927911 -0.001029897 -0.0009809195 -0.00075141795 -0.00092200533 -0.0008766569 0.0010096476 -0.00075207895
-0.0010698652 -0.0010222107 -0.0011019047 -0.0012407629 -0.0011193231 -0.0008693022 -0.00091743993 -0.0010403105
-0.0010670007 -0.0010014739 -0.00075453345 -0.00097639754 -0.0010033455 -0.0010086824 -0.0008996549 -0.0010295733
-0.0011447567 -0.0009113766 -0.0010421538 -0.001162911 -0.0008930246 -0.0009017283 0.0010799337 -0.0010609835
-0.0010741092 -0.0009336374 -0.0009960093 -0.000911397 -0.0009504936 -0.0011588458 -0.0011489859 -0.00090054824
-0.0010204631 -0.00096370117 -0.0010092974 -0.0010106689 -0.0010056848 -0.0010242424 -0.0009422413 0.000121164296

fm.lr_layer.embedding_layer.embedding_layer.embedding_layers.pid.weight f4 [4, 1]
00000000: 0000 0000 97f0 84ba b2a9 80ba cc4a 1439
0.0 -0.0010142502 -0.0009816198 0.00014142244

fm.lr_layer.embedding_layer.embedding_layer.embedding_layers.cate_id.weight f4 [49, 1]
00000000: 0000 0000 f3f7 8bba 4e39 98ba 5916 8cba
00000010: 21b0 7bba 848e 59ba e1d0 a1ba 5f85 79ba
00000020: 4e19 67ba fd67 86ba 4cdd 90ba 1c8c 63ba
00000030: cbf9 99ba fcce 8cba 1887 71ba fa0e 7fba
00000040: 34ed 82ba 8c1b 8aba 5e6a 81ba 5606 92ba
00000050: 272e 63ba 8286 7aba f3dd 6aba 7537 8fba
00000060: deef 70ba fc32 42ba 9787 7bba 11af 8cba
00000070: 9f1c 87ba 9cc1 8bba f7b9 883a 51f2 89ba
00000080: b48c 72ba 868b 69ba ea7e 74ba 0317 91ba
00000090: 29f4 6bba 0cdc 93ba 1600 81ba 88a8 87ba
000000a0: e253 8dba 09fc 8bba 13fa 90ba bc9e 96ba
000000b0: b14a 75ba 1550 74ba 2179 87ba 323f 7eba
000000c0: d8f1 66b8
0.0 -0.0010678753 -0.0011613758 -0.0010687812 -0.00096011354 -0.00082991295 -0.0012345576 -0.000951847
-0.00088157214 -0.001025438 -0.001105228 -0.0008680241 -0.0011747418 -0.0010742838 -0.0009213551 -0.000972971
-0.0009988905 -0.0010536774 -0.0009873619 -0.0011140804 -0.000866624 -0.00095567864 -0.00089594646 -0.0010926562
-0.00091910164 -0.000740811 -0.00095950946 -0.0010733326 -0.0010308212 -0.0010662558 0.0010431398 -0.0010524486
-0.0009252534 -0.0008909035 -0.0009326773 -0.001106948 -0.0009000921 -0.0011280789 -0.0009841945 -0.0010349909
-0.0010782445 -0.0010679971 -0.0011060856 -0.0011491398 -0.0009357138 -0.00093197945 -0.0010335782 -0.0009698748
-5.5061508e-05

fm.lr_layer.embedding_layer.embedding_layer.embedding_layers.campaign_id.weight f4 [99, 1]
00000000: 0000 0000 d6f2 883a e08f 86ba 1d96 6fba
00000010: 6d7e 723a dc9c 8aba 928f 56ba 1a3f 98ba
00000020: 9a9f 98ba 183e 64ba ef4a 94ba 7c4f 96ba
00000030: e0cc 89ba 5e43 88ba c251 5cba de6c 92ba
00000040: 2334 95ba bfeb 65ba bbdd 75ba 8847 88ba
00000050: 1787 87ba 682d 83ba d1d7 8eba b4e4 9aba
00000060: 1eeb 8aba 412a 70ba 31fb 86ba 2e3b 9eba
00000070: 9c51 89ba 93df 77ba daff 80ba c4c6 83ba
00000080: 883e 8aba 06e2 88ba 7df7 8eba 88d2 63ba
00000090: 94f0 69ba 0660 78ba 9e90 903a 7741 8aba
000000a0: 2a5c 66ba 7373 86ba 9405 9cba 088c 6bba
000000b0: 9bf6 8fba 4f61 67ba 1add 8cba bdef 74ba
000000c0: bad7 74ba f49d a3ba 7487 8fba 6048 5dba
000000d0: 5462 833a ea55 6eba 7f2f 86ba cfb7 a2ba
000000e0: 6867 62ba 1503 8bba dfe5 85ba 26d9 88ba
000000f0: 1227 4fba 2c07 75ba 9025 63ba 9eef 7aba
00000100: cbeb 83ba 387a 80ba d0d9 7dba 94c2 82ba
00000110: 4b76 93ba 77a1 7aba c780 8cba ecf5 92ba
00000120: c498 81ba 6731 80ba e2d5 74ba 3e07 9aba
00000130: a184 98ba f2bc 55ba ef83 87ba 0d5a 70ba
00000140: a497 75ba 2248 84ba c5f2 65ba dae5 5bba
00000150: f8e9 64ba f792 70ba eb13 77ba fe89 4cba
00000160: 6e3d 8dba c0c5 8cba 2b5c 81ba cf66 7bba
00000170: d9bb 79ba 1dd7 97ba 5ff4 90ba 7479 75ba
00000180: fdbd 83ba 0124 8dba 91d6 2c39
0.0 0.0010448347 -0.0010266267 -0.0009139495 0.00092504063 -0.0010575312 -0.0008184846 -0.0011615485
-0.0011644245 -0.00087067625 -0.0011313836 -0.001146778 -0.0010513328 -0.0010396054 -0.0008404517 -0.0011171361
-0.0011383336 -0.00087707856 -0.0009379049 -0.0010397295 -0.0010339943 -0.0010008039 -0.0010898059 -0.0011817426
-0.0010598635 -0.000916157 -0.001029825 -0.001207208 -0.0010476592 -0.00094556174 -0.0009841875 -0.0010053744
-0.00105472 -0.0010443337 -0.0010907497 -0.00086907344 -0.00089240936 -0.0009474758 0.0011029427 -0.0010548074
-0.0008787537 -0.0010257795 -0.0011903518 -0.0008985405 -0.0010983528 -0.0008826451 -0.0010747046 -0.0009343585
-0.0009340007 -0.0012482987 -0.0010950402 -0.00084412657 0.0010023811 -0.00090917817 -0.0010237544 -0.0012414398
-0.00086366246 -0.0010605777 -0.0010215602 -0.0010440692 -0.0007902245 -0.0009347077 -0.000866496 -0.0009572449
-0.0010064779 -0.0009802049 -0.00096836407 -0.0009976202 -0.0011250464 -0.00095608033 -0.0010719531 -0.0011212206
-0.0009887447 -0.0009780348 -0.00093397324 -0.0011751426 -0.0011636206 -0.000815346 -0.0010339002 -0.0009168692
-0.00093686045 -0.0010092298 -0.0008771832 -0.00083884376 -0.0008732374 -0.0009177173 -0.000942527 -0.0007802545
-0.0010775754 -0.0010740086 -0.0009869387 -0.000959021 -0.00095265877 -0.0011584494 -0.0011059156 -0.0009364106
-0.0010051128 -0.0010768176 0.0001648313

fm.lr_layer.embedding_layer.embedding_layer.embedding_layers.customer.weight f4 [98, 1]
00000000: 0000 0000 4413 6fba 6d0a 74ba 5ac1 76ba
00000010: ce5d 83ba 2a3a 73ba ee31 84ba 3d6c 80ba
00000020: 3f50 7f3a 1d45 8bba 6273 79ba 77dd 77ba
00000030: 62bb 73ba 44c6 67ba 257d 84ba 99fc 50ba
00000040: da95 8aba 4f99 65ba 5c80 85ba 57a0 87ba
00000050: f53b 7cba a65a 8bba 3ffc 6cba 536d a6ba
00000060: 9638 61ba c068 6dba 1c8b 91ba 75d8 8dba
00000070: 7464 7eba 6e29 84ba 2cd9 7eba 0fc9 6eba
00000080: 5216 87ba fa2d 83ba 59ee 82ba 8c68 93ba
00000090: 395c 95ba 1088 8eba 7ace 7bba 43de 5dba
000000a0: 6a95 90ba 2e72 86ba 879b 733a fb12 7cba
000000b0: 318e 8eba 1b28 82ba 3e4d 69ba db5d 89ba
000000c0: 6f78 723a 5293 7cba 7a27 71ba bce3 5cba
000000d0: 2b81 80ba e320 86ba d557 72ba 9c9b 8aba
000000e0: b3fa 81ba 53a9 8cba ec9f 79ba db79 81ba
000000f0: 63d9 7bba 0914 72ba 9498 6dba 469a 7eba
00000100: 340f 8bba a923 8aba 025e 75ba 71ff 84ba
00000110: 0013 64ba 5766 8aba 398c 76ba 0152 80ba
00000120: 0e93 8dba 633d 6bba e798 7dba f0b6 723a
00000130: 064b 89ba e6aa 86ba a2f5 5bba f833 60ba
00000140: 3659 8dba 158a 81ba 695c 80ba a767 6bba
00000150: 9dfe 73ba ca2e 85ba b470 6dba f735 7bba
00000160: 2f4d 9fba 140f 8aba 6960 75ba 3116 87ba
00000170: 8f7b 84ba e184 54ba 8aca 89ba 5dbb 5cba
00000180: 0bb3 81ba ae9b 0db8
0.0 -0.0009119997 -0.0009309415 -0.0009412967 -0.0010022463 -0.00092783815 -0.0010085681 -0.0009797883
0.00097394356 -0.0010625456 -0.00095157896 -0.0009455303 -0.00092976366 -0.00088414946 -0.0010108097 -0.00079722103
-0.0010573224 -0.00087585015 -0.0010185349 -0.0010347468 -0.00096219714 -0.0010631874 -0.0009040273 -0.0012697376
-0.0008591501 -0.00090564415 -0.001110408 -0.0010821956 -0.00097043 -0.0010083148 -0.0009721692 -0.00091089396
-0.0010306335 -0.0010008209 -0.0009989246 -0.0011246367 -0.0011395282 -0.001087429 -0.00096056575 -0.00084636005
-0.0011030857 -0.0010257417 0.000929289 -0.00096158654 -0.0010876117 -0.0009930165 -0.00088997546 -0.0010480242
0.00092495134 -0.00096349895 -0.0009199303 -0.0008426269 -0.000980412 -0.001023319 -0.00092446554 -0.001057494
-0.0009916633 -0.0010731615 -0.00095224264 -0.0009878235 -0.0009607283 -0.0009234553 -0.00090635684 -0.00097123196
-0.0010609389 -0.0010539192 -0.00093600166 -0.0010146928 -0.0008700341 -0.0010559064 -0.000940505 -0.0009790064
-0.0010801272 -0.0008973686 -0.00096739683 0.0009258827 -0.0010474629 -0.001027432 -0.0008390789 -0.0008552666
-0.0010784033 -0.0009883071 -0.0009793165 -0.0008979984 -0.00093076547 -0.0010161039 -0.00090576266 -0.00095829315
-0.001215374 -0.0010533058 -0.00093603745 -0.0010306296 -0.0010107624 -0.00081069587 -0.0010512632 -0.0008420253
-0.0009895278 -3.3762008e-05
