demo/checkpoints/full_h5/full_h5_initial.model (torch, 784706 bytes, 1310 tensors)

embedding_layer.embedding_layer.embedding_layers.release_date.weight f4 [4, 1]
0	0xbe67f376	-0.22651467
1	0x3ec039f0	0.37544203
2	0x3f08d63a	0.53451884
3	0x3f848947	1.0354394

embedding_layer.embedding_layer.embedding_layers.release_msrp.weight f4 [4, 1]
0	0xbed56843	-0.41681108
1	0xbedea397	-0.43484184
2	0x3e846951	0.258616
3	0xbea775bf	-0.3270702

embedding_layer.embedding_layer.embedding_layers.is_smartphone.weight f4 [4, 4]
0	0x00000000	0.0
1	0x00000000	0.0
2	0x00000000	0.0
3	0x00000000	0.0
4	0x3a8a145f	0.0010534636
5	0xbd736c69	-0.05942956
6	0xbd5363ce	-0.051608853
7	0x3ab7db48	0.0014027143
8	0xb5b69fa8	-1.3606523e-06
9	0x3711efb4	8.698484e-06
10	0xb5919d45	-1.0849113e-06
11	0x368bd34d	4.1671215e-06
12	0xb75ad01d	-1.3042268e-05
13	0xb69f3f55	-4.745942e-06
14	0xb5c6ca99	-1.4811113e-06
15	0xb7993089	-1.8261622e-05

embedding_layer.embedding_layer.embedding_layers.ios_has_sha.weight f4 [4, 4]
0	0x00000000	0.0
1	0x00000000	0.0
2	0x00000000	0.0
3	0x00000000	0.0
4	0x3d1753d6	0.036945187
5	0x3b162028	0.002290735
6	0xba8f97f1	-0.0010955316
7	0xbd7bbb2f	-0.06145781
8	0x37317173	1.0576437e-05
9	0x35bd2412	1.4092095e-06
10	0x37363af2	1.086177e-05
11	0x36b1d3fc	5.2996893e-06
12	0xb6b37f35	-5.3494246e-06
13	0xb6d0327b	-6.2047598e-06
14	0xb6883e07	-4.060337e-06
15	0x35def772	1.6612305e-06

embedding_layer.embedding_layer.embedding_layers.android_no_sha.weight f4 [4, 4]
0	0x00000000	0.0
1	0x00000000	0.0
2	0x00000000	0.0
3	0x00000000	0.0
4	0xbc7c471a	-0.015397811
5	0xbad22805	-0.0016033655
6	0x3d6a2bdd	0.057170738
7	0x395b4c50	0.00020913896
8	0x3794450d	1.767513e-05
9	0x35bab995	1.3912091e-06
10	0xb6c0f1fa	-5.7502157e-06
11	0xb675c560	-3.6622732e-06
12	0xb608e922	-2.040128e-06
13	0x371f3ef3	9.491795e-06
14	0xb68047be	-3.823049e-06
15	0xb6269894	-2.482474e-06

embedding_layer.embedding_layer.embedding_layers.dev_os_ios.weight f4 [4, 4]
0	0x00000000	0.0
1	0x00000000	0.0
2	0x00000000	0.0
3	0x00000000	0.0
4	0x3aa37ce4	0.0012473133
5	0xbaefaa95	-0.001828509
6	0xbbecb07f	-0.0072231884
7	0x3a10ca2f	0.0005523292
8	0x3734d270	1.0777832e-05
9	0x351edc83	5.9180473e-07
10	0x371909f1	9.121825e-06
11	0xb59e9c68	-1.1817438e-06
12	0x36fdb54e	7.561094e-06
13	0x37c193b0	2.3076165e-05
14	0xb5300281	-6.5568753e-07
15	0xb6d7fa78	-6.4366577e-06

embedding_layer.embedding_layer.embedding_layers.advertiser_bundle_1200391796.weight f4 [4, 4]
0	0x00000000	0.0
1	0x00000000	0.0
2	0x00000000	0.0
3	0x00000000	0.0
4	0x3d32e731	0.043677513
5	0x3d712ca7	0.058880474
6	0x3d1a98dd	0.037743438
7	0xbcf345e2	-0.029696409
8	0x37840792	1.5739151e-05
9	0x370e9c53	8.500257e-06
10	0xb64d42c0	-3.0586234e-06
11	0x36adf610	5.184447e-06
12	0xb6ce0f62	-6.141069e-06
13	0x35f87276	1.8510752e-06
14	0x33f085fd	1.1200243e-07
15	0x378ccd36	1.678486e-05

embedding_layer.embedding_layer.embedding_layers.advertiser_bundle_1214763610.weight f4 [4, 4]
0	0x00000000	0.0
1	0x00000000	0.0
2	0x00000000	0.0
3	0x00000000	0.0
4	0x3db17128	0.08664161
5	0x3d9d958f	0.07694542
6	0xbda647c4	-0.08119157
7	0xbdaa5181	-0.08316327
8	0x3729bde9	1.0117402e-05
9	0x374c496c	1.2176442e-05
10	0x36cbb6b6	6.071142e-06
11	0x37b5fe3f	2.1695274e-05
12	0x36b97268	5.5267483e-06
13	0xb6b6f4af	-5.4525076e-06
14	0x37090a44	8.1682265e-06
15	0x3707cad9	8.093856e-06

embedding_layer.embedding_layer.embedding_layers.advertiser_bundle_1269540854.weight f4 [4, 4]
0	0x00000000	0.0
1	0x00000000	0.0
2	0x00000000	0.0
3	0x00000000	0.0
4	0x3c9517c6	0.018199813
5	0x3cbb3cd5	0.022856155
6	0xbbacdda6	-0.005275446
7	0x3d0e48cb	0.03473739
8	0xb7375eb0	-1.0929696e-05
9	0x381358a1	3.5130073e-05
10	0x37500fe4	1.2401466e-05
11	0x366da2b4	3.5410458e-06
12	0xb747dcd8	-1.19127435e-05
13	0x368c75d3	4.1860417e-06
14	0x3705fb1b	7.985883e-06
15	0x36111403	2.1618332e-06

embedding_layer.embedding_layer.embedding_layers.advertiser_bundle_1371565796.weight f4 [4, 4]
0	0x00000000	0.0
1	0x00000000	0.0
2	0x00000000	0.0
3	0x00000000	0.0
4	0x3dc5fc34	0.096672446
5	0xbc89aa56	-0.016804855
6	0x3d647b35	0.055781562
7	0xbdafbbce	-0.08580743
8	0xb6af3de2	-5.2226105e-06
9	0x3788460c	1.6245081e-05
10	0x3538adb1	6.8798096e-07
11	0xb6bb8d0a	-5.5894534e-06
12	0x3645acbe	2.9455837e-06
13	0x36a5bb8b	4.939216e-06
14	0x36ec02b7	7.033664e-06
15	0xb687a58f	-4.042587e-06

embedding_layer.embedding_layer.embedding_layers.advertiser_bundle_1432579280.weight f4 [4, 4]
0	0x00000000	0.0
1	0x00000000	0.0
2	0x00000000	0.0
3	0x00000000	0.0
4	0xbde0ecf2	-0.10982694
5	0x3ddea7f0	0.10871875
6	0xbde288d5	-0.11061255
7	0xbddaf987	-0.10692125
8	0xb5a8bc26	-1.2571734e-06
9	0xb6b81904	-5.4865395e-06
10	0x3726df47	9.946357e-06
11	0x3601c1ac	1.933523e-06
12	0x3621e9b4	2.4126903e-06
13	0x362fb885	2.6184437e-06
14	0x36b40562	5.3650447e-06
15	0xb6ade167	-5.182042e-06

embedding_layer.embedding_layer.embedding_layers.advertiser_bundle_1433784188.weight f4 [3, 4]
0	0x00000000	0.0
1	0x00000000	0.0
2	0x00000000	0.0
3	0x00000000	0.0
4	0x378a5aa6	1.6493093e-05
5	0x351aef95	5.771811e-07
6	0x35d51a52	1.5877397e-06
7	0x375b7992	1.30817225e-05
8	0x36982b08	4.5349625e-06
9	0x36aa77cf	5.0803424e-06
10	0x36bcb1e3	5.6235453e-06
11	0x37c49c28	2.3437737e-05

embedding_layer.embedding_layer.embedding_layers.advertiser_bundle_1464675244.weight f4 [3, 4]
0	0x00000000	0.0
1	0x00000000	0.0
2	0x00000000	0.0
3	0x00000000	0.0
4	0xb7c70f6a	-2.3729826e-05
5	0x35a847c8	1.2537866e-06
6	0x35532831	7.866211e-07
7	0x36ee9fbc	7.1115483e-06
8	0xb68ae411	-4.139271e-06
9	0x376c9d9c	1.41033925e-05
10	0xb682a139	-3.8930707e-06
11	0xb6519dcf	-3.1235284e-06

embedding_layer.embedding_layer.embedding_layers.advertiser_bundle_1526121033.weight f4 [4, 4]
0	0x00000000	0.0
1	0x00000000	0.0
2	0x00000000	0.0
3	0x00000000	0.0
4	0xbd425ead	-0.04745357
5	0xbd1e8acc	-0.038706586
6	0xbd0b5e24	-0.034025326
7	0x3c3ff14c	0.0117152445
8	0x3786738f	1.6027856e-05
9	0x3711212d	8.650398e-06
10	0xb7094cf9	-8.183758e-06
11	0xb6c75837	-5.9409317e-06
12	0x3522a137	6.05843e-07
13	0x3591e72b	1.0870621e-06
14	0x3712ddfa	8.753961e-06
15	0x368933c7	4.088946e-06

embedding_layer.embedding_layer.embedding_layers.advertiser_bundle_1590994524.weight f4 [3, 4]
0	0x00000000	0.0
1	0x00000000	0.0
2	0x00000000	0.0
3	0x00000000	0.0
4	0xb6c5435a	-5.8788983e-06
5	0x371c2e4b	9.309103e-06
6	0xb6f1dad5	-7.207835e-06
7	0x36bf586d	5.7025377e-06
8	0x35d401ed	1.5795791e-06
9	0xb77b46c3	-1.4977241e-05
10	0xb79563c1	-1.7808636e-05
11	0x35556c2e	7.9506106e-07

embedding_layer.embedding_layer.embedding_layers.advertiser_bundle_529996768.weight f4 [4, 4]
0	0x00000000	0.0
1	0x00000000	0.0
2	0x00000000	0.0
3	0x00000000	0.0
4	0x3d81766f	0.063214175
5	0x3db74856	0.08949344
6	0x3dc23938	0.0948357
7	0xbdd1ccb9	-0.10244126
8	0x362659b3	2.478814e-06
9	0xb7100116	-8.583322e-06
10	0x368a2b6e	4.1177764e-06
11	0xb622381c	-2.417254e-06
12	0x36f567cb	7.313652e-06
13	0xb65a3507	-3.2515397e-06
14	0xb57da615	-9.4491526e-07
15	0xb78a9e7d	-1.6524684e-05

embedding_layer.embedding_layer.embedding_layers.advertiser_bundle_561941526.weight f4 [4, 4]
0	0x00000000	0.0
1	0x00000000	0.0
2	0x00000000	0.0
3	0x00000000	0.0
4	0x3c9d2dce	0.01918688
5	0xbdbe2db3	-0.0928606
6	0x3c3ed61b	0.011647726
7	0x3c0fdb51	0.008780316
8	0xb79e0884	-1.8839033e-05
9	0xb68ecedd	-4.256012e-06
10	0x3684f7f1	3.9627707e-06
11	0x3784f26d	1.5848515e-05
12	0x3790a908	1.7244849e-05
13	0x36606eef	3.3443173e-06
14	0xb70d1143	-8.408274e-06
15	0xb63ece18	-2.8432169e-06

embedding_layer.embedding_layer.embedding_layers.advertiser_bundle_880178264.weight f4 [4, 4]
0	0x00000000	0.0
1	0x00000000	0.0
2	0x00000000	0.0
3	0x00000000	0.0
4	0xbd78690c	-0.060647056
5	0x3cf7e710	0.030261546
6	0x3d540b86	0.051768802
7	0x3d0d297c	0.03446339
8	0xb6f9e0d7	-7.446953e-06
9	0x3596d8bf	1.1238952e-06
10	0xb6bb1d19	-5.5764217e-06
11	0xb4b05807	-3.2846603e-07
12	0x36b54c45	5.4030993e-06
13	0x36d68a14	6.3937714e-06
14	0x368f8146	4.2767815e-06
15	0x369e6e34	4.7215963e-06

embedding_layer.embedding_layer.embedding_layers.advertiser_bundle_com_mistplay_mistplay.weight f4 [4, 4]
0	0x00000000	0.0
1	0x00000000	0.0
2	0x00000000	0.0
3	0x00000000	0.0
4	0x3d56b1de	0.05241572
5	0xbd5ca029	-0.053863678
6	0xbd409311	-0.047015253
7	0x3d215b0f	0.03939348
8	0x36ccc8a1	6.10303e-06
9	0x36b76763	5.465861e-06
10	0x362eb6b0	2.6034359e-06
11	0xb74fdec2	-1.2390026e-05
12	0x36e0e3af	6.702226e-06
13	0xb6b0d08f	-5.269488e-06
14	0xb7189d46	-9.096524e-06
15	0xb6a4529b	-4.8971974e-06

embedding_layer.embedding_layer.embedding_layers.advertiser_bundle_com_mytona_cookingdiary_android.weight f4 [4, 4]
0	0x00000000	0.0
1	0x00000000	0.0
2	0x00000000	0.0
3	0x00000000	0.0
4	0xbc905aab	-0.017621359
5	0x3c95f2ba	0.018304218
6	0xbcac5942	-0.021038655
7	0xbc9524ad	-0.018205965
8	0xb4aa7cfd	-3.1755908e-07
9	0xb650406f	-3.103192e-06
10	0xb70e44f3	-8.479913e-06
11	0xb62adeea	-2.5461727e-06
12	0x351b8110	5.792981e-07
13	0xb6380058	-2.7418337e-06
14	0x36dd4270	6.5940476e-06
15	0x37423274	1.1575048e-05

embedding_layer.embedding_layer.embedding_layers.advertiser_bundle_com_playvalve_solitaire.weight f4 [4, 4]
0	0x00000000	0.0
1	0x00000000	0.0
2	0x00000000	0.0
3	0x00000000	0.0
4	0x3d18de51	0.037321392
5	0xbd4bdacd	-0.04976921
6	0xbd0774d1	-0.03307039
7	0xbd1da3ab	-0.038486164
8	0x37628e4b	1.350378e-05
9	0xb6f4603a	-7.282969e-06
10	0x35df6580	1.6644335e-06
11	0xb662ef48	-3.3815904e-06
12	0x37026c8b	7.773876e-06
13	0x376c1cfb	1.4073444e-05
14	0x37302167	1.0498195e-05
15	0xb6eb90f4	-7.0204205e-06

embedding_layer.embedding_layer.embedding_layers.advertiser_bundle_com_playvalve_watersort.weight f4 [4, 4]
0	0x00000000	0.0
1	0x00000000	0.0
2	0x00000000	0.0
3	0x00000000	0.0
4	0x3cbdcece	0.023169901
5	0x3d0a05cc	0.033696935
6	0xbce00990	-0.02734831
7	0xbd1229e1	-0.03568447
8	0x3519f97b	5.7359983e-07
9	0xb6d47171	-6.3312987e-06
10	0x3612c9da	2.1873188e-06
11	0x36ac5a8c	5.1365405e-06
12	0xb7474393	-1.1877058e-05
13	0x36ac87df	5.141817e-06
14	0x36d8cbf2	6.461044e-06
15	0xb632f09b	-2.6664118e-06

embedding_layer.embedding_layer.embedding_layers.advertiser_bundle_com_rovio_dream.weight f4 [4, 4]
0	0x00000000	0.0
1	0x00000000	0.0
2	0x00000000	0.0
3	0x00000000	0.0
4	0xbb4b61d4	-0.0031033652
5	0x3d06ded4	0.03292735
6	0x3ac1a543	0.0014773983
7	0x3b6fc670	0.0036586784
8	0xb7757ae5	-1.4631752e-05
9	0x36b7fc89	5.483224e-06
10	0x378786fe	1.6156115e-05
11	0x37ae9948	2.0813794e-05
12	0xb5eaab86	-1.7484278e-06
13	0x378e987a	1.6998722e-05
14	0xb6867390	-4.0069644e-06
15	0x37855106	1.5892565e-05

embedding_layer.embedding_layer.embedding_layers.advertiser_bundle_com_upland_app.weight f4 [4, 4]
0	0x00000000	0.0
1	0x00000000	0.0
2	0x00000000	0.0
3	0x00000000	0.0
4	0x3d140e7d	0.03614663
5	0x3d1781f6	0.036989175
6	0x3d3d509d	0.046219457
7	0xbcca6e88	-0.024710909
8	0xb6a9ab03	-5.056501e-06
9	0xb59e5f3c	-1.1799634e-06
10	0xb7243b0a	-9.788908e-06
11	0xb681fca7	-3.873912e-06
12	0x372c9e52	1.0288861e-05
13	0x36b53535	5.4004145e-06
14	0xb640e3f5	-2.8742918e-06
15	0x36a1a816	4.8177417e-06

embedding_layer.embedding_layer.embedding_layers.advertiser_bundle_in_playsimple_tripcross.weight f4 [4, 4]
0	0x00000000	0.0
1	0x00000000	0.0
2	0x00000000	0.0
3	0x00000000	0.0
4	0x3cd0a9e7	0.02547164
5	0xbcf0b2b2	-0.029382084
6	0xbcece124	-0.02891595
7	0xbd04cfa2	-0.032424577
8	0x36e1eba0	6.732953e-06
9	0x370d1f83	8.411592e-06
10	0xb64f58a0	-3.089699e-06
11	0xb7bb1016	-2.2299628e-05
12	0x36c2fda7	5.8111796e-06
13	0x3782f69a	1.561204e-05
14	0x37598c1b	1.2966829e-05
15	0x361ebb8b	2.3653e-06

embedding_layer.embedding_layer.embedding_layers.advertiser_bundle_nan.weight f4 [4, 4]
0	0x00000000	0.0
1	0x00000000	0.0
2	0x00000000	0.0
3	0x00000000	0.0
4	0x3b59d8de	0.0033240835
5	0x3ac8ecdc	0.0015329379
6	0x3b52f97c	0.0032192161
7	0x3bbafea8	0.005706627
8	0xb7314adf	-1.0567454e-05
9	0x369f2879	4.743281e-06
10	0x36935857	4.3912255e-06
11	0xb62d6675	-2.5838647e-06
12	0xb70f14bf	-8.5282945e-06
13	0xb6ec62ca	-7.0448486e-06
14	0xb65d7c36	-3.3003867e-06
15	0xb716f9b1	-8.9988325e-06

embedding_layer.embedding_layer.embedding_layers.ad_size_interstitial_landscape.weight f4 [4, 4]
0	0x00000000	0.0
1	0x00000000	0.0
2	0x00000000	0.0
3	0x00000000	0.0
4	0xbc0d759c	-0.008633997
5	0x3c88363c	0.016627423
6	0xbdeb216a	-0.114809826
7	0xbdc9507e	-0.09829806
8	0x36de5de2	6.627045e-06
9	0xb70a4418	-8.241295e-06
10	0xb764b602	-1.3632236e-05
11	0xb496496b	-2.7993096e-07
12	0xb5f6fabb	-1.84014e-06
13	0xb6bfbbe5	-5.7141174e-06
14	0x353db3f7	7.066987e-07
15	0x3621b8db	2.409847e-06

embedding_layer.embedding_layer.embedding_layers.ad_size_leaderboard.weight f4 [4, 4]
0	0x00000000	0.0
1	0x00000000	0.0
2	0x00000000	0.0
3	0x00000000	0.0
4	0x3dee9a0d	0.116504766
5	0xbdcc803c	-0.09985396
6	0x3dcb8279	0.09936995
7	0xbdcb3b8d	-0.09923468
8	0x3721a75c	9.635314e-06
9	0xb6a39731	-4.8753795e-06
10	0x37c4e455	2.3471346e-05
11	0x378dbfed	1.6897882e-05
12	0xb6998f2e	-4.5764236e-06
13	0x351a2e01	5.7436415e-07
14	0x35c5dec7	1.474248e-06
15	0xb781f3bd	-1.5491498e-05

embedding_layer.embedding_layer.embedding_layers.ad_size_mpu.weight f4 [4, 4]
0	0x00000000	0.0
1	0x00000000	0.0
2	0x00000000	0.0
3	0x00000000	0.0
4	0xbdc96365	-0.09833411
5	0x3dc8bad7	0.09801262
6	0xbdde0e04	-0.10842517
7	0x3dc9cb02	0.09853174
8	0xb7289d87	-1.00502575e-05
9	0xb4cebc11	-3.8507326e-07
10	0xb673ca17	-3.6327453e-06
11	0xb6dbebb4	-6.554148e-06
12	0x36d625e8	6.38211e-06
13	0xb7938a85	-1.7588269e-05
14	0xb5b38f08	-1.3378167e-06
15	0x3694888c	4.42664e-06

embedding_layer.embedding_layer.embedding_layers.ad_size_native.weight f4 [4, 4]
0	0x00000000	0.0
1	0x00000000	0.0
2	0x00000000	0.0
3	0x00000000	0.0
4	0x3d6ae645	0.05734851
5	0xbd4d68bd	-0.050148714
6	0xbd669fc7	-0.05630472
7	0x3d417aaa	0.047236122
8	0x3687f57f	4.051893e-06
9	0x35531bcf	7.864409e-07
10	0x35391d2b	6.8960316e-07
11	0x378e6a55	1.6977234e-05
12	0x370f352d	8.535845e-06
13	0xb59ef837	-1.1844157e-06
14	0x37492d9e	1.1991155e-05
15	0x374649ff	1.1818948e-05

embedding_layer.embedding_layer.embedding_layers.ad_size_native-video.weight f4 [4, 4]
0	0x00000000	0.0
1	0x00000000	0.0
2	0x00000000	0.0
3	0x00000000	0.0
4	0xbe019b14	-0.12656814
5	0x3df6cf77	0.120512895
6	0xbe02c02f	-0.12768625
7	0xbcb56d9c	-0.022146992
8	0x36bacbb1	5.5669448e-06
9	0x36b4caf1	5.3880435e-06
10	0x368fe7c3	4.2887127e-06
11	0xb6e48857	-6.8108016e-06
12	0xb659f898	-3.248022e-06
13	0xb6fc5fa2	-7.5213184e-06
14	0xb63cc2c8	-2.812756e-06
15	0x369b6248	4.6308014e-06

embedding_layer.embedding_layer.embedding_layers.ad_size_t-interstitial.weight f4 [4, 4]
0	0x00000000	0.0
1	0x00000000	0.0
2	0x00000000	0.0
3	0x00000000	0.0
4	0x3c7cb49d	0.015423921
5	0xbe27a919	-0.163731
6	0xbde7e4e8	-0.11322957
7	0x3d3affa6	0.04565396
8	0xb72cea27	-1.0306517e-05
9	0x36b44d00	5.373382e-06
10	0xb6d0154e	-6.2013632e-06
11	0xb5a4e2e8	-1.2284991e-06
12	0xb42df434	-1.6200721e-07
13	0x37524b85	1.2534559e-05
14	0x368a10c4	4.1146723e-06
15	0xb7519658	-1.2492375e-05

embedding_layer.embedding_layer.embedding_layers.ad_size_t-interstitial_landscape.weight f4 [4, 4]
0	0x00000000	0.0
1	0x00000000	0.0
2	0x00000000	0.0
3	0x00000000	0.0
4	0x3b66c275	0.003521112
5	0xba80d57c	-0.0009829248
6	0x3c0d4e5e	0.008624641
7	0xbbd105fc	-0.006378887
8	0xb6e77450	-6.897877e-06
9	0xb6efecee	-7.1503373e-06
10	0x3645b4b2	2.9460466e-06
11	0x35a48360	1.2257187e-06
12	0xb7097c6e	-8.194807e-06
13	0xb5807885	-9.571819e-07
14	0x36a73a55	4.9837786e-06
15	0x36863e6e	4.000779e-06

embedding_layer.embedding_layer.embedding_layers.ad_size_xlarge.weight f4 [4, 4]
0	0x00000000	0.0
1	0x00000000	0.0
2	0x00000000	0.0
3	0x00000000	0.0
4	0x3da98ff8	0.08279413
5	0x3da64d82	0.08120252
6	0xbdc6e6e6	-0.09712009
7	0xbdb9945d	-0.09061501
8	0xb7c38b09	-2.3310555e-05
9	0x372245dc	9.672218e-06
10	0xb768ec57	-1.3883305e-05
11	0x3495c964	2.7899944e-07
12	0x36b492b9	5.381499e-06
13	0xb734ff74	-1.0788313e-05
14	0xb736f759	-1.09056355e-05
15	0xb6ca9c4c	-6.0382645e-06

embedding_layer.embedding_layer.embedding_layers.connection_type_id_2.weight f4 [4, 4]
0	0x00000000	0.0
1	0x00000000	0.0
2	0x00000000	0.0
3	0x00000000	0.0
4	0xbd7caddc	-0.061689243
5	0x3cb52b70	0.02211544
6	0x3ce0c92f	0.027439682
7	0xbd057bac	-0.032588646
8	0x37125003	8.720907e-06
9	0x3713acb7	8.802096e-06
10	0x373575e6	1.0815891e-05
11	0x36f5647f	7.3132683e-06
12	0x3734e186	1.0781345e-05
13	0x37703230	1.43168e-05
14	0xb765c4f8	-1.3695324e-05
15	0x37231331	9.720025e-06

embedding_layer.embedding_layer.embedding_layers.connection_type_id_3.weight f4 [4, 4]
0	0x00000000	0.0
1	0x00000000	0.0
2	0x00000000	0.0
3	0x00000000	0.0
4	0x3c8213c9	0.015878575
5	0xb8a8cc75	-8.048947e-05
6	0xbb1ba76f	-0.0023750921
7	0xba3db422	-0.000723662
8	0x37112606	8.6515265e-06
9	0x36f987df	7.4365958e-06
10	0x36979ecc	4.518637e-06
11	0x35ae88c5	1.3003815e-06
12	0xb6166084	-2.2407921e-06
13	0xb449c771	-1.879214e-07
14	0x36e1da74	6.730954e-06
15	0xb5255125	-6.158537e-07

embedding_layer.embedding_layer.embedding_layers.connection_type_id_4.weight f4 [4, 4]
0	0x00000000	0.0
1	0x00000000	0.0
2	0x00000000	0.0
3	0x00000000	0.0
4	0x3d27ff7c	0.041015133
5	0xba841525	-0.0010077102
6	0xbcb931f5	-0.02260683
7	0xbcec922d	-0.028878296
8	0xb703b31e	-7.849912e-06
9	0x37060e91	7.990414e-06
10	0xb7b709f0	-2.1819927e-05
11	0xb6891f2e	-4.086548e-06
12	0xb6e2adbf	-6.7555516e-06
13	0x36052f9c	1.9846257e-06
14	0xb72da366	-1.0349648e-05
15	0xb6d2b72f	-6.279813e-06

embedding_layer.embedding_layer.embedding_layers.connection_type_id_5.weight f4 [4, 4]
0	0x00000000	0.0
1	0x00000000	0.0
2	0x00000000	0.0
3	0x00000000	0.0
4	0x3d3f1a7c	0.046656117
5	0xbd3eac26	-0.046550892
6	0xbd4245d9	-0.047429893
7	0xbc99dd1c	-0.018782191
8	0xb752afb9	-1.2557889e-05
9	0x364cdcee	3.0526967e-06
10	0x358bc82a	1.0414562e-06
11	0xb683b364	-3.924988e-06
12	0xb6eb9bf5	-7.0217015e-06
13	0xb68d3573	-4.2083498e-06
14	0x3665c023	3.4235497e-06
15	0x358a15da	1.0288161e-06

embedding_layer.embedding_layer.embedding_layers.connection_type_id_6.weight f4 [4, 4]
0	0x00000000	0.0
1	0x00000000	0.0
2	0x00000000	0.0
3	0x00000000	0.0
4	0x3d182f10	0.037154257
5	0xbd398edc	-0.045302257
6	0xbd6c48c3	-0.05768658
7	0xbd2a35c9	-0.0415552
8	0x368c4c35	4.181197e-06
9	0xb79df467	-1.8829667e-05
10	0xb757714c	-1.2841378e-05
11	0x36aafed1	5.0960593e-06
12	0x368281fa	3.889433e-06
13	0xb6760623	-3.6660429e-06
14	0xb7165e82	-8.962701e-06
15	0x36e46030	6.806127e-06

embedding_layer.embedding_layer.embedding_layers.connection_type_id_7.weight f4 [4, 4]
0	0x00000000	0.0
1	0x00000000	0.0
2	0x00000000	0.0
3	0x00000000	0.0
4	0xbbb3f4e3	-0.0054918393
5	0x3c404585	0.011735325
6	0x3b2f97e8	0.0026793424
7	0xbb9182de	-0.0044406494
8	0x36a4ff7f	4.9173245e-06
9	0xb6536637	-3.1500947e-06
10	0xb73f591c	-1.14052345e-05
11	0xb6b41705	-5.367098e-06
12	0x36689a1d	3.46604e-06
13	0xb6e7bdc2	-6.906427e-06
14	0xb778de0e	-1.4833653e-05
15	0x36c601c5	5.901066e-06

embedding_layer.embedding_layer.embedding_layers.connection_type_id_8.weight f4 [4, 4]
0	0x00000000	0.0
1	0x00000000	0.0
2	0x00000000	0.0
3	0x00000000	0.0
4	0xbdbcd8b5	-0.09221021
5	0xbccd2776	-0.02504323
6	0x3d21e180	0.039521694
7	0x3d7338f7	0.059380498
8	0x37b160fe	2.114521e-05
9	0x374cd6d6	1.2209368e-05
10	0xb6299720	-2.5270929e-06
11	0xb64a612e	-3.0156912e-06
12	0xb70ebde1	-8.508069e-06
13	0x36a004e1	4.7689396e-06
14	0xb509cb71	-5.1332523e-07
15	0x373d2441	1.1273719e-05

embedding_layer.embedding_layer.embedding_layers.line_group_id_34603.weight f4 [4, 4]
0	0x00000000	0.0
1	0x00000000	0.0
2	0x00000000	0.0
3	0x00000000	0.0
4	0x3b351721	0.0027632194
5	0xbd81b4c7	-0.06333309
6	0x3c1804ad	0.009278459
7	0xbc39acbb	-0.011332686
8	0xb5d691ad	-1.598664e-06
9	0xb7658755	-1.3680973e-05
10	0xb433230a	-1.6683421e-07
11	0xb65b7530	-3.2701755e-06
12	0x359f7b35	1.1882281e-06
13	0x3725338f	9.846771e-06
14	0xb76d19e0	-1.4132325e-05
15	0x37aac782	2.0358482e-05

embedding_layer.embedding_layer.embedding_layers.line_group_id_35251.weight f4 [4, 4]
0	0x00000000	0.0
1	0x00000000	0.0
2	0x00000000	0.0
3	0x00000000	0.0
4	0x3da991d5	0.082797684
5	0xbdab61e0	-0.083682775
6	0xbdaa32fa	-0.08310504
7	0xbda4491f	-0.08021759
8	0x365c4cc6	3.2827243e-06
9	0x329e7ca8	1.8450308e-08
10	0x376ea544	1.4224384e-05
11	0xb758adf2	-1.2915103e-05
12	0x373952a9	1.1046105e-05
13	0xb7956934	-1.7811173e-05
14	0x37061fff	7.994472e-06
15	0xb7d91f67	-2.5883039e-05

embedding_layer.embedding_layer.embedding_layers.line_group_id_38176.weight f4 [4, 4]
0	0x00000000	0.0
1	0x00000000	0.0
2	0x00000000	0.0
3	0x00000000	0.0
4	0xbd9ca280	-0.07648182
5	0xbd970e34	-0.07375756
6	0xbd40ea7a	-0.047098614
7	0xbdd08e24	-0.10183361
8	0xb5860743	-9.985891e-07
9	0xb732a16f	-1.06472135e-05
10	0x3747c893	1.1908024e-05
11	0xb6e3b05b	-6.7856577e-06
12	0xb7612f31	-1.3422033e-05
13	0x35babbdb	1.3912753e-06
14	0x373f4a85	1.1401838e-05
15	0x3644ded6	2.9335984e-06

embedding_layer.embedding_layer.embedding_layers.line_group_id_38367.weight f4 [4, 4]
0	0x00000000	0.0
1	0x00000000	0.0
2	0x00000000	0.0
3	0x00000000	0.0
4	0xbd34ec8c	-0.0441709
5	0x3d2b8679	0.04187629
6	0xbd803850	-0.06260741
7	0xbd4d42ed	-0.050112654
8	0xb734710c	-1.0755157e-05
9	0x3796eb62	1.7991002e-05
10	0xb7657ae7	-1.3678079e-05
11	0xb74640cc	-1.1816806e-05
12	0xb6e8177f	-6.916874e-06
13	0xb711723e	-8.669273e-06
14	0x36074afa	2.016021e-06
15	0x358cd9f0	1.0494241e-06

embedding_layer.embedding_layer.embedding_layers.line_group_id_38385.weight f4 [4, 4]
0	0x00000000	0.0
1	0x00000000	0.0
2	0x00000000	0.0
3	0x00000000	0.0
4	0x3dcad891	0.09904588
5	0x3dd42c87	0.103600554
6	0xbdbe38d6	-0.09288184
7	0xbdf31f2b	-0.11871179
8	0xb6608b93	-3.3459844e-06
9	0xb285a228	-1.5556978e-08
10	0xb7969b01	-1.7953573e-05
11	0xb675d8cd	-3.663404e-06
12	0xb70a9640	-8.260424e-06
13	0xb641a333	-2.8854236e-06
14	0xb7ad1952	-2.0634998e-05
15	0xb657ddf8	-3.21667e-06

embedding_layer.embedding_layer.embedding_layers.line_group_id_39452.weight f4 [4, 4]
0	0x00000000	0.0
1	0x00000000	0.0
2	0x00000000	0.0
3	0x00000000	0.0
4	0x3debdea5	0.115170754
5	0xbdddf450	-0.108376145
6	0x3dd9ae50	0.106289506
7	0xbdd16462	-0.102242246
8	0xb68aab15	-4.132637e-06
9	0x36fc1488	7.5125754e-06
10	0xb6c7ba5c	-5.9523572e-06
11	0xb701bf54	-7.733546e-06
12	0xb51d3e35	-5.857758e-07
13	0x35c372d3	1.456205e-06
14	0xb5aa7676	-1.2700464e-06
15	0x36d31de6	6.2917707e-06

embedding_layer.embedding_layer.embedding_layers.line_group_id_39488.weight f4 [4, 4]
0	0x00000000	0.0
1	0x00000000	0.0
2	0x00000000	0.0
3	0x00000000	0.0
4	0x3d945144	0.07242063
5	0xbd867330	-0.06564939
6	0xbd84ed75	-0.06490604
7	0x3da796ea	0.081830814
8	0x370eae6d	8.504471e-06
9	0xb672a734	-3.6158135e-06
10	0x36e1afaa	6.7259725e-06
11	0xb6a40c21	-4.888993e-06
12	0x372c578e	1.0272384e-05
13	0xb7053278	-7.939168e-06
14	0xb704de51	-7.919575e-06
15	0x361795b2	2.2587888e-06

embedding_layer.embedding_layer.embedding_layers.line_group_id_39583.weight f4 [4, 4]
0	0x00000000	0.0
1	0x00000000	0.0
2	0x00000000	0.0
3	0x00000000	0.0
4	0xbe1626ea	-0.14663282
5	0xbe1e8ba2	-0.15482953
6	0x3e183b85	0.14866455
7	0xbde510d6	-0.11184852
8	0x368bd455	4.1672415e-06
9	0xb6ce6287	-6.1507485e-06
10	0xb61b2ac3	-2.312169e-06
11	0x36bce031	5.628936e-06
12	0x37630fe5	1.3533955e-05
13	0xb73bc214	-1.1191256e-05
14	0x363dca0b	2.82808e-06
15	0x3640e023	2.8740694e-06

embedding_layer.embedding_layer.embedding_layers.line_group_id_39631.weight f4 [4, 4]
0	0x00000000	0.0
1	0x00000000	0.0
2	0x00000000	0.0
3	0x00000000	0.0
4	0xbc889c44	-0.016676076
5	0xbc7b1f60	-0.015327305
6	0xbcb0e55d	-0.021593744
7	0x3c7105a2	0.014710816
8	0x3647467b	2.9694336e-06
9	0x3757133a	1.2819475e-05
10	0xb77d3c21	-1.5093975e-05
11	0xb79aa5dd	-1.8435467e-05
12	0x3652d83f	3.141831e-06
13	0xb74c805a	-1.2189232e-05
14	0xb6a1d481	-4.8229126e-06
15	0x36eafd57	7.003236e-06

embedding_layer.embedding_layer.embedding_layers.line_group_id_39742.weight f4 [4, 4]
0	0x00000000	0.0
1	0x00000000	0.0
2	0x00000000	0.0
3	0x00000000	0.0
4	0x3d31f35c	0.043444976
5	0xbdcbe75b	-0.09956237
6	0x3d0a51fa	0.033769585
7	0x3d44ae54	0.048017815
8	0x3744fde1	1.1741621e-05
9	0x364b8c14	3.0330893e-06
10	0x36a82a95	5.0117474e-06
11	0xb72d1fd3	-1.0319013e-05
12	0x36ee5ffa	7.104126e-06
13	0xb5d9f7ac	-1.6239842e-06
14	0x34f7c6a9	4.615188e-07
15	0xb691f29e	-4.349581e-06

embedding_layer.embedding_layer.embedding_layers.line_group_id_39757.weight f4 [4, 4]
0	0x00000000	0.0
1	0x00000000	0.0
2	0x00000000	0.0
3	0x00000000	0.0
4	0xbd3dd9b6	-0.046350203
5	0x3cb1f1f9	0.021721827
6	0x3ca16e3d	0.019705886
7	0xbd246d32	-0.0401432
8	0xb743843d	-1.1653695e-05
9	0xb763dc15	-1.3581496e-05
10	0xb74902cc	-1.1981185e-05
11	0xb60b39d7	-2.0746281e-06
12	0xb717be19	-9.044562e-06
13	0x376e7638	1.421343e-05
14	0xb756a60b	-1.2794054e-05
15	0x37580cf1	1.2877616e-05

embedding_layer.embedding_layer.embedding_layers.line_group_id_39767.weight f4 [4, 4]
0	0x00000000	0.0
1	0x00000000	0.0
2	0x00000000	0.0
3	0x00000000	0.0
4	0xbcf6ef39	-0.030143367
5	0x3cdc01d0	0.026856333
6	0x3ca50d7d	0.020148033
7	0xbc90ad1c	-0.01766067
8	0x376269e2	1.34953025e-05
9	0x3631bc67	2.648472e-06
10	0xb6ccbc39	-6.1015858e-06
11	0x36967564	4.4840144e-06
12	0x37841711	1.5746367e-05
13	0xb6640e9b	-3.398315e-06
14	0x366a9569	3.4955685e-06
15	0xb72c4d21	-1.0269957e-05

embedding_layer.embedding_layer.embedding_layers.line_group_id_40340.weight f4 [4, 4]
0	0x00000000	0.0
1	0x00000000	0.0
2	0x00000000	0.0
3	0x00000000	0.0
4	0x3d92b5e1	0.07163597
5	0xbd27e9af	-0.040994342
6	0xbd216651	-0.039404217
7	0x3d4b80b4	0.049683288
8	0xb3c8831b	-9.337074e-08
9	0xb64931cd	-2.9980322e-06
10	0xb6798d28	-3.7186055e-06
11	0xb77472de	-1.4570278e-05
12	0xb79c276a	-1.8615003e-05
13	0x36ce30ed	6.144974e-06
14	0x3763854d	1.3561291e-05
15	0x35d57108	1.5902633e-06

embedding_layer.embedding_layer.embedding_layers.line_group_id_40346.weight f4 [4, 4]
0	0x00000000	0.0
1	0x00000000	0.0
2	0x00000000	0.0
3	0x00000000	0.0
4	0x3d346eb7	0.0440509
5	0x3d43c178	0.047791928
6	0xbd3cfceb	-0.04613964
7	0xbd34eaa8	-0.0441691
8	0x3560a519	8.368675e-07
9	0x36db67dd	6.5388e-06
10	0xb75c3ac0	-1.3126701e-05
11	0xb6a915fe	-5.0391527e-06
12	0x36caf200	6.0482416e-06
13	0xb7de2482	-2.6481463e-05
14	0x369f55a0	4.7485373e-06
15	0x358e267f	1.0591028e-06

embedding_layer.embedding_layer.embedding_layers.line_group_id_40356.weight f4 [4, 4]
0	0x00000000	0.0
1	0x00000000	0.0
2	0x00000000	0.0
3	0x00000000	0.0
4	0x3d88236e	0.06647383
5	0x3db2a8d4	0.08723608
6	0x3d98acbb	0.07454821
7	0x3d87c7c4	0.06629899
8	0xb5f7e919	-1.8470774e-06
9	0xb70b5d12	-8.306715e-06
10	0x369726bf	4.5046613e-06
11	0xb77abe99	-1.4945538e-05
12	0x362edcf6	2.6056637e-06
13	0xb4ebee6b	-4.3945633e-07
14	0x368e8495	4.2473644e-06
15	0xb69bb2e6	-4.6401865e-06

embedding_layer.embedding_layer.embedding_layers.line_group_id_40360.weight f4 [4, 4]
0	0x00000000	0.0
1	0x00000000	0.0
2	0x00000000	0.0
3	0x00000000	0.0
4	0x3d454091	0.04815728
5	0xbd5206f6	-0.05127617
6	0x3d48d221	0.04902852
7	0x3d434a06	0.047678016
8	0xb73d488e	-1.1282171e-05
9	0x37387d9e	1.0996502e-05
10	0xb69176de	-4.3351747e-06
11	0x358202f1	9.686611e-07
12	0x3799d529	1.8338282e-05
13	0x37374f41	1.0926103e-05
14	0xb6b6cf98	-5.4481898e-06
15	0x37780142	1.4782245e-05

embedding_layer.embedding_layer.embedding_layers.line_group_id_40361.weight f4 [4, 4]
0	0x00000000	0.0
1	0x00000000	0.0
2	0x00000000	0.0
3	0x00000000	0.0
4	0x3cc3b8a1	0.023891749
5	0x3a9ee419	0.0012122422
6	0xbc794011	-0.0152130285
7	0xbc820e7f	-0.015876053
8	0x36b6cb4b	5.447689e-06
9	0xb738791f	-1.0995455e-05
10	0xb715d2bb	-8.930157e-06
11	0xb7837165	-1.566922e-05
12	0x36b33792	5.341085e-06
13	0x35d8e459	1.6159712e-06
14	0x36b01979	5.248174e-06
15	0xb6f0444f	-7.1605095e-06

embedding_layer.embedding_layer.embedding_layers.line_group_id_40384.weight f4 [4, 4]
0	0x00000000	0.0
1	0x00000000	0.0
2	0x00000000	0.0
3	0x00000000	0.0
4	0xbd0ead6e	-0.034833364
5	0xb84a2149	-4.8191552e-05
6	0xbd05f154	-0.03270085
7	0xbd202462	-0.039097197
8	0x36a2afa5	4.848424e-06
9	0xb50991ff	-5.124893e-07
10	0xb6786b01	-3.7017164e-06
11	0xb6a48d60	-4.904039e-06
12	0x370599dc	7.963241e-06
13	0xb6f03103	-7.158263e-06
14	0xb7453ecd	-1.1756737e-05
15	0x357ad50f	9.34423e-07

embedding_layer.embedding_layer.embedding_layers.line_group_id_40431.weight f4 [4, 4]
0	0x00000000	0.0
1	0x00000000	0.0
2	0x00000000	0.0
3	0x00000000	0.0
4	0x3d8d4481	0.06897832
5	0x3d7650f7	0.060135808
6	0x3da9117c	0.08255288
7	0xbd4a9719	-0.049460504
8	0x35207fc7	5.9790585e-07
9	0x37335f39	1.0691402e-05
10	0xb702df54	-7.800601e-06
11	0xb663acd0	-3.3926226e-06
12	0x3694da33	4.4361454e-06
13	0x34662886	2.1435162e-07
14	0x3746b400	1.1843629e-05
15	0x37b5205f	2.1591955e-05

embedding_layer.embedding_layer.embedding_layers.line_group_id_40433.weight f4 [4, 4]
0	0x00000000	0.0
1	0x00000000	0.0
2	0x00000000	0.0
3	0x00000000	0.0
4	0x3cc8c349	0.024507182
5	0x3cbf4283	0.023347145
6	0x3c999128	0.018745974
7	0x3c372e9d	0.011180547
8	0x36f28bd7	7.2284415e-06
9	0xb70fbcbf	-8.56741e-06
10	0x36b2e72a	5.3317244e-06
11	0x31155108	2.1728415e-09
12	0x367180b2	3.598671e-06
13	0xb71b0be1	-9.241486e-06
14	0xb6cab6a7	-6.0413327e-06
15	0x375883e0	1.2905308e-05

embedding_layer.embedding_layer.embedding_layers.line_group_id_40477.weight f4 [4, 4]
0	0x00000000	0.0
1	0x00000000	0.0
2	0x00000000	0.0
3	0x00000000	0.0
4	0xbcc8418f	-0.024445323
5	0xbcd2ae3e	-0.02571785
6	0x3ce36951	0.02776018
7	0x3cd70fb1	0.0262526
8	0xb6d9847c	-6.482527e-06
9	0xb639eb5f	-2.7704152e-06
10	0x371c9cd3	9.334838e-06
11	0x36745d0f	3.6413e-06
12	0x37a1797d	1.9249268e-05
13	0xb6d8a404	-6.4563956e-06
14	0xb7908ab8	-1.7230734e-05
15	0xb58549e3	-9.930776e-07

embedding_layer.embedding_layer.embedding_layers.line_group_id_40478.weight f4 [4, 4]
0	0x00000000	0.0
1	0x00000000	0.0
2	0x00000000	0.0
3	0x00000000	0.0
4	0xbc2def6b	-0.010616164
5	0x3c32d155	0.010914166
6	0x3cb46657	0.022021456
7	0x3c345307	0.011006123
8	0x37943060	1.7665501e-05
9	0xb6f87147	-7.404163e-06
10	0xb5f4ae69	-1.8230177e-06
11	0xb6dea8df	-6.6357748e-06
12	0x36d2b0ba	6.2790614e-06
13	0x3719bf52	9.164056e-06
14	0xb64017c6	-2.8624067e-06
15	0x3711113b	8.646685e-06

embedding_layer.embedding_layer.embedding_layers.line_group_id_40586.weight f4 [4, 4]
0	0x00000000	0.0
1	0x00000000	0.0
2	0x00000000	0.0
3	0x00000000	0.0
4	0xbc2a9e6e	-0.010413749
5	0x3c182efe	0.009288548
6	0x3c5d65a3	0.013513002
7	0x3d195a86	0.037439846
8	0xb71cb511	-9.340482e-06
9	0xb79d9f0e	-1.8789924e-05
10	0x36c6f32b	5.9291683e-06
11	0x36fa5e4c	7.461558e-06
12	0xb73761b6	-1.09304e-05
13	0x36c45411	5.851042e-06
14	0xb64ea3fc	-3.0791844e-06
15	0xb70bca2e	-8.332119e-06

embedding_layer.embedding_layer.embedding_layers.line_group_id_40598.weight f4 [4, 4]
0	0x00000000	0.0
1	0x00000000	0.0
2	0x00000000	0.0
3	0x00000000	0.0
4	0xbce740eb	-0.028229197
5	0x3c92b3e2	0.01790804
6	0x3d111695	0.035421927
7	0xbd0540da	-0.03253255
8	0x36cc13d0	6.0819802e-06
9	0xb50d40c7	-5.2620857e-07
10	0xb6d40dd5	-6.3197026e-06
11	0x36d8d87c	6.4625037e-06
12	0xb70a4628	-8.2417755e-06
13	0x35d02c92	1.5510179e-06
14	0xb4bdcd0f	-3.5353193e-07
15	0x35939091	1.0994428e-06

embedding_layer.embedding_layer.embedding_layers.line_group_id_40845.weight f4 [4, 4]
0	0x00000000	0.0
1	0x00000000	0.0
2	0x00000000	0.0
3	0x00000000	0.0
4	0x3d9a1059	0.07522649
5	0xbd9a0312	-0.07520117
6	0x3ddf94fd	0.10917089
7	0x3da1f8af	0.07908761
8	0x36a98549	5.052109e-06
9	0xb6b374b6	-5.3482026e-06
10	0x348fd671	2.6791852e-07
11	0xb7488614	-1.1952146e-05
12	0x37591fe2	1.2941631e-05
13	0xb7122249	-8.710261e-06
14	0x373351bc	1.0688262e-05
15	0xb761eee3	-1.3466665e-05

embedding_layer.embedding_layer.embedding_layers.line_group_id_40846.weight f4 [4, 4]
0	0x00000000	0.0
1	0x00000000	0.0
2	0x00000000	0.0
3	0x00000000	0.0
4	0xbd98d3b9	-0.07462258
5	0x3dc91ca4	0.09819916
6	0xbdb0fc40	-0.08641863
7	0x3dc1b04e	0.094574556
8	0xb4bf9799	-3.5686824e-07
9	0x36b40378	5.364822e-06
10	0xb66371b8	-3.389183e-06
11	0x35ffab29	1.9048795e-06
12	0x376fc473	1.42912495e-05
13	0xb727cda7	-1.0001858e-05
14	0xb735cccb	-1.0836123e-05
15	0xb605ed6d	-1.9956744e-06

embedding_layer.embedding_layer.embedding_layers.line_group_id_40923.weight f4 [4, 4]
0	0x00000000	0.0
1	0x00000000	0.0
2	0x00000000	0.0
3	0x00000000	0.0
4	0x3cafc1b9	0.021454679
5	0xbd655be0	-0.055995822
6	0x3cdc0611	0.026858361
7	0x3db7941d	0.08963797
8	0xb6123486	-2.1786268e-06
9	0xb61af263	-2.3088876e-06
10	0x37474a5d	1.1878638e-05
11	0x3770b7fa	1.434795e-05
12	0x3773c6ac	1.4530186e-05
13	0x363353f2	2.6721941e-06
14	0x349b3f1e	2.8916924e-07
15	0xb7048013	-7.897633e-06

embedding_layer.embedding_layer.embedding_layers.line_group_id_41223.weight f4 [4, 4]
0	0x00000000	0.0
1	0x00000000	0.0
2	0x00000000	0.0
3	0x00000000	0.0
4	0xbce28df2	-0.027655575
5	0x3c914967	0.017735196
6	0xb9c7bb2f	-0.000380957
7	0xb9772b1a	-0.00023571812
8	0xb6ce51b2	-6.148789e-06
9	0x37b2cd86	2.1314958e-05
10	0x372854f8	1.0033364e-05
11	0x37943d3c	1.767149e-05
12	0x36d2abc2	6.278483e-06
13	0x379fd780	1.9054627e-05
14	0x365ce84a	3.2917765e-06
15	0x36479424	2.973954e-06

embedding_layer.embedding_layer.embedding_layers.line_group_id_41236.weight f4 [3, 4]
0	0x00000000	0.0
1	0x00000000	0.0
2	0x00000000	0.0
3	0x00000000	0.0
4	0x37196673	9.143364e-06
5	0x362c60a7	2.5686256e-06
6	0x371be6dd	9.292472e-06
7	0x37a4ecdc	1.966062e-05
8	0xb7841984	-1.5747508e-05
9	0xb65ebc1b	-3.319007e-06
10	0x37151224	8.885316e-06
11	0x364956f5	3.000195e-06

embedding_layer.embedding_layer.embedding_layers.line_group_id_41237.weight f4 [3, 4]
0	0x00000000	0.0
1	0x00000000	0.0
2	0x00000000	0.0
3	0x00000000	0.0
4	0xb69e84af	-4.7242133e-06
5	0x36a45211	4.8971347e-06
6	0xb68146c3	-3.8527373e-06
7	0x368f1c4b	4.265026e-06
8	0x33a0bc87	7.4848735e-08
9	0xb49e18b9	-2.9447781e-07
10	0xb6041b61	-1.968547e-06
11	0xb6a3aed2	-4.8781303e-06

embedding_layer.embedding_layer.embedding_layers.line_group_id_41267.weight f4 [4, 4]
0	0x00000000	0.0
1	0x00000000	0.0
2	0x00000000	0.0
3	0x00000000	0.0
4	0xbd7302c2	-0.059328802
5	0x3ca3a57e	0.019976374
6	0xbd36578a	-0.044517078
7	0x3d39cbd2	0.045360394
8	0x3692e74f	4.378067e-06
9	0xb5123a68	-5.447423e-07
10	0x379d8408	1.877734e-05
11	0x3408b7e4	1.2732886e-07
12	0x3784b27e	1.5818743e-05
13	0xb76d5f74	-1.4148525e-05
14	0x35130d63	5.478125e-07
15	0xb77998db	-1.4877146e-05

embedding_layer.embedding_layer.embedding_layers.line_group_id_41330.weight f4 [4, 4]
0	0x00000000	0.0
1	0x00000000	0.0
2	0x00000000	0.0
3	0x00000000	0.0
4	0xbb41b1d9	-0.0029555468
5	0x3b3e22cb	0.0029012437
6	0xbb475f00	-0.0030421615
7	0xbb301d2c	-0.0026872857
8	0xb7586cd0	-1.2899938e-05
9	0x36fbab06	7.5002927e-06
10	0x36af0cec	5.2169107e-06
11	0x368b6fa9	4.1555218e-06
12	0x3780a961	1.5337662e-05
13	0xb7a5c0ff	-1.9759404e-05
14	0xb74637f2	-1.1814745e-05
15	0xb7af946c	-2.093074e-05

embedding_layer.embedding_layer.embedding_layers.line_group_id_41332.weight f4 [4, 4]
0	0x00000000	0.0
1	0x00000000	0.0
2	0x00000000	0.0
3	0x00000000	0.0
4	0xbd39e17c	-0.045381054
5	0x3d3ddd88	0.046353847
6	0xbd35d1d8	-0.044389576
7	0x3d36b5a1	0.04460681
8	0xb5d97f88	-1.6204876e-06
9	0xb60fd9c3	-2.1435415e-06
10	0x36a9460d	5.0447475e-06
11	0xb5a4efa1	-1.2288693e-06
12	0xb7557d21	-1.2724923e-05
13	0xb78f1165	-1.7055028e-05
14	0x36fb73bd	7.4938566e-06
15	0xb4a8b381	-3.1423045e-07

embedding_layer.embedding_layer.embedding_layers.line_group_id_41468.weight f4 [3, 4]
0	0x00000000	0.0
1	0x00000000	0.0
2	0x00000000	0.0
3	0x00000000	0.0
4	0x378d70a4	1.6860962e-05
5	0xb68be7aa	-4.169492e-06
6	0xb78d6e6f	-1.6859934e-05
7	0x35e29942	1.6882916e-06
8	0xb7033905	-7.821484e-06
9	0x35aee259	1.3029886e-06
10	0xb6b92bbc	-5.518521e-06
11	0x34bddc00	3.5364064e-07

embedding_layer.embedding_layer.embedding_layers.line_group_id_41482.weight f4 [3, 4]
0	0x00000000	0.0
1	0x00000000	0.0
2	0x00000000	0.0
3	0x00000000	0.0
4	0x3714ecc4	8.876614e-06
5	0x368af54b	4.1412763e-06
6	0x370dec3e	8.459259e-06
7	0xb727ea36	-1.0008507e-05
8	0x3610a6f9	2.1554863e-06
9	0xb6b6ffa8	-5.453785e-06
10	0xb7524ed1	-1.2535326e-05
11	0xb7170b77	-9.002971e-06

embedding_layer.embedding_layer.embedding_layers.line_group_id_41485.weight f4 [3, 4]
0	0x00000000	0.0
1	0x00000000	0.0
2	0x00000000	0.0
3	0x00000000	0.0
4	0xb6369e8d	-2.7212402e-06
5	0xb75ffaad	-1.3350201e-05
6	0x35ba8ca5	1.3899013e-06
7	0xb697d167	-4.5245283e-06
8	0x36be2157	5.6663225e-06
9	0xb64ed4ab	-3.082018e-06
10	0x370eddf0	8.515533e-06
11	0xb6e8a0a6	-6.9328407e-06

embedding_layer.embedding_layer.embedding_layers.line_group_id_41521.weight f4 [3, 4]
0	0x00000000	0.0
1	0x00000000	0.0
2	0x00000000	0.0
3	0x00000000	0.0
4	0xb6e3f8e7	-6.7941032e-06
5	0x36d64981	6.386254e-06
6	0x353281bf	6.649897e-07
7	0xb6f29a82	-7.230149e-06
8	0xb6ff8deb	-7.6161136e-06
9	0xb5333983	-6.6766387e-07
10	0x369881d2	4.545066e-06
11	0x37309f68	1.0527532e-05

embedding_layer.embedding_layer.embedding_layers.line_group_id_41524.weight f4 [3, 4]
0	0x00000000	0.0
1	0x00000000	0.0
2	0x00000000	0.0
3	0x00000000	0.0
4	0x37256a4e	9.859517e-06
5	0xb3a88b2d	-7.8484256e-08
6	0xb64d08f7	-3.0552599e-06
7	0xb68cd916	-4.1975973e-06
8	0x37670ab3	1.3771164e-05
9	0xb73bb971	-1.1189245e-05
10	0xb62f25bc	-2.6098996e-06
11	0xb6995bbc	-4.5704346e-06

embedding_layer.embedding_layer.embedding_layers.line_group_id_41633.weight f4 [3, 4]
0	0x00000000	0.0
1	0x00000000	0.0
2	0x00000000	0.0
3	0x00000000	0.0
4	0x35d4877a	1.583466e-06
5	0xb70ed9b8	-8.514551e-06
6	0xb704241e	-7.876222e-06
7	0xb6f56dcd	-7.3143515e-06
8	0x35b3849b	1.3375133e-06
9	0x365adc70	3.2612843e-06
10	0x36525bc2	3.1345849e-06
11	0xb6d3bcf5	-6.3102875e-06

embedding_layer.embedding_layer.embedding_layers.dev_make_Acer.weight f4 [4, 4]
0	0x00000000	0.0
1	0x00000000	0.0
2	0x00000000	0.0
3	0x00000000	0.0
4	0x3bb33b8d	0.0054697455
5	0xbb81e539	-0.003964093
6	0xbbb612d6	-0.0055564446
7	0x3b9934c1	0.004675478
8	0xb661987e	-3.3616375e-06
9	0x37071494	8.051418e-06
10	0xb6a0c3a8	-4.791149e-06
11	0xb79bdc14	-1.8579922e-05
12	0x36bade36	5.5691007e-06
13	0xb65ff67b	-3.337306e-06
14	0xb7a1527d	-1.9231107e-05
15	0x371bf867	9.296556e-06

embedding_layer.embedding_layer.embedding_layers.dev_make_Alcatel.weight f4 [4, 4]
0	0x00000000	0.0
1	0x00000000	0.0
2	0x00000000	0.0
3	0x00000000	0.0
4	0xbd9fc85a	-0.07801886
5	0x3d8a164b	0.06742533
6	0xbd599746	-0.05312278
7	0x3d80cd7c	0.06289193
8	0xb706bf4f	-8.031565e-06
9	0xb78e9f18	-1.7001803e-05
10	0x3747e5dd	1.19148435e-05
11	0xb6abf619	-5.1248467e-06
12	0x35bc5be7	1.4033839e-06
13	0x36403be0	2.8645081e-06
14	0x361a20a8	2.2966797e-06
15	0x372f4afd	1.0448272e-05

embedding_layer.embedding_layer.embedding_layers.dev_make_Amazon.weight f4 [4, 4]
0	0x00000000	0.0
1	0x00000000	0.0
2	0x00000000	0.0
3	0x00000000	0.0
4	0xbd611367	-0.054950144
5	0x3d5d087d	0.053963173
6	0x3c5ee594	0.01360454
7	0x3d5d8a62	0.05408705
8	0xb688c1c0	-4.0756713e-06
9	0xb7714a21	-1.4381979e-05
10	0xb6a58793	-4.933166e-06
11	0x3536c715	6.8089986e-07
12	0x37347a9e	1.0757385e-05
13	0x36b5b4b8	5.415259e-06
14	0x37d43e0a	2.5301259e-05
15	0x371b60bb	9.261242e-06

embedding_layer.embedding_layer.embedding_layers.dev_make_Apple.weight f4 [4, 4]
0	0x00000000	0.0
1	0x00000000	0.0
2	0x00000000	0.0
3	0x00000000	0.0
4	0xbd2b7622	-0.041860707
5	0xbbca51a7	-0.0061742845
6	0xb94c31bf	-0.00019473488
7	0x3ba12476	0.0049176766
8	0x379ebcf6	1.892306e-05
9	0xb678f2cc	-3.7096206e-06
10	0x36d9685e	6.479254e-06
11	0x33cfc521	9.675046e-08
12	0x371fa3ff	9.515322e-06
13	0x36957561	4.4542107e-06
14	0xb5f2eb5c	-1.8098904e-06
15	0xb7348ba2	-1.0761347e-05

embedding_layer.embedding_layer.embedding_layers.dev_make_Asus.weight f4 [4, 4]
0	0x00000000	0.0
1	0x00000000	0.0
2	0x00000000	0.0
3	0x00000000	0.0
4	0xbd1c58e0	-0.038170695
5	0x3d5587e9	0.052131567
6	0x3d15c467	0.036564257
7	0x3d171280	0.036882877
8	0xb7826c8b	-1.5547752e-05
9	0xb6d1ffda	-6.2584704e-06
10	0x36a749ac	4.9855644e-06
11	0x377df1eb	1.5136301e-05
12	0xb3a3d63b	-7.629247e-08
13	0x37952a64	1.7781924e-05
14	0xb7b9aefb	-2.21352e-05
15	0x36aa964d	5.083892e-06

embedding_layer.embedding_layer.embedding_layers.dev_make_BLU.weight f4 [4, 4]
0	0x00000000	0.0
1	0x00000000	0.0
2	0x00000000	0.0
3	0x00000000	0.0
4	0x3beb91c7	0.007189009
5	0xbd71b11f	-0.059006806
6	0x3cd2de21	0.025740685
7	0x3ce7665a	0.028247047
8	0xb6821c80	-3.8776197e-06
9	0x36011622	1.923538e-06
10	0xb4a425e8	-3.057496e-07
11	0xb6aac8d6	-5.089775e-06
12	0x35f7201c	1.8412279e-06
13	0xb69fac70	-4.7586436e-06
14	0x354b5c59	7.5757777e-07
15	0xb5ffcf26	-1.9059269e-06

embedding_layer.embedding_layer.embedding_layers.dev_make_Blackview.weight f4 [4, 4]
0	0x00000000	0.0
1	0x00000000	0.0
2	0x00000000	0.0
3	0x00000000	0.0
4	0xbd062be6	-0.03275671
5	0xbbb0bfd7	-0.005393963
6	0xbcf7ecb6	-0.03026424
7	0xbd3454a1	-0.04402602
8	0x37464e89	1.1820005e-05
9	0x35e8133b	1.7290944e-06
10	0x35b10a40	1.3190511e-06
11	0x368d079a	4.2030124e-06
12	0x35a6d599	1.2430129e-06
13	0x36cc0abd	6.080924e-06
14	0x36e1c142	6.7280207e-06
15	0x371a8919	9.211036e-06

embedding_layer.embedding_layer.embedding_layers.dev_make_CAT.weight f4 [4, 4]
0	0x00000000	0.0
1	0x00000000	0.0
2	0x00000000	0.0
3	0x00000000	0.0
4	0xbacaa676	-0.0015460986
5	0xbc356027	-0.011070288
6	0x3c2cce70	0.010547265
7	0xbacd2dc8	-0.0015653903
8	0x3646c7fe	2.962071e-06
9	0x375f37bd	1.3304813e-05
10	0xb69a1280	-4.5917113e-06
11	0xb6482602	-2.9824446e-06
12	0xb72e18da	-1.0376994e-05
13	0x364a610c	3.0156834e-06
14	0xb724d8fd	-9.825683e-06
15	0xb5ba06f9	-1.3860109e-06

embedding_layer.embedding_layer.embedding_layers.dev_make_CAT.weight f4 [4, 4]
0	0x00000000	0.0
1	0x00000000	0.0
2	0x00000000	0.0
3	0x00000000	0.0
4	0x3d6601fd	0.05615424
5	0x3d85d455	0.0653464
6	0xbd2dc460	-0.042423606
7	0x3d91e71d	0.071241595
8	0x36b049ff	5.253823e-06
9	0xb745b84a	-1.1785023e-05
10	0x34606835	2.0899536e-07
11	0xb510788a	-5.381959e-07
12	0xb63689b8	-2.7200276e-06
13	0x3673b08e	3.631259e-06
14	0xb6e75ac5	-6.8949034e-06
15	0x372ccf1b	1.0300219e-05

embedding_layer.embedding_layer.embedding_layers.dev_make_CAT.weight f4 [4, 4]
0	0x00000000	0.0
1	0x00000000	0.0
2	0x00000000	0.0
3	0x00000000	0.0
4	0xbcb10da9	-0.021612959
5	0xbc9b5835	-0.018962959
6	0xbcb463cf	-0.022020249
7	0xbcb31f9f	-0.021865664
8	0x36f8a2d8	7.4099335e-06
9	0xb757f60c	-1.2872286e-05
10	0xb6ca4931	-6.0285897e-06
11	0xb6fbccbb	-7.5042167e-06
12	0x37103997	8.5964775e-06
13	0xb4ef0749	-4.452252e-07
14	0xb5ead660	-1.749675e-06
15	0xb7100d91	-8.5862275e-06

embedding_layer.embedding_layer.embedding_layers.dev_make_Coolpad.weight f4 [4, 4]
0	0x00000000	0.0
1	0x00000000	0.0
2	0x00000000	0.0
3	0x00000000	0.0
4	0x3b025008	0.0019884128
5	0x3abef307	0.0014568277
6	0xbac04045	-0.0014667591
7	0x3ad82d3e	0.0016492975
8	0xb721db72	-9.647441e-06
9	0xb476c25b	-2.2981241e-07
10	0x35ecda0d	1.7646831e-06
11	0xb6a1fdeb	-4.827734e-06
12	0x36e81441	6.9164967e-06
13	0xb6e2450b	-6.7433625e-06
14	0xb640c8d5	-2.872713e-06
15	0x35b7c686	1.369234e-06

embedding_layer.embedding_layer.embedding_layers.dev_make_Cricket.weight f4 [4, 4]
0	0x00000000	0.0
1	0x00000000	0.0
2	0x00000000	0.0
3	0x00000000	0.0
4	0xbd809e42	-0.06280185
5	0x3d6d3572	0.057912298
6	0x3d7b7deb	0.06139938
7	0x3d822d96	0.06356351
8	0xb61d35b6	-2.3426087e-06
9	0x35f9c9da	1.8610692e-06
10	0xb7961b4a	-1.78941e-05
11	0xb71e6fd1	-9.443568e-06
12	0xb7733091	-1.4495236e-05
13	0x371a73a9	9.2060445e-06
14	0xb71431d6	-8.833091e-06
15	0xb6ac24b4	-5.1302723e-06

embedding_layer.embedding_layer.embedding_layers.dev_make_DOOGEE.weight f4 [4, 4]
0	0x00000000	0.0
1	0x00000000	0.0
2	0x00000000	0.0
3	0x00000000	0.0
4	0x3cf4df17	0.029891534
5	0x3b3967a6	0.002829054
6	0xbc743036	-0.0149040725
7	0xbc924ad7	-0.017857952
8	0xb6fe80a7	-7.584767e-06
9	0xb717372d	-9.013148e-06
10	0xb6c1e219	-5.7781695e-06
11	0x36afa405	5.234501e-06
12	0xb64167e4	-2.8819713e-06
13	0xb6c224b6	-5.7859243e-06
14	0x36bad3ee	5.567904e-06
15	0xb743b382	-1.1664701e-05

embedding_layer.embedding_layer.embedding_layers.dev_make_Dish.weight f4 [4, 4]
0	0x00000000	0.0
1	0x00000000	0.0
2	0x00000000	0.0
3	0x00000000	0.0
4	0xbbfd1836	-0.0077238334
5	0xbd0ba7e9	-0.03409568
6	0x3bff0ff8	0.007783886
7	0xbbfa7f78	-0.00764459
8	0x372078f7	9.5649075e-06
9	0x367f5ee4	3.8053195e-06
10	0xb6f37421	-7.2554835e-06
11	0x36afb5f2	5.2365876e-06
12	0xb746eb26	-1.1856469e-05
13	0xb6fdb666	-7.5612215e-06
14	0x35b32af5	1.3349041e-06
15	0xb6a4a641	-4.9069354e-06

embedding_layer.embedding_layer.embedding_layers.dev_make_FIH.weight f4 [4, 4]
0	0x00000000	0.0
1	0x00000000	0.0
2	0x00000000	0.0
3	0x00000000	0.0
4	0x3d0d2ca3	0.034466397
5	0xbd0d15eb	-0.03444473
6	0x3d0bfabe	0.034174673
7	0xbd0bd78e	-0.034141116
8	0xb6877b1b	-4.037645e-06
9	0xb619bde7	-2.2909314e-06
10	0xb64ca4e7	-3.0494355e-06
11	0xb753959c	-1.2611414e-05
12	0xb7971b9e	-1.8013463e-05
13	0xb6a9be56	-5.0587505e-06
14	0x36c231b6	5.7874377e-06
15	0x36f7073e	7.3620167e-06

embedding_layer.embedding_layer.embedding_layers.dev_make_FOXXD.weight f4 [4, 4]
0	0x00000000	0.0
1	0x00000000	0.0
2	0x00000000	0.0
3	0x00000000	0.0
4	0xbb6a1c1e	-0.0035722326
5	0x3bc001cc	0.005859589
6	0x3c017acf	0.007902815
7	0x3bff83c9	0.0077976924
8	0x366105cb	3.3530985e-06
9	0xb7389bca	-1.1003527e-05
10	0xb73dccff	-1.1313007e-05
11	0xb73084a8	-1.0521304e-05
12	0x37453463	1.1754312e-05
13	0x36e98f94	6.960656e-06
14	0xb7b9fcca	-2.2171433e-05
15	0x37185326	9.0792655e-06

embedding_layer.embedding_layer.embedding_layers.dev_make_Gionee.weight f4 [4, 4]
0	0x00000000	0.0
1	0x00000000	0.0
2	0x00000000	0.0
3	0x00000000	0.0
4	0xbc56b401	-0.01310444
5	0x3c5b95a0	0.013402373
6	0x3c462786	0.012094384
7	0x3c710e69	0.014712908
8	0xb68d29a2	-4.206974e-06
9	0x3608d9ff	2.039247e-06
10	0x369965b8	4.571597e-06
11	0x3694b9b2	4.4323615e-06
12	0xb75232ce	-1.2528804e-05
13	0xb618dd7a	-2.2778681e-06
14	0x370446be	7.884284e-06
15	0xb4f85e68	-4.626229e-07

embedding_layer.embedding_layer.embedding_layers.dev_make_Google.weight f4 [4, 4]
0	0x00000000	0.0
1	0x00000000	0.0
2	0x00000000	0.0
3	0x00000000	0.0
4	0xbd21986d	-0.039452005
5	0xbd2d9eba	-0.0423877
6	0xbd467c22	-0.048458226
7	0x3cdba013	0.026809728
8	0x365fdd2a	3.3358324e-06
9	0xb70db4ab	-8.44632e-06
10	0xb6d14e10	-6.237773e-06
11	0xb6cd75d7	-6.1231945e-06
12	0xb651094f	-3.1148845e-06
13	0xb6e6a561	-6.873787e-06
14	0xb7acfc5f	-2.0621517e-05
15	0x36d1b7ae	6.2500685e-06

embedding_layer.embedding_layer.embedding_layers.dev_make_HP.weight f4 [4, 4]
0	0x00000000	0.0
1	0x00000000	0.0
2	0x00000000	0.0
3	0x00000000	0.0
4	0xbc0c95e6	-0.00858066
5	0xbc1b30cf	-0.009472086
6	0xbc86e699	-0.01646738
7	0x3c3158f5	0.010824432
8	0xb6016369	-1.9280362e-06
9	0x35dab91c	1.629614e-06
10	0x363c97ea	2.8102609e-06
11	0x37b138b0	2.1126441e-05
12	0x36f0c515	7.1755007e-06
13	0xb753cb74	-1.262395e-05
14	0x36919799	4.338985e-06
15	0xb7169c89	-8.977143e-06

embedding_layer.embedding_layer.embedding_layers.dev_make_Hisense.weight f4 [4, 4]
0	0x00000000	0.0
1	0x00000000	0.0
2	0x00000000	0.0
3	0x00000000	0.0
4	0x3cd2ced4	0.025733389
5	0xbcc024c3	-0.02345503
6	0x3cacd979	0.021099793
7	0x3cc2fa01	0.023800852
8	0x35cfe67b	1.548978e-06
9	0xb78454bb	-1.5775082e-05
10	0x360e65a1	2.1218805e-06
11	0x37228f7c	9.68936e-06
12	0xb6537977	-3.1512152e-06
13	0x3789ce28	1.6427672e-05
14	0x3727c916	1.0000795e-05
15	0xb56a5e89	-8.730936e-07

embedding_layer.embedding_layer.embedding_layers.dev_make_Honor.weight f4 [4, 4]
0	0x00000000	0.0
1	0x00000000	0.0
2	0x00000000	0.0
3	0x00000000	0.0
4	0xbca03fd3	-0.019561684
5	0xbd3beba6	-0.04587903
6	0x3b3e5161	0.0029040205
7	0x3d2a73ed	0.04161446
8	0x36e1e842	6.732561e-06
9	0x35b830c4	1.3723261e-06
10	0xb7978cf8	-1.8066246e-05
11	0x35aadd46	1.2730386e-06
12	0x36c24ea7	5.790807e-06
13	0xb68abfc2	-4.135044e-06
14	0xb6be392a	-5.669096e-06
15	0xb6a44be7	-4.896417e-06

embedding_layer.embedding_layer.embedding_layers.dev_make_Honor.weight f4 [4, 4]
0	0x00000000	0.0
1	0x00000000	0.0
2	0x00000000	0.0
3	0x00000000	0.0
4	0xbc57abdb	-0.013163532
5	0x3c51a442	0.01279551
6	0xbc3f3b15	-0.011671801
7	0xbc3e3faa	-0.011611858
8	0x35beb00a	1.4207337e-06
9	0x34e6257b	4.286811e-07
10	0xb6f0e5b1	-7.179297e-06
11	0xb6dbc9e7	-6.550213e-06
12	0xb6c8b3da	-5.981402e-06
13	0xb62792c5	-2.497037e-06
14	0xb761f652	-1.3468396e-05
15	0x35b0b4d3	1.3165649e-06

embedding_layer.embedding_layer.embedding_layers.dev_make_Huawei.weight f4 [4, 4]
0	0x00000000	0.0
1	0x00000000	0.0
2	0x00000000	0.0
3	0x00000000	0.0
4	0x3c228e58	0.009921633
5	0xbc51a207	-0.012794978
6	0x3c7e754c	0.015530895
7	0xbb33ab17	-0.002741521
8	0xb5110f7e	-5.4039253e-07
9	0xb6c90f1e	-5.9920267e-06
10	0x36be5457	5.6722597e-06
11	0xb72a0082	-1.0132908e-05
12	0xb663c8bb	-3.3942476e-06
13	0x370670ef	8.013317e-06
14	0xb7272791	-9.963188e-06
15	0x34c3ef69	3.6495774e-07

embedding_layer.embedding_layer.embedding_layers.dev_make_Infinix.weight f4 [4, 4]
0	0x00000000	0.0
1	0x00000000	0.0
2	0x00000000	0.0
3	0x00000000	0.0
4	0x3cc4dfc4	0.024032481
5	0xbc177b2a	-0.009245673
6	0x3cc4dbcb	0.024030587
7	0x3cbc850f	0.023012666
8	0xb6a6e9e8	-4.974416e-06
9	0xb6b160e9	-5.286293e-06
10	0xb63b2bd8	-2.7890692e-06
11	0xb755621e	-1.2718634e-05
12	0x37731fd2	1.4491337e-05
13	0x3612b607	2.186165e-06
14	0xb7302348	-1.0498632e-05
15	0x36d70b8a	6.4088426e-06

embedding_layer.embedding_layer.embedding_layers.dev_make_Kyocera.weight f4 [4, 4]
0	0x00000000	0.0
1	0x00000000	0.0
2	0x00000000	0.0
3	0x00000000	0.0
4	0xbd16975e	-0.03676545
5	0x3cadf66f	0.021235673
6	0x3cd0652b	0.025438866
7	0x3c1fa064	0.00974283
8	0x37025387	7.768052e-06
9	0x35c72929	1.4838635e-06
10	0xb791e7d0	-1.7393293e-05
11	0xb6f86c59	-7.4035893e-06
12	0x366d84b4	3.5392995e-06
13	0x36d0404c	6.206368e-06
14	0xb63bbe11	-2.7975805e-06
15	0xb6ae62a5	-5.197088e-06

embedding_layer.embedding_layer.embedding_layers.dev_make_LG.weight f4 [4, 4]
0	0x00000000	0.0
1	0x00000000	0.0
2	0x00000000	0.0
3	0x00000000	0.0
4	0x3af63275	0.0018783348
5	0xba7d7b2c	-0.0009669538
6	0x3c7baaee	0.015360577
7	0x3ce387f5	0.02777479
8	0xb5b346c6	-1.3357137e-06
9	0x36720a98	3.6066976e-06
10	0x3497f94c	2.830733e-07
11	0x372ef28b	1.042768e-05
12	0x375ef3b5	1.3288974e-05
13	0xb6a333aa	-4.863793e-06
14	0xb5e281d6	-1.6876099e-06
15	0x36e233f5	6.7413735e-06

embedding_layer.embedding_layer.embedding_layers.dev_make_Leagoo.weight f4 [4, 4]
0	0x00000000	0.0
1	0x00000000	0.0
2	0x00000000	0.0
3	0x00000000	0.0
4	0x3c1a17d0	0.009405091
5	0x3c1789ab	0.009249131
6	0x3c0f7b99	0.008757495
7	0xbc190d37	-0.00934153
8	0x3621e802	2.4125916e-06
9	0xb7209596	-9.571571e-06
10	0x37955d2c	1.780557e-05
11	0xb724a05f	-9.812501e-06
12	0xb4d83505	-4.0271712e-07
13	0xb71c9fd1	-9.335535e-06
14	0xb709a002	-8.203091e-06
15	0x37159e91	8.918011e-06

embedding_layer.embedding_layer.embedding_layers.dev_make_Lenovo.weight f4 [4, 4]
0	0x00000000	0.0
1	0x00000000	0.0
2	0x00000000	0.0
3	0x00000000	0.0
4	0x3c84cf44	0.016212113
5	0xbc1fddaf	-0.009757443
6	0x3a0a10ee	0.0005266805
7	0x3b5d2878	0.0033746045
8	0x36beb6fd	5.683744e-06
9	0x3736d81b	1.0898361e-05
10	0xb6a33cf9	-4.8648767e-06
11	0x374a428e	1.2055634e-05
12	0x36ccc739	6.1028663e-06
13	0xb627d676	-2.5009772e-06
14	0x36ed7834	7.077144e-06
15	0xb656585a	-3.1939912e-06

embedding_layer.embedding_layer.embedding_layers.dev_make_MXQ.weight f4 [4, 4]
0	0x00000000	0.0
1	0x00000000	0.0
2	0x00000000	0.0
3	0x00000000	0.0
4	0x3d0d73ec	0.03453438
5	0xbd0a3894	-0.033745363
6	0xbd0b112b	-0.03395192
7	0x3d0e01ac	0.034669563
8	0x3547f363	7.448745e-07
9	0x370fd8cc	8.573941e-06
10	0x368f66f5	4.273718e-06
11	0x370203d4	7.749495e-06
12	0xb6db30b3	-6.532378e-06
13	0x35c256e7	1.4479418e-06
14	0xb66d6e87	-3.5380087e-06
15	0xb5066bc2	-5.00757e-07

embedding_layer.embedding_layer.embedding_layers.dev_make_Maxwest.weight f4 [4, 4]
0	0x00000000	0.0
1	0x00000000	0.0
2	0x00000000	0.0
3	0x00000000	0.0
4	0x3c1fa8a3	0.009744796
5	0x3bfb5eac	0.007671198
6	0x3c019702	0.007909538
7	0x3c022bd5	0.007945021
8	0x3743fb11	1.1681362e-05
9	0xb76ca84e	-1.4105883e-05
10	0xb69b0daf	-4.620953e-06
11	0xb6fcfc40	-7.539551e-06
12	0x36d1de16	6.2545396e-06
13	0x363456c3	2.6872592e-06
14	0xb79b9280	-1.854566e-05
15	0xb6ba35e3	-5.549505e-06

embedding_layer.embedding_layer.embedding_layers.dev_make_Mikolotuk.weight f4 [4, 4]
0	0x00000000	0.0
1	0x00000000	0.0
2	0x00000000	0.0
3	0x00000000	0.0
4	0xbc2d8596	-0.010590931
5	0xbc8f8f6d	-0.017524445
6	0xbc861f60	-0.016372383
7	0xbc892459	-0.016740965
8	0xb3b657ba	-8.490993e-08
9	0x37be544b	2.2689017e-05
10	0x37128c7f	8.73499e-06
11	0x364cb1e9	3.0501926e-06
12	0x36e58248	6.8398986e-06
13	0x372a7f07	1.01623655e-05
14	0xb6a454a8	-4.897436e-06
15	0xb554798f	-7.9153045e-07

embedding_layer.embedding_layer.embedding_layers.dev_make_Motorola.weight f4 [4, 4]
0	0x00000000	0.0
1	0x00000000	0.0
2	0x00000000	0.0
3	0x00000000	0.0
4	0xbc96b6b1	-0.01839766
5	0x3d0dc870	0.03461498
6	0x3caadea8	0.020858124
7	0x3d3c9bb4	0.046046928
8	0xb67c3054	-3.7579057e-06
9	0xb7b5d44b	-2.1675738e-05
10	0xb6b3da96	-5.3600625e-06
11	0x36d19f05	6.2471977e-06
12	0xb789b4ab	-1.6415803e-05
13	0x356c0137	8.791862e-07
14	0xb73cd706	-1.1255737e-05
15	0x379f3462	1.897867e-05

embedding_layer.embedding_layer.embedding_layers.dev_make_Moxee.weight f4 [4, 4]
0	0x00000000	0.0
1	0x00000000	0.0
2	0x00000000	0.0
3	0x00000000	0.0
4	0xbd72955b	-0.059224468
5	0xbc86f4c1	-0.01647413
6	0xbc97d18a	-0.018532533
7	0x3b77d3b1	0.0037815387
8	0x36971b51	4.5033307e-06
9	0x353f48cc	7.125898e-07
10	0x357f2926	9.505478e-07
11	0xb7197515	-9.146771e-06
12	0xb76ddb5d	-1.4177375e-05
13	0xb61e3ed2	-2.35804e-06
14	0x364ae51f	3.0233712e-06
15	0x36cfe238	6.195416e-06

embedding_layer.embedding_layer.embedding_layers.dev_make_Multilaser.weight f4 [4, 4]
0	0x00000000	0.0
1	0x00000000	0.0
2	0x00000000	0.0
3	0x00000000	0.0
4	0x3cf9276d	0.030414307
5	0x3cbe33bd	0.02321803
6	0x3c771dd7	0.015082798
7	0x3cc8758e	0.024470117
8	0xb72c592a	-1.0272759e-05
9	0x36a486f4	4.9032915e-06
10	0xb6cdaeb9	-6.1298165e-06
11	0x361e0b3a	2.355037e-06
12	0x36c64b43	5.9096214e-06
13	0x36838e1e	3.920649e-06
14	0x35170aec	5.6267777e-07
15	0xb6c8b62c	-5.981672e-06

embedding_layer.embedding_layer.embedding_layers.dev_make_Nokia.weight f4 [4, 4]
0	0x00000000	0.0
1	0x00000000	0.0
2	0x00000000	0.0
3	0x00000000	0.0
4	0x3d411c9e	0.047146432
5	0xbc2904b2	-0.010316061
6	0x3d4331a8	0.047654778
7	0xbd437415	-0.047718126
8	0xb7a3ce3c	-1.952715e-05
9	0xb74d02a4	-1.2219567e-05
10	0x3769e1e5	1.3940477e-05
11	0xb64cc0ad	-3.051052e-06
12	0xb64c4742	-3.0439846e-06
13	0xb6563fe3	-3.1925672e-06
14	0xb6d2c902	-6.281888e-06
15	0x3665e912	3.4259324e-06

embedding_layer.embedding_layer.embedding_layers.dev_make_Nuu.weight f4 [4, 4]
0	0x00000000	0.0
1	0x00000000	0.0
2	0x00000000	0.0
3	0x00000000	0.0
4	0x3bd4c404	0.0064930934
5	0x3bdd075a	0.006745261
6	0xbb9dd708	-0.0048168935
7	0x3bab6a2c	0.0052311625
8	0xb70e16cd	-8.469168e-06
9	0xb44854c0	-1.8657283e-07
10	0xb65df3a9	-3.3073395e-06
11	0x3611a3d0	2.1702035e-06
12	0x36cb7246	6.0631746e-06
13	0xb7005946	-7.65018e-06
14	0xb6ff1d40	-7.6029974e-06
15	0xb6ba42a0	-5.550988e-06

embedding_layer.embedding_layer.embedding_layers.dev_make_ONN.weight f4 [4, 4]
0	0x00000000	0.0
1	0x00000000	0.0
2	0x00000000	0.0
3	0x00000000	0.0
4	0x3d0885a7	0.033330586
5	0x3d626ca3	0.055279385
6	0x3d176758	0.03696379
7	0xbd13783a	-0.03600333
8	0x371ead3d	9.457869e-06
9	0x37966ff3	1.7933524e-05
10	0xb65fd324	-3.335249e-06
11	0x378bca73	1.6664364e-05
12	0xb6bbc302	-5.595736e-06
13	0x373f04c8	1.13856e-05
14	0xb5fd63dd	-1.8879033e-06
15	0x377178ae	1.4392817e-05

embedding_layer.embedding_layer.embedding_layers.dev_make_OPPO.weight f4 [4, 4]
0	0x00000000	0.0
1	0x00000000	0.0
2	0x00000000	0.0
3	0x00000000	0.0
4	0x3d115b14	0.03548725
5	0xbcea54b8	-0.02860485
6	0xbc49cf31	-0.012317465
7	0x3c50fc11	0.01275541
8	0x3601e244	1.9354202e-06
9	0xb730b29b	-1.0532002e-05
10	0x3696e095	4.496493e-06
11	0xb5f8be22	-1.8532776e-06
12	0xb6a8ad4a	-5.0269637e-06
13	0x35d0958c	1.5540732e-06
14	0xb631539f	-2.642373e-06
15	0xb5fe00e4	-1.8924734e-06

embedding_layer.embedding_layer.embedding_layers.dev_make_OnePlus.weight f4 [4, 4]
0	0x00000000	0.0
1	0x00000000	0.0
2	0x00000000	0.0
3	0x00000000	0.0
4	0x3b7eadf8	0.0038861018
5	0x3ba79578	0.0051142536
6	0xbb411edc	-0.0029467857
7	0xbbc0bae9	-0.0058816564
8	0xb27b48be	-1.46266625e-08
9	0xb60fed58	-2.1446813e-06
10	0x3764478c	1.3606517e-05
11	0xb6869020	-4.0102896e-06
12	0xb7103b89	-8.5969305e-06
13	0xb701141d	-7.693682e-06
14	0xb785ed90	-1.596546e-05
15	0xb60dbcd0	-2.112054e-06

embedding_layer.embedding_layer.embedding_layers.dev_make_Orbic.weight f4 [4, 4]
0	0x00000000	0.0
1	0x00000000	0.0
2	0x00000000	0.0
3	0x00000000	0.0
4	0xbc83596f	-0.016033856
5	0x3c883aaa	0.016629536
6	0x3c4e731d	0.012600687
7	0xbc837aca	-0.016049761
8	0xb690f97e	-4.320579e-06
9	0x37a2608f	1.9356869e-05
10	0x37110556	8.643916e-06
11	0x3550a799	7.7729925e-07
12	0xb711cc28	-8.690207e-06
13	0xb74a00d6	-1.2040333e-05
14	0x360771fd	2.0182918e-06
15	0xb76099ab	-1.3387219e-05

embedding_layer.embedding_layer.embedding_layers.dev_make_Oukitel.weight f4 [4, 4]
0	0x00000000	0.0
1	0x00000000	0.0
2	0x00000000	0.0
3	0x00000000	0.0
4	0xbcd6999f	-0.0261963
5	0x3cd9a96e	0.026570048
6	0x3cc70b13	0.024297273
7	0x3cdf3954	0.027249016
8	0xb54e1342	-7.6769004e-07
9	0xb6a510f1	-4.9193554e-06
10	0xb68f5b7c	-4.2723823e-06
11	0x3680f6d7	3.843433e-06
12	0x375d5fe4	1.3194953e-05
13	0xb7115349	-8.662065e-06
14	0xb6632326	-3.3846095e-06
15	0x375279fe	1.2545379e-05

embedding_layer.embedding_layer.embedding_layers.dev_make_POCO.weight f4 [4, 4]
0	0x00000000	0.0
1	0x00000000	0.0
2	0x00000000	0.0
3	0x00000000	0.0
4	0xbb1cc442	-0.002392069
5	0xbbb344fe	-0.005470871
6	0xbb9c3020	-0.004766479
7	0xbd23cf1a	-0.03999243
8	0x369b7636	4.6331215e-06
9	0x3697d8a5	4.5253714e-06
10	0xb699c411	-4.5825805e-06
11	0x36629ab6	3.3766678e-06
12	0xb61fc01f	-2.3804675e-06
13	0x35d9aca3	1.6218004e-06
14	0xb6cf1d04	-6.1724586e-06
15	0xb701d888	-7.739414e-06

embedding_layer.embedding_layer.embedding_layers.dev_make_Philco.weight f4 [4, 4]
0	0x00000000	0.0
1	0x00000000	0.0
2	0x00000000	0.0
3	0x00000000	0.0
4	0xbc07a7a6	-0.008279717
5	0xbc15eb2c	-0.009150308
6	0x3be77dfd	0.0070645795
7	0x3c03213c	0.008003529
8	0x3732d3cc	1.065894e-05
9	0x36a249ce	4.836568e-06
10	0x37329879	1.0645127e-05
11	0x3703d239	7.857155e-06
12	0xb732f49c	-1.0666579e-05
13	0x36cefb0a	6.168503e-06
14	0x37944615	1.767561e-05
15	0x37804d9b	1.5294927e-05

embedding_layer.embedding_layer.embedding_layers.dev_make_Positivo.weight f4 [4, 4]
0	0x00000000	0.0
1	0x00000000	0.0
2	0x00000000	0.0
3	0x00000000	0.0
4	0x3cb5bf04	0.02218581
5	0xbc8f9932	-0.017529104
6	0xbc0552b6	-0.008137396
7	0xbc729d10	-0.014807954
8	0x379e883e	1.889851e-05
9	0x3614fbb0	2.220022e-06
10	0xb65ddb14	-3.3059086e-06
11	0xb633009f	-2.667344e-06
12	0x36b4e8e2	5.391529e-06
13	0xb62ec345	-2.6041682e-06
14	0xb74cec63	-1.2214386e-05
15	0xb6daa569	-6.5161626e-06

embedding_layer.embedding_layer.embedding_layers.dev_make_RCA.weight f4 [4, 4]
0	0x00000000	0.0
1	0x00000000	0.0
2	0x00000000	0.0
3	0x00000000	0.0
4	0x3cc395e1	0.023875179
5	0x3cb7425d	0.022370512
6	0xbcc4e644	-0.02403558
7	0x3ca5b69e	0.02022868
8	0x370fbbe5	8.567212e-06
9	0xb66af076	-3.5008684e-06
10	0xb799d248	-1.8336941e-05
11	0xb71391be	-8.795816e-06
12	0x36c00b7a	5.723382e-06
13	0x3728397a	1.0026963e-05
14	0xb71b01c2	-9.239129e-06
15	0xb7715d4e	-1.4386444e-05

embedding_layer.embedding_layer.embedding_layers.dev_make_Realme.weight f4 [4, 4]
0	0x00000000	0.0
1	0x00000000	0.0
2	0x00000000	0.0
3	0x00000000	0.0
4	0xbc03e888	-0.008051045
5	0xbbe7c0d0	-0.0070725456
6	0xbbfa6c89	-0.007642333
7	0x3bdc5861	0.006724403
8	0xb740aa04	-1.1483677e-05
9	0x372ab3d9	1.0174664e-05
10	0x3780a290	1.5334488e-05
11	0x368faf55	4.2821434e-06
12	0xb607a230	-2.0210973e-06
13	0x3753c139	1.2621568e-05
14	0x369a4658	4.5977467e-06
15	0xb71346fe	-8.778412e-06

embedding_layer.embedding_layer.embedding_layers.dev_make_Samsung.weight f4 [4, 4]
0	0x00000000	0.0
1	0x00000000	0.0
2	0x00000000	0.0
3	0x00000000	0.0
4	0xbbbada99	-0.0057023284
5	0xbbd68867	-0.006547022
6	0xbb8a9c68	-0.004230071
7	0x3c369154	0.011143047
8	0x37294283	1.0088671e-05
9	0xb56a4af4	-8.7280864e-07
10	0x38008a14	3.0646173e-05
11	0x372e40fb	1.0386338e-05
12	0x36651efc	3.4141694e-06
13	0xb704ba4d	-7.91119e-06
14	0xb6737e30	-3.6283272e-06
15	0x36d65386	6.3874204e-06

embedding_layer.embedding_layer.embedding_layers.dev_make_Schok.weight f4 [4, 4]
0	0x00000000	0.0
1	0x00000000	0.0
2	0x00000000	0.0
3	0x00000000	0.0
4	0xbd36fba8	-0.04467359
5	0xbd46be86	-0.04852154
6	0xbd4f3402	-0.050586708
7	0xbd4e27d7	-0.050330963
8	0xb4a81787	-3.1309557e-07
9	0x36839be9	3.9222546e-06
10	0xb7356aa5	-1.0813271e-05
11	0x36677a5d	3.4492907e-06
12	0xb68067ef	-3.8267967e-06
13	0x36d49efd	6.336601e-06
14	0xb6e565d7	-6.8365875e-06
15	0x361fa1b8	2.378698e-06

embedding_layer.embedding_layer.embedding_layers.dev_make_Schok.weight f4 [4, 4]
0	0x00000000	0.0
1	0x00000000	0.0
2	0x00000000	0.0
3	0x00000000	0.0
4	0x3cee0d92	0.029059205
5	0xbce9d052	-0.028541718
6	0x3ceb30e1	0.02870983
7	0x3cf6ce28	0.0301276
8	0x3689daf6	4.1084086e-06
9	0xb6ea7768	-6.987644e-06
10	0x36d50af9	6.349172e-06
11	0x375d112f	1.3176627e-05
12	0x36473c3a	2.9688367e-06
13	0xb7112553	-8.651364e-06
14	0x362721e2	2.4904662e-06
15	0x36b8ccaf	5.5074556e-06

embedding_layer.embedding_layer.embedding_layers.dev_make_Sony.weight f4 [4, 4]
0	0x00000000	0.0
1	0x00000000	0.0
2	0x00000000	0.0
3	0x00000000	0.0
4	0xbca94e59	-0.020667242
5	0x3caaacb6	0.020834308
6	0xbca876c9	-0.020564454
7	0xbca93684	-0.020655878
8	0xb49e8caa	-2.953214e-07
9	0xb72110f8	-9.600299e-06
10	0xb59a0dd1	-1.1477915e-06
11	0x3728b2e4	1.00552315e-05
12	0xb75cdbfd	-1.3164242e-05
13	0x378ab04c	1.6532977e-05
14	0xb67eacd5	-3.794955e-06
15	0x3688090d	4.0541695e-06

embedding_layer.embedding_layer.embedding_layers.dev_make_T-Mobile.weight f4 [4, 4]
0	0x00000000	0.0
1	0x00000000	0.0
2	0x00000000	0.0
3	0x00000000	0.0
4	0xbd14edf0	-0.036359727
5	0xbd344fab	-0.04402129
6	0xbcd980a6	-0.026550602
7	0x3ce34a2f	0.027745334
8	0x34dce1ab	4.1142388e-07
9	0xb755e50a	-1.2749117e-05
10	0xb6dad052	-6.521158e-06
11	0xb6bb316c	-5.5787877e-06
12	0xb7083539	-8.118624e-06
13	0x3721feff	9.655719e-06
14	0xb6d7efc9	-6.435414e-06
15	0x37b3b34b	2.1421953e-05
